temp/log/CartPole-v0/ppo/policy.pth (torch, 25076 bytes, 22 tensors)

actor.preprocess.model.model.0.weight f4 [64, 4]
00000000: 2052 39bd b392 c43c 7af2 22bd 9fc8 ef3d
00000010: d1d8 02be 35e2 0a3e 9412 07be cfc9 94be
00000020: c811 1a3d 1667 7e3c 5b5e c83c 6d9b 2d3e
00000030: dff0 68bd 5ed4 643c c2ad a53d 750f 10bd
00000040: 8223 40be daa2 69be c7f6 6ebe 65d5 f03d
00000050: 2a55 c83d 0d3d 39bd 0723 b03e 0bd9 753d
00000060: 5056 e2bd e508 5f3d addd 6c3d c761 babd
00000070: 83a8 e63d 4d77 05be 893f 80bd 59df 5fbd
00000080: bee7 4ebe 3bf6 e23d 2db0 0a3d b786 40bd
00000090: fd1c da3d 4b1e 11be 86a2 0cbe 932a 24bd
000000a0: ece6 9fbd a522 1f3d b2b2 593d b3dc 7fbd
000000b0: 4f65 b4bd 25dc 71bb e020 a03d b14a ae3d
000000c0: 9cdd 45bd 573c 833d 3932 8dbe 3a79 1bbe
000000d0: 381d af3b dc6a 03be 4cfb 4ebe ad9d 833e
000000e0: db01 0a3d b2af ba3d c87b 9cbc 51d6 b43c
000000f0: 6388 66bd 68d1 6a3d 5b0f 52bd 8e33 86bd
00000100: 6057 813b 9a83 843d 917e 30bc 1838 c43d
00000110: db01 24bc acbe d6bd 5c09 0bbc 545f 6ebe
00000120: 6643 cabd c594 483c 8ea1 e73d c942 7f3e
00000130: f5f5 d7bb 983c 533c 7f82 edbd 4b63 e73c
00000140: 5ff7 9fbe 7b1a 41be 268c b53d 20e5 033d
00000150: fe5c 4abd 2519 283e a6b6 823d 3975 163d
00000160: b84e 003c f81d 3f3d 59b2 77bc 24d4 58bc
00000170: 3fd1 10be 9a7d c9bc 3a78 d8bc 27ca 993d
00000180: bf46 173e e00c 703e 2b96 c4bd ad9c e5bd
00000190: 7892 303d d693 ae3c e5c4 373d 7b6a 9fbd
000001a0: 9d51 52be 2600 613e c707 293e 38a6 8c3d
000001b0: c66e 55bd c98b ac3b 608b d3bd bf71 3d3c
000001c0: 412a cf3d 4771 34bd c0ed 0bbe 23b5 103d
000001d0: 146c 0f3e 040f a03c a3c0 4abe 8cf9 43bd
000001e0: 0763 3a3e bbe1 eb3d 9d54 84bd 1cca fb3d
000001f0: 6421 823c 686d 80b9 88ae 8e3d 1613 5a3e
00000200: 1d9b ecbd 9e5e ecbd 8e5b ad3e b4c9 06be
00000210: 72e4 14be 9ec1 b03d 2615 b53c 6aba 4b3b
00000220: 8ce4 033d 93ee a2bd dd9c ae3c b247 acbd
00000230: edb4 aa3d bb6b 853d 843a f9bb f9a2 cf3c
00000240: a98d f6bd e4de 1abe 1f8b 42be 8594 e2bd
00000250: 44fc 24be d7b7 9d3d 7f04 b63c af82 e5bd
00000260: 24c2 2bbe 11a9 4f3c 3944 e03d 1db0 073d
00000270: 79b9 543b 8718 e33c 6445 f93d ff10 6dbc
00000280: 7469 11be 396b f63d 17d4 b7bd 5160 263e
00000290: 45f7 63be 6a46 bf3d b0d7 9fbd f8ef 433e
000002a0: 9ce7 293d 5e16 e2bd e823 2cbc 56da 5c3e
000002b0: 67cb d93d e8f3 6abe 3bc8 c03d 217a 9cbd
000002c0: 8c9b b63e ee25 343e 1153 c4bb ce4d 093e
000002d0: 38fa 333d 741d b0be 1e82 92bd 01f6 8ebd
000002e0: 1b95 5dbe 742d cd3a 616e 31bd e8dd 043d
000002f0: 15a9 323d f8cd 3c3e 3758 d93d dae2 bcbd
00000300: 239b 08be 075b 223e c57f 97be 6126 773e
00000310: 9e14 2bbd adc7 0d3e 0a99 72be c7f7 f4bd
00000320: 8922 94bd 65c7 033d 17c1 98bd 7a12 adbd
00000330: bda9 823d e84a abbd c8d6 cf3d a627 b0bd
00000340: 98ad 423d 5512 6b3e 23c7 b73d 09ae 6e3e
00000350: 41ac 85bc 393f 813d 9e2d 18be 427a 67bd
00000360: 2641 ad3d f2d5 953c 1527 423c 3767 a0bd
00000370: a454 ff3d 5683 6abe 166a 97bc ca90 203e
00000380: 0dcf 3d3e 88a1 953d 0e72 debd 1cce b23c
00000390: 0ae2 103e 6494 86bd 45c8 63bd 0a0a f539
000003a0: c248 4c3e 6ec3 7b3d b13a ef3d cf0c fd3d
000003b0: 8a7a e23c 236d 683d 0712 13be 608e 7dbe
000003c0: 4454 513b 9b2d 173d ccf8 a3bc efc4 263c
000003d0: f606 d8bd 0ed1 043e a42e 0b3e b74f 35be
000003e0: ea69 ccbd fb36 343e 1423 b6bd 3b96 b13d
000003f0: 1b36 343e 512b 913e be71 623d fbd4 17be
-0.045244336 0.023995733 -0.039782025 0.11708187 -0.12778021 0.13562854 -0.1319068 -0.29060218
0.037614614 0.015527507 0.024459055 0.16953821 -0.056870338 0.013966648 0.08089782 -0.03517099
-0.18763545 -0.22816029 -0.23336326 0.11759452 0.09781869 -0.04522424 0.34401724 0.06002144
-0.11051619 0.05445184 0.057828594 -0.09100681 0.1126261 -0.13033791 -0.06262118 -0.05465636
-0.2020559 0.11082121 0.03385942 -0.047003474 0.1065006 -0.14171712 -0.13733873 -0.040079664
-0.07807717 0.0388514 0.053148933 -0.062466335 -0.088083856 -0.0036904898 0.078187704 0.0851034
-0.048307046 0.06407993 -0.2757738 -0.15182963 0.0053440593 -0.12833732 -0.2021305 0.25706235
0.033693176 0.091155425 -0.019101992 0.02207485 -0.056282412 0.05732861 -0.051284175 -0.06552802
0.0039471835 0.064704135 -0.010772363 0.095810115 -0.010010208 -0.104855865 -0.008486118 -0.23278552
-0.098761365 0.012242501 0.11310111 0.2492782 -0.0065905997 0.012892865 -0.11597156 0.028245589
-0.31243417 -0.18857758 0.08864622 0.032200933 -0.04940509 0.16415842 0.06382494 0.036732886
0.007831268 0.04665944 -0.015118205 -0.013234172 -0.14142321 -0.024596024 -0.026424516 0.075092606
0.14773081 0.23442411 -0.09598955 -0.11211524 0.043108433 0.021310728 0.044865508 -0.077839814
-0.20538945 0.21972713 0.16506873 0.06867641 -0.052107595 0.005265687 -0.10329318 0.011562764
0.10115481 -0.044053342 -0.13664913 0.035328995 0.14006072 0.01953841 -0.19800048 -0.04784541
0.18201838 0.11517664 -0.06461451 0.12294409 0.015885063 -0.00024495577 0.06966883 0.21296343
-0.11553023 -0.11541484 0.33858913 -0.13162881 -0.1454027 0.086306795 0.02210481 0.0031086453
0.03220038 -0.07955661 0.021315033 -0.08412112 0.0833529 0.065146886 -0.0076058526 0.025346266
-0.12038738 -0.15124089 -0.18998383 -0.11063484 -0.16111857 0.0770108 0.02221894 -0.112065665
-0.16773278 0.012674586 0.109505124 0.03312694 0.0032459183 0.027721656 0.12171438 -0.014469384
-0.14200383 0.1203217 -0.08976 0.1624768 -0.22262295 0.09339602 -0.07804811 0.1913451
0.041480646 -0.110394225 -0.010506608 0.21567664 0.10634499 -0.22944605 0.09413191 -0.07640482
0.35665548 0.17592594 -0.0059913476 0.13408586 0.0439398 -0.3439747 -0.07153724 -0.06980515
-0.2163891 0.0015653805 -0.043318156 0.03243819 0.04361828 0.18437946 0.10612529 -0.09222956
-0.1334043 0.15855037 -0.29589668 0.24135734 -0.04176771 0.13845702 -0.23691192 -0.11961322
-0.072331496 0.03217258 -0.07458704 -0.0845079 0.06380031 -0.083638966 0.10148388 -0.08601312
0.047528833 0.22956212 0.08973529 0.23308577 -0.016317489 0.06310887 -0.14861152 -0.05651308
0.08459692 0.018290494 0.011850138 -0.07832187 0.12467316 -0.22901663 -0.018483203 0.15680233
0.18536015 0.073062 -0.10861598 0.021826796 0.14148727 -0.06571272 -0.055610914 0.0004673752
0.1994963 0.061465673 0.11681116 0.12355959 0.027646322 0.056744706 -0.14362346 -0.24761343
0.0031941095 0.036908727 -0.020016097 0.010178789 -0.10548203 0.12970373 0.1359201 -0.1770619
-0.09981139 0.17599098 -0.08893409 0.08671232 0.17598765 0.2835336 0.055284254 -0.1482734

actor.preprocess.model.model.0.bias f4 [64]
00000000: 0000 0000 0000 0000 0000 0000 0000 0000
00000010: 0000 0000 0000 0000 0000 0000 0000 0000
00000020: 0000 0000 0000 0000 0000 0000 0000 0000
00000030: 0000 0000 0000 0000 0000 0000 0000 0000
00000040: 0000 0000 0000 0000 0000 0000 0000 0000
00000050: 0000 0000 0000 0000 0000 0000 0000 0000
00000060: 0000 0000 0000 0000 0000 0000 0000 0000
00000070: 0000 0000 0000 0000 0000 0000 0000 0000
00000080: 0000 0000 0000 0000 0000 0000 0000 0000
00000090: 0000 0000 0000 0000 0000 0000 0000 0000
000000a0: 0000 0000 0000 0000 0000 0000 0000 0000
000000b0: 0000 0000 0000 0000 0000 0000 0000 0000
000000c0: 0000 0000 0000 0000 0000 0000 0000 0000
000000d0: 0000 0000 0000 0000 0000 0000 0000 0000
000000e0: 0000 0000 0000 0000 0000 0000 0000 0000
000000f0: 0000 0000 0000 0000 0000 0000 0000 0000
0.0 0.0 0.0 0.0 0.0 0.0 0.0 0.0
0.0 0.0 0.0 0.0 0.0 0.0 0.0 0.0
0.0 0.0 0.0 0.0 0.0 0.0 0.0 0.0
0.0 0.0 0.0 0.0 0.0 0.0 0.0 0.0
0.0 0.0 0.0 0.0 0.0 0.0 0.0 0.0
0.0 0.0 0.0 0.0 0.0 0.0 0.0 0.0
0.0 0.0 0.0 0.0 0.0 0.0 0.0 0.0
0.0 0.0 0.0 0.0 0.0 0.0 0.0 0.0

actor.preprocess.model.model.2.weight f4 [64, 64]
00000000: 803e 0abd bacf 9a3c 5874 7fbc 50b1 f4bd
00000010: 5e44 9cbc 0c54 df3c 8880 b33d 873f 07be
00000020: 8f9c 223e 2e1b 603e 76af 7dbe ac95 3cbd
00000030: 9ee0 9c3d 6432 2f3e b092 3bbe 9821 2f3d
00000040: f122 993c 3b79 9abc fcfd bebc 97ea 3a3e
00000050: d3a5 db3d 5ebd 43bc 225e 82bd b705 23be
00000060: b869 503e 2a4e e73d 1bdf 73be 8753 41be
00000070: 81c3 a83e 433d 20be 4b3a debc 8959 91bc
00000080: cafb 29bd 3a9e c5bc d30a 043b 1d32 163d
00000090: 54ce 2dbe 85ab 4dbd 215e 17be 8177 023e
000000a0: 9967 50be a3e1 89bd acb4 1cbd f2cc 3ebd
000000b0: bbd0 3a3c 17e6 edbc 3740 53bc 9854 82be
000000c0: c184 35be 3711 a33d d64f d73d 932b cfbd
000000d0: 2dd6 44bd 92dd 6ebd a777 9e3b 3ead 43bd
000000e0: 21c4 29bd 4c03 9f3d 1a03 293e 3315 88bd
000000f0: e1de ae3c 2b82 2e3e b00d e8bd bd3d 743e
00000100: 4c39 bebc f07e e0bd 0f0e 2a3e 9986 fa3d
00000110: 0962 b4bc 6b47 813e e898 463e 0774 ef3d
00000120: 8e51 f03d 3af7 1cbe 5b29 253d ca05 5a3d
00000130: a1f7 2c3e 6f58 81bd e2b6 d8bc 3434 993d
00000140: 0318 323e b506 f23c 1d26 053d dc9d 163e
00000150: bfd3 ec3d 2865 a73d 4a6f 95bd faaf 963c
00000160: 6aae 15bd f363 09be 74aa d0bc f1e1 8a3d
00000170: a292 803d 1930 62be d6ea fcbd c067 59bd
00000180: 35ea 073e 9347 ddbd 49c8 78ba 62d7 6a3d
00000190: 737e 05be c4d8 31be b397 313e dd99 ebbd
000001a0: 4423 29be 3d4c 06be 990f 1bbd 5986 1d3e
000001b0: 1f1e 5abd d8cd 053d 744d 6ebd c3fb ff3d
000001c0: f7ce 473e 4560 ecbc 1dec 14be 967c f13c
000001d0: cf74 4cbe 9fd2 16be 36ad 05be 8ae6 6c3e
000001e0: 3b5c 20be fac2 20be 5af0 083e e40f 24bd
000001f0: 22c2 5bbe e3e7 46be d387 a6bd 343a a23d
00000200: 8d99 133e a74d 7e3e 6079 933d 98c0 c5bd
00000210: f61a 36be 82da 7dbd 9c7e f2bd d713 36be
00000220: 7cb7 43bc e291 a13d 28d2 1f3e 29d3 7d3d
00000230: 2cc8 14be 3e06 33bd 7a2c 1e3d 2dc4 d1bd
00000240: 3c64 58bd fe26 e4bd f51f 183e d070 d73d
00000250: 8839 23bd 1aec 263e febf 9abd 6322 033e
00000260: 6015 2c3d 7cb0 323b d034 38be 9bc0 7f3d
00000270: 88da bdbd 4027 6fbc 3e11 3c3e 9971 8e3d
00000280: 43cc cabd 5831 86be 2d62 f6bd da87 21be
00000290: e8dd 11be 4b56 dcbd 4fb7 31bd bc8e 753d
000002a0: 6289 3ebe c8c3 ef3b c2c9 8cbd b705 84be
000002b0: aa49 8fbd 8d49 963d 53f3 72be 3221 4e3e
000002c0: 9837 073d 1836 e23d 486e 3dbe 7f99 75be
000002d0: 5411 aebd d60d 363e ae41 37bc eae3 a43c
000002e0: 4b90 d23d 0725 09be 988f a93c 5376 883d
000002f0: c83e 27bd 44be 48bd f89c 05be c1d5 13bd
00000300: a758 193d 1795 21be 2dbf ad3c 1803 22be
00000310: a90f 2e3e 5405 30bc 0eb0 7bbd e93b 0b3e
00000320: 6361 893d d263 f63d e650 9d3e d64f a93d
00000330: db56 0e3e 56e4 9d3e 2237 9bbd 71dc e3bd
00000340: 8a28 59bc da35 993d edb1 f73c 6479 04be
00000350: bc95 a03d d1ad 333e c711 be3d bf0d fd3b
00000360: 8093 d338 9268 1bbe 8ed0 2bbe 030a 67bd
00000370: c950 813d a070 013c c01b 7a3d 7696 8fbc
00000380: e950 513e bcc5 793d 4a1e b3bd 0905 54bd
00000390: 68c7 653c 59f2 28be c3af 4fbe b426 56bd
000003a0: 7a51 8f3d a8b2 09be ad13 71be 480e 97bc
000003b0: 33c6 45bd f908 41bd 7ee2 b5bd 7303 07be
000003c0: 88b5 1e3e f493 14bd a893 afbc 0580 ca3d
000003d0: 8422 a23e a267 38bc d240 99bd 2bd0 19be
000003e0: 4b05 26bd 460e 4fbe 5379 44be c13f fdbc
000003f0: f276 a4bc 98c0 f43c c719 0fbe a1f8 ddbd
-0.03375101 0.01889788 -0.015591703 -0.11947882 -0.019075569 0.027261756 0.0876475 -0.13207828
0.15880035 0.21885368 -0.24773964 -0.046041176 0.0766003 0.17109066 -0.18317676 0.042756647
0.01869342 -0.018856635 -0.023314469 0.18253551 0.10724988 -0.011947004 -0.06365611 -0.15920149
0.20352829 0.112942055 -0.23815577 -0.1887952 0.32961658 -0.1564837 -0.027127406 -0.017742889
-0.04149989 -0.0241233 0.0020148053 0.036668885 -0.16973239 -0.050212402 -0.14782001 0.127409
-0.2035202 -0.0673249 -0.03825824 -0.04658217 0.011402304 -0.02904038 -0.012893728 -0.25455165
-0.17726423 0.07962268 0.10513274 -0.10115733 -0.048055816 -0.058316775 0.004836041 -0.04777264
-0.04144681 0.07764301 0.1650509 -0.066446684 0.021346511 0.17041843 -0.11330736 0.23851676
-0.02322068 -0.109617114 0.16606925 0.12232704 -0.022019403 0.252498 0.19394267 0.11692052
0.11734305 -0.15328684 0.040322643 0.053228177 0.16891338 -0.063156955 -0.026454393 0.0748066
0.17391972 0.029544214 0.03250705 0.14708656 0.11563825 0.08173591 -0.07296617 0.018394459
-0.036543287 -0.13417034 -0.025471903 0.06781376 0.06277968 -0.2208866 -0.12349479 -0.05307746
0.13272937 -0.10804667 -0.0009490294 0.05733431 -0.13036518 -0.17367846 0.17343025 -0.115039565
-0.16517359 -0.1311502 -0.037856672 0.15383281 -0.053251382 0.03266701 -0.058179334 0.124991916
0.19512545 -0.028854499 -0.14543195 0.029478353 -0.19966434 -0.14728783 -0.13054356 0.23134819
-0.15660183 -0.15699378 0.13372937 -0.040054217 -0.21460775 -0.19424395 -0.08131375 0.079212576
0.14414044 0.2483431 0.07200885 -0.09655875 -0.17783722 -0.061975963 -0.11840555 -0.17781006
-0.011945602 0.07889153 0.15607512 0.061968956 -0.14529485 -0.043707125 0.038616635 -0.10242496
-0.052829966 -0.1114025 0.1485594 0.10519564 -0.039849788 0.16301003 -0.07556151 0.12806086
0.042012572 0.0027265837 -0.17988896 0.062439542 -0.09270197 -0.01459676 0.18365952 0.06955261
-0.09902241 -0.2620952 -0.12030444 -0.1577448 -0.14244807 -0.107586466 -0.043387707 0.059950575
-0.18607095 0.00731704 -0.0687442 -0.2578561 -0.06996472 0.073382474 -0.23725633 0.2012985
0.033012003 0.11045474 -0.184991 -0.23984335 -0.08499399 0.17778715 -0.011185093 0.02012821
0.10281428 -0.13393031 0.020698354 0.066631936 -0.040831357 -0.049009576 -0.1304816 -0.036092523
0.03743806 -0.1577953 0.021209324 -0.15821493 0.16998161 -0.010743458 -0.061447196 0.13597073
0.06708028 0.12030758 0.30725783 0.082671806 0.1390032 0.3083827 -0.07578875 -0.1112603
-0.013254294 0.074809745 0.030236209 -0.12936932 0.078410596 0.17546774 0.092807345 0.007722586
0.00010088738 -0.15176609 -0.16778776 -0.056406032 0.06314237 0.007900387 0.06106162 -0.0175278
0.20441021 0.06097959 -0.087460116 -0.051762614 0.014024593 -0.16498698 -0.20281892 -0.052283004
0.06997962 -0.13447058 -0.23542662 -0.018439427 -0.04828472 -0.047127698 -0.088810906 -0.1318491
0.15498936 -0.03627391 -0.021432713 0.09887699 0.31666958 -0.011255177 -0.074830666 -0.15020816
-0.04053239 -0.20220289 -0.19186907 -0.03091419 -0.020076249 0.029876992 -0.13974677 -0.10838438

actor.preprocess.model.model.2.bias f4 [64]
00000000: 0000 0000 0000 0000 0000 0000 0000 0000
00000010: 0000 0000 0000 0000 0000 0000 0000 0000
00000020: 0000 0000 0000 0000 0000 0000 0000 0000
00000030: 0000 0000 0000 0000 0000 0000 0000 0000
00000040: 0000 0000 0000 0000 0000 0000 0000 0000
00000050: 0000 0000 0000 0000 0000 0000 0000 0000
00000060: 0000 0000 0000 0000 0000 0000 0000 0000
00000070: 0000 0000 0000 0000 0000 0000 0000 0000
00000080: 0000 0000 0000 0000 0000 0000 0000 0000
00000090: 0000 0000 0000 0000 0000 0000 0000 0000
000000a0: 0000 0000 0000 0000 0000 0000 0000 0000
000000b0: 0000 0000 0000 0000 0000 0000 0000 0000
000000c0: 0000 0000 0000 0000 0000 0000 0000 0000
000000d0: 0000 0000 0000 0000 0000 0000 0000 0000
000000e0: 0000 0000 0000 0000 0000 0000 0000 0000
000000f0: 0000 0000 0000 0000 0000 0000 0000 0000
0.0 0.0 0.0 0.0 0.0 0.0 0.0 0.0
0.0 0.0 0.0 0.0 0.0 0.0 0.0 0.0
0.0 0.0 0.0 0.0 0.0 0.0 0.0 0.0
0.0 0.0 0.0 0.0 0.0 0.0 0.0 0.0
0.0 0.0 0.0 0.0 0.0 0.0 0.0 0.0
0.0 0.0 0.0 0.0 0.0 0.0 0.0 0.0
0.0 0.0 0.0 0.0 0.0 0.0 0.0 0.0
0.0 0.0 0.0 0.0 0.0 0.0 0.0 0.0

actor.last.model.0.weight f4 [2, 64]
00000000: c0f2 2cbd b8a0 b2bd efa5 7e3d 3115 873d
00000010: 3dbd 8cbd e753 8bbd 6265 d93d ceda ddbc
00000020: b499 0fbe 2a90 23bd 8e50 cbbc 7f48 4c3d
00000030: d7d8 053e 5426 fdbc 4bd2 66be d571 043e
00000040: ed64 33be 3231 3ebe 4501 2a3e cb3d 463e
00000050: 8426 373d 18df 063d 975f d9bc cc6f c6ba
00000060: fd0a 133e f156 7dbd 0e1e 34be 74b5 15be
00000070: bc07 33bd c00f b33d 6178 efbd d3fb 00be
00000080: 8f39 473e d0f6 2b3e 0636 1b3e 8f63 2f3e
00000090: b3e8 9abd 4955 ff3d 4d64 5a3c 7ed3 46bd
000000a0: c5f6 f33d e368 183e 2086 0abd 9519 f43d
000000b0: 8cdc bcbc 25d3 9c3c 3451 28bd 843e 5f3d
000000c0: d0a2 1ebe e976 623e 1908 a43d 87c0 4dbe
000000d0: 7057 0f3e 2d44 f0bb 6f07 53be c2fe 82be
000000e0: 6527 a1be 1633 d6bb e80c 1d3d ee52 143e
000000f0: 368d 5c3d 2421 313d c81d 243e 9084 4dbd
00000100: 2888 9cbd 0bec 79be b316 0dbd 139e 163e
00000110: 7b9c 63bd fb70 563d b1bb 183e aca6 af3d
00000120: 615c 3f3e 9641 33bb 5680 4dbe 383d 1ebe
00000130: 0e79 a73d d1f6 97be 506c 2b3e b895 75be
00000140: 4a46 1dbd 3e69 073d 8576 b03e 54d8 0cbd
00000150: 0a8b 403d b237 77bd 4d2b b3bd c7ab cfbd
00000160: e530 223d e37f 57be 981f 8cbd ccde bdbd
00000170: 0477 67bd c63a 9cbd eeff 2c3d b7fa eeba
00000180: aa41 283e 4261 fdbc ba70 6fbc 339f f9bd
00000190: b285 04bd 3cb4 03be e21b f43d 13a4 50bd
000001a0: 5341 073d 6934 41bd f2ba f1bd 5dfd 6fbc
000001b0: 0034 a33d 90e0 1abe ff75 7d3d bba8 633d
000001c0: 293f 903e a76d 433d ee0d 223e 9f2e a2bd
000001d0: 3d8a 423d f12f 16be 86c0 b73c 4f34 673c
000001e0: b827 013e 1987 e0bd 7979 55be cab6 f5bd
000001f0: 13e2 52bd 51b2 973d f6e0 ff3d 0f52 54bd
-0.042223692 -0.08722061 0.062169965 0.06595839 -0.06872032 -0.068031125 0.1061504 -0.027081873
-0.14023477 -0.039932407 -0.024818685 0.049873825 0.13070999 -0.030902065 -0.22541158 0.12934048
-0.17518969 -0.18573454 0.16602047 0.1935951 0.044714466 0.032927603 -0.026534839 -0.0015139519
0.1435966 -0.061850492 -0.1758959 -0.1462 -0.043708548 0.087432384 -0.11692882 -0.12596063
0.1945555 0.1679337 0.15157327 0.17127822 -0.07563915 0.12467439 0.013329578 -0.04854154
0.11912302 0.14883761 -0.033819318 0.11918942 -0.023054384 0.01914365 -0.041093066 0.05450298
-0.15491796 0.22115673 0.08009357 -0.20092975 0.13998199 -0.007332346 -0.20608304 -0.2558499
-0.31475368 -0.0065368516 0.038342386 0.1448476 0.053845607 0.043244496 0.16026986 -0.05017525
-0.07643157 -0.2440645 -0.034445476 0.14708738 -0.055569153 0.05235384 0.14915349 0.08576712
0.18687584 -0.0027352325 -0.20068488 -0.1545304 0.08177386 -0.29680493 0.16740537 -0.23982894
-0.03839711 0.03305935 0.34465423 -0.034385994 0.047007598 -0.06035585 -0.08748493 -0.10140186
0.03959741 -0.21044879 -0.068419635 -0.09271011 -0.056509987 -0.07628398 0.04223626 -0.0018232678
0.16431299 -0.030930165 -0.014614278 -0.12188568 -0.032354064 -0.12861723 0.11919381 -0.050937723
0.033021282 -0.047169123 -0.11803235 -0.014647809 0.079689026 -0.15124726 0.061880108 0.055580836
0.28173187 0.047711994 0.15825626 -0.079190485 0.047495116 -0.14666726 0.02243067 0.014111592
0.12612808 -0.10963268 -0.2084712 -0.11997755 -0.051485132 0.07407058 0.1249408 -0.05183607

actor.last.model.0.bias f4 [2]
00000000: 0000 0000 0000 0000
0.0 0.0

critic.preprocess.model.model.0.weight f4 [64, 4]
00000000: 2052 39bd b392 c43c 7af2 22bd 9fc8 ef3d
00000010: d1d8 02be 35e2 0a3e 9412 07be cfc9 94be
00000020: c811 1a3d 1667 7e3c 5b5e c83c 6d9b 2d3e
00000030: dff0 68bd 5ed4 643c c2ad a53d 750f 10bd
00000040: 8223 40be daa2 69be c7f6 6ebe 65d5 f03d
00000050: 2a55 c83d 0d3d 39bd 0723 b03e 0bd9 753d
00000060: 5056 e2bd e508 5f3d addd 6c3d c761 babd
00000070: 83a8 e63d 4d77 05be 893f 80bd 59df 5fbd
00000080: bee7 4ebe 3bf6 e23d 2db0 0a3d b786 40bd
00000090: fd1c da3d 4b1e 11be 86a2 0cbe 932a 24bd
000000a0: ece6 9fbd a522 1f3d b2b2 593d b3dc 7fbd
000000b0: 4f65 b4bd 25dc 71bb e020 a03d b14a ae3d
000000c0: 9cdd 45bd 573c 833d 3932 8dbe 3a79 1bbe
000000d0: 381d af3b dc6a 03be 4cfb 4ebe ad9d 833e
000000e0: db01 0a3d b2af ba3d c87b 9cbc 51d6 b43c
000000f0: 6388 66bd 68d1 6a3d 5b0f 52bd 8e33 86bd
00000100: 6057 813b 9a83 843d 917e 30bc 1838 c43d
00000110: db01 24bc acbe d6bd 5c09 0bbc 545f 6ebe
00000120: 6643 cabd c594 483c 8ea1 e73d c942 7f3e
00000130: f5f5 d7bb 983c 533c 7f82 edbd 4b63 e73c
00000140: 5ff7 9fbe 7b1a 41be 268c b53d 20e5 033d
00000150: fe5c 4abd 2519 283e a6b6 823d 3975 163d
00000160: b84e 003c f81d 3f3d 59b2 77bc 24d4 58bc
00000170: 3fd1 10be 9a7d c9bc 3a78 d8bc 27ca 993d
00000180: bf46 173e e00c 703e 2b96 c4bd ad9c e5bd
00000190: 7892 303d d693 ae3c e5c4 373d 7b6a 9fbd
000001a0: 9d51 52be 2600 613e c707 293e 38a6 8c3d
000001b0: c66e 55bd c98b ac3b 608b d3bd bf71 3d3c
000001c0: 412a cf3d 4771 34bd c0ed 0bbe 23b5 103d
000001d0: 146c 0f3e 040f a03c a3c0 4abe 8cf9 43bd
000001e0: 0763 3a3e bbe1 eb3d 9d54 84bd 1cca fb3d
000001f0: 6421 823c 686d 80b9 88ae 8e3d 1613 5a3e
00000200: 1d9b ecbd 9e5e ecbd 8e5b ad3e b4c9 06be
00000210: 72e4 14be 9ec1 b03d 2615 b53c 6aba 4b3b
00000220: 8ce4 033d 93ee a2bd dd9c ae3c b247 acbd
00000230: edb4 aa3d bb6b 853d 843a f9bb f9a2 cf3c
00000240: a98d f6bd e4de 1abe 1f8b 42be 8594 e2bd
00000250: 44fc 24be d7b7 9d3d 7f04 b63c af82 e5bd
00000260: 24c2 2bbe 11a9 4f3c 3944 e03d 1db0 073d
00000270: 79b9 543b 8718 e33c 6445 f93d ff10 6dbc
00000280: 7469 11be 396b f63d 17d4 b7bd 5160 263e
00000290: 45f7 63be 6a46 bf3d b0d7 9fbd f8ef 433e
000002a0: 9ce7 293d 5e16 e2bd e823 2cbc 56da 5c3e
000002b0: 67cb d93d e8f3 6abe 3bc8 c03d 217a 9cbd
000002c0: 8c9b b63e ee25 343e 1153 c4bb ce4d 093e
000002d0: 38fa 333d 741d b0be 1e82 92bd 01f6 8ebd
000002e0: 1b95 5dbe 742d cd3a 616e 31bd e8dd 043d
000002f0: 15a9 323d f8cd 3c3e 3758 d93d dae2 bcbd
00000300: 239b 08be 075b 223e c57f 97be 6126 773e
00000310: 9e14 2bbd adc7 0d3e 0a99 72be c7f7 f4bd
00000320: 8922 94bd 65c7 033d 17c1 98bd 7a12 adbd
00000330: bda9 823d e84a abbd c8d6 cf3d a627 b0bd
00000340: 98ad 423d 5512 6b3e 23c7 b73d 09ae 6e3e
00000350: 41ac 85bc 393f 813d 9e2d 18be 427a 67bd
00000360: 2641 ad3d f2d5 953c 1527 423c 3767 a0bd
00000370: a454 ff3d 5683 6abe 166a 97bc ca90 203e
00000380: 0dcf 3d3e 88a1 953d 0e72 debd 1cce b23c
00000390: 0ae2 103e 6494 86bd 45c8 63bd 0a0a f539
000003a0: c248 4c3e 6ec3 7b3d b13a ef3d cf0c fd3d
000003b0: 8a7a e23c 236d 683d 0712 13be 608e 7dbe
000003c0: 4454 513b 9b2d 173d ccf8 a3bc efc4 263c
000003d0: f606 d8bd 0ed1 043e a42e 0b3e b74f 35be
000003e0: ea69 ccbd fb36 343e 1423 b6bd 3b96 b13d
000003f0: 1b36 343e 512b 913e be71 623d fbd4 17be
-0.045244336 0.023995733 -0.039782025 0.11708187 -0.12778021 0.13562854 -0.1319068 -0.29060218
0.037614614 0.015527507 0.024459055 0.16953821 -0.056870338 0.013966648 0.08089782 -0.03517099
-0.18763545 -0.22816029 -0.23336326 0.11759452 0.09781869 -0.04522424 0.34401724 0.06002144
-0.11051619 0.05445184 0.057828594 -0.09100681 0.1126261 -0.13033791 -0.06262118 -0.05465636
-0.2020559 0.11082121 0.03385942 -0.047003474 0.1065006 -0.14171712 -0.13733873 -0.040079664
-0.07807717 0.0388514 0.053148933 -0.062466335 -0.088083856 -0.0036904898 0.078187704 0.0851034
-0.048307046 0.06407993 -0.2757738 -0.15182963 0.0053440593 -0.12833732 -0.2021305 0.25706235
0.033693176 0.091155425 -0.019101992 0.02207485 -0.056282412 0.05732861 -0.051284175 -0.06552802
0.0039471835 0.064704135 -0.010772363 0.095810115 -0.010010208 -0.104855865 -0.008486118 -0.23278552
-0.098761365 0.012242501 0.11310111 0.2492782 -0.0065905997 0.012892865 -0.11597156 0.028245589
-0.31243417 -0.18857758 0.08864622 0.032200933 -0.04940509 0.16415842 0.06382494 0.036732886
0.007831268 0.04665944 -0.015118205 -0.013234172 -0.14142321 -0.024596024 -0.026424516 0.075092606
0.14773081 0.23442411 -0.09598955 -0.11211524 0.043108433 0.021310728 0.044865508 -0.077839814
-0.20538945 0.21972713 0.16506873 0.06867641 -0.052107595 0.005265687 -0.10329318 0.011562764
0.10115481 -0.044053342 -0.13664913 0.035328995 0.14006072 0.01953841 -0.19800048 -0.04784541
0.18201838 0.11517664 -0.06461451 0.12294409 0.015885063 -0.00024495577 0.06966883 0.21296343
-0.11553023 -0.11541484 0.33858913 -0.13162881 -0.1454027 0.086306795 0.02210481 0.0031086453
0.03220038 -0.07955661 0.021315033 -0.08412112 0.0833529 0.065146886 -0.0076058526 0.025346266
-0.12038738 -0.15124089 -0.18998383 -0.11063484 -0.16111857 0.0770108 0.02221894 -0.112065665
-0.16773278 0.012674586 0.109505124 0.03312694 0.0032459183 0.027721656 0.12171438 -0.014469384
-0.14200383 0.1203217 -0.08976 0.1624768 -0.22262295 0.09339602 -0.07804811 0.1913451
0.041480646 -0.110394225 -0.010506608 0.21567664 0.10634499 -0.22944605 0.09413191 -0.07640482
0.35665548 0.17592594 -0.0059913476 0.13408586 0.0439398 -0.3439747 -0.07153724 -0.06980515
-0.2163891 0.0015653805 -0.043318156 0.03243819 0.04361828 0.18437946 0.10612529 -0.09222956
-0.1334043 0.15855037 -0.29589668 0.24135734 -0.04176771 0.13845702 -0.23691192 -0.11961322
-0.072331496 0.03217258 -0.07458704 -0.0845079 0.06380031 -0.083638966 0.10148388 -0.08601312
0.047528833 0.22956212 0.08973529 0.23308577 -0.016317489 0.06310887 -0.14861152 -0.05651308
0.08459692 0.018290494 0.011850138 -0.07832187 0.12467316 -0.22901663 -0.018483203 0.15680233
0.18536015 0.073062 -0.10861598 0.021826796 0.14148727 -0.06571272 -0.055610914 0.0004673752
0.1994963 0.061465673 0.11681116 0.12355959 0.027646322 0.056744706 -0.14362346 -0.24761343
0.0031941095 0.036908727 -0.020016097 0.010178789 -0.10548203 0.12970373 0.1359201 -0.1770619
-0.09981139 0.17599098 -0.08893409 0.08671232 0.17598765 0.2835336 0.055284254 -0.1482734

critic.preprocess.model.model.0.bias f4 [64]
00000000: 0000 0000 0000 0000 0000 0000 0000 0000
00000010: 0000 0000 0000 0000 0000 0000 0000 0000
00000020: 0000 0000 0000 0000 0000 0000 0000 0000
00000030: 0000 0000 0000 0000 0000 0000 0000 0000
00000040: 0000 0000 0000 0000 0000 0000 0000 0000
00000050: 0000 0000 0000 0000 0000 0000 0000 0000
00000060: 0000 0000 0000 0000 0000 0000 0000 0000
00000070: 0000 0000 0000 0000 0000 0000 0000 0000
00000080: 0000 0000 0000 0000 0000 0000 0000 0000
00000090: 0000 0000 0000 0000 0000 0000 0000 0000
000000a0: 0000 0000 0000 0000 0000 0000 0000 0000
000000b0: 0000 0000 0000 0000 0000 0000 0000 0000
000000c0: 0000 0000 0000 0000 0000 0000 0000 0000
000000d0: 0000 0000 0000 0000 0000 0000 0000 0000
000000e0: 0000 0000 0000 0000 0000 0000 0000 0000
000000f0: 0000 0000 0000 0000 0000 0000 0000 0000
0.0 0.0 0.0 0.0 0.0 0.0 0.0 0.0
0.0 0.0 0.0 0.0 0.0 0.0 0.0 0.0
0.0 0.0 0.0 0.0 0.0 0.0 0.0 0.0
0.0 0.0 0.0 0.0 0.0 0.0 0.0 0.0
0.0 0.0 0.0 0.0 0.0 0.0 0.0 0.0
0.0 0.0 0.0 0.0 0.0 0.0 0.0 0.0
0.0 0.0 0.0 0.0 0.0 0.0 0.0 0.0
0.0 0.0 0.0 0.0 0.0 0.0 0.0 0.0

critic.preprocess.model.model.2.weight f4 [64, 64]
00000000: 803e 0abd bacf 9a3c 5874 7fbc 50b1 f4bd
00000010: 5e44 9cbc 0c54 df3c 8880 b33d 873f 07be
00000020: 8f9c 223e 2e1b 603e 76af 7dbe ac95 3cbd
00000030: 9ee0 9c3d 6432 2f3e b092 3bbe 9821 2f3d
00000040: f122 993c 3b79 9abc fcfd bebc 97ea 3a3e
00000050: d3a5 db3d 5ebd 43bc 225e 82bd b705 23be
00000060: b869 503e 2a4e e73d 1bdf 73be 8753 41be
00000070: 81c3 a83e 433d 20be 4b3a debc 8959 91bc
00000080: cafb 29bd 3a9e c5bc d30a 043b 1d32 163d
00000090: 54ce 2dbe 85ab 4dbd 215e 17be 8177 023e
000000a0: 9967 50be a3e1 89bd acb4 1cbd f2cc 3ebd
000000b0: bbd0 3a3c 17e6 edbc 3740 53bc 9854 82be
000000c0: c184 35be 3711 a33d d64f d73d 932b cfbd
000000d0: 2dd6 44bd 92dd 6ebd a777 9e3b 3ead 43bd
000000e0: 21c4 29bd 4c03 9f3d 1a03 293e 3315 88bd
000000f0: e1de ae3c 2b82 2e3e b00d e8bd bd3d 743e
00000100: 4c39 bebc f07e e0bd 0f0e 2a3e 9986 fa3d
00000110: 0962 b4bc 6b47 813e e898 463e 0774 ef3d
00000120: 8e51 f03d 3af7 1cbe 5b29 253d ca05 5a3d
00000130: a1f7 2c3e 6f58 81bd e2b6 d8bc 3434 993d
00000140: 0318 323e b506 f23c 1d26 053d dc9d 163e
00000150: bfd3 ec3d 2865 a73d 4a6f 95bd faaf 963c
00000160: 6aae 15bd f363 09be 74aa d0bc f1e1 8a3d
00000170: a292 803d 1930 62be d6ea fcbd c067 59bd
00000180: 35ea 073e 9347 ddbd 49c8 78ba 62d7 6a3d
00000190: 737e 05be c4d8 31be b397 313e dd99 ebbd
000001a0: 4423 29be 3d4c 06be 990f 1bbd 5986 1d3e
000001b0: 1f1e 5abd d8cd 053d 744d 6ebd c3fb ff3d
000001c0: f7ce 473e 4560 ecbc 1dec 14be 967c f13c
000001d0: cf74 4cbe 9fd2 16be 36ad 05be 8ae6 6c3e
000001e0: 3b5c 20be fac2 20be 5af0 083e e40f 24bd
000001f0: 22c2 5bbe e3e7 46be d387 a6bd 343a a23d
00000200: 8d99 133e a74d 7e3e 6079 933d 98c0 c5bd
00000210: f61a 36be 82da 7dbd 9c7e f2bd d713 36be
00000220: 7cb7 43bc e291 a13d 28d2 1f3e 29d3 7d3d
00000230: 2cc8 14be 3e06 33bd 7a2c 1e3d 2dc4 d1bd
00000240: 3c64 58bd fe26 e4bd f51f 183e d070 d73d
00000250: 8839 23bd 1aec 263e febf 9abd 6322 033e
00000260: 6015 2c3d 7cb0 323b d034 38be 9bc0 7f3d
00000270: 88da bdbd 4027 6fbc 3e11 3c3e 9971 8e3d
00000280: 43cc cabd 5831 86be 2d62 f6bd da87 21be
00000290: e8dd 11be 4b56 dcbd 4fb7 31bd bc8e 753d
000002a0: 6289 3ebe c8c3 ef3b c2c9 8cbd b705 84be
000002b0: aa49 8fbd 8d49 963d 53f3 72be 3221 4e3e
000002c0: 9837 073d 1836 e23d 486e 3dbe 7f99 75be
000002d0: 5411 aebd d60d 363e ae41 37bc eae3 a43c
000002e0: 4b90 d23d 0725 09be 988f a93c 5376 883d
000002f0: c83e 27bd 44be 48bd f89c 05be c1d5 13bd
00000300: a758 193d 1795 21be 2dbf ad3c 1803 22be
00000310: a90f 2e3e 5405 30bc 0eb0 7bbd e93b 0b3e
00000320: 6361 893d d263 f63d e650 9d3e d64f a93d
00000330: db56 0e3e 56e4 9d3e 2237 9bbd 71dc e3bd
00000340: 8a28 59bc da35 993d edb1 f73c 6479 04be
00000350: bc95 a03d d1ad 333e c711 be3d bf0d fd3b
00000360: 8093 d338 9268 1bbe 8ed0 2bbe 030a 67bd
00000370: c950 813d a070 013c c01b 7a3d 7696 8fbc
00000380: e950 513e bcc5 793d 4a1e b3bd 0905 54bd
00000390: 68c7 653c 59f2 28be c3af 4fbe b426 56bd
000003a0: 7a51 8f3d a8b2 09be ad13 71be 480e 97bc
000003b0: 33c6 45bd f908 41bd 7ee2 b5bd 7303 07be
000003c0: 88b5 1e3e f493 14bd a893 afbc 0580 ca3d
000003d0: 8422 a23e a267 38bc d240 99bd 2bd0 19be
000003e0: 4b05 26bd 460e 4fbe 5379 44be c13f fdbc
000003f0: f276 a4bc 98c0 f43c c719 0fbe a1f8 ddbd
-0.03375101 0.01889788 -0.015591703 -0.11947882 -0.019075569 0.027261756 0.0876475 -0.13207828
0.15880035 0.21885368 -0.24773964 -0.046041176 0.0766003 0.17109066 -0.18317676 0.042756647
0.01869342 -0.018856635 -0.023314469 0.18253551 0.10724988 -0.011947004 -0.06365611 -0.15920149
0.20352829 0.112942055 -0.23815577 -0.1887952 0.32961658 -0.1564837 -0.027127406 -0.017742889
-0.04149989 -0.0241233 0.0020148053 0.036668885 -0.16973239 -0.050212402 -0.14782001 0.127409
-0.2035202 -0.0673249 -0.03825824 -0.04658217 0.011402304 -0.02904038 -0.012893728 -0.25455165
-0.17726423 0.07962268 0.10513274 -0.10115733 -0.048055816 -0.058316775 0.004836041 -0.04777264
-0.04144681 0.07764301 0.1650509 -0.066446684 0.021346511 0.17041843 -0.11330736 0.23851676
-0.02322068 -0.109617114 0.16606925 0.12232704 -0.022019403 0.252498 0.19394267 0.11692052
0.11734305 -0.15328684 0.040322643 0.053228177 0.16891338 -0.063156955 -0.026454393 0.0748066
0.17391972 0.029544214 0.03250705 0.14708656 0.11563825 0.08173591 -0.07296617 0.018394459
-0.036543287 -0.13417034 -0.025471903 0.06781376 0.06277968 -0.2208866 -0.12349479 -0.05307746
0.13272937 -0.10804667 -0.0009490294 0.05733431 -0.13036518 -0.17367846 0.17343025 -0.115039565
-0.16517359 -0.1311502 -0.037856672 0.15383281 -0.053251382 0.03266701 -0.058179334 0.124991916
0.19512545 -0.028854499 -0.14543195 0.029478353 -0.19966434 -0.14728783 -0.13054356 0.23134819
-0.15660183 -0.15699378 0.13372937 -0.040054217 -0.21460775 -0.19424395 -0.08131375 0.079212576
0.14414044 0.2483431 0.07200885 -0.09655875 -0.17783722 -0.061975963 -0.11840555 -0.17781006
-0.011945602 0.07889153 0.15607512 0.061968956 -0.14529485 -0.043707125 0.038616635 -0.10242496
-0.052829966 -0.1114025 0.1485594 0.10519564 -0.039849788 0.16301003 -0.07556151 0.12806086
0.042012572 0.0027265837 -0.17988896 0.062439542 -0.09270197 -0.01459676 0.18365952 0.06955261
-0.09902241 -0.2620952 -0.12030444 -0.1577448 -0.14244807 -0.107586466 -0.043387707 0.059950575
-0.18607095 0.00731704 -0.0687442 -0.2578561 -0.06996472 0.073382474 -0.23725633 0.2012985
0.033012003 0.11045474 -0.184991 -0.23984335 -0.08499399 0.17778715 -0.011185093 0.02012821
0.10281428 -0.13393031 0.020698354 0.066631936 -0.040831357 -0.049009576 -0.1304816 -0.036092523
0.03743806 -0.1577953 0.021209324 -0.15821493 0.16998161 -0.010743458 -0.061447196 0.13597073
0.06708028 0.12030758 0.30725783 0.082671806 0.1390032 0.3083827 -0.07578875 -0.1112603
-0.013254294 0.074809745 0.030236209 -0.12936932 0.078410596 0.17546774 0.092807345 0.007722586
0.00010088738 -0.15176609 -0.16778776 -0.056406032 0.06314237 0.007900387 0.06106162 -0.0175278
0.20441021 0.06097959 -0.087460116 -0.051762614 0.014024593 -0.16498698 -0.20281892 -0.052283004
0.06997962 -0.13447058 -0.23542662 -0.018439427 -0.04828472 -0.047127698 -0.088810906 -0.1318491
0.15498936 -0.03627391 -0.021432713 0.09887699 0.31666958 -0.011255177 -0.074830666 -0.15020816
-0.04053239 -0.20220289 -0.19186907 -0.03091419 -0.020076249 0.029876992 -0.13974677 -0.10838438

critic.preprocess.model.model.2.bias f4 [64]
00000000: 0000 0000 0000 0000 0000 0000 0000 0000
00000010: 0000 0000 0000 0000 0000 0000 0000 0000
00000020: 0000 0000 0000 0000 0000 0000 0000 0000
00000030: 0000 0000 0000 0000 0000 0000 0000 0000
00000040: 0000 0000 0000 0000 0000 0000 0000 0000
00000050: 0000 0000 0000 0000 0000 0000 0000 0000
00000060: 0000 0000 0000 0000 0000 0000 0000 0000
00000070: 0000 0000 0000 0000 0000 0000 0000 0000
00000080: 0000 0000 0000 0000 0000 0000 0000 0000
00000090: 0000 0000 0000 0000 0000 0000 0000 0000
000000a0: 0000 0000 0000 0000 0000 0000 0000 0000
000000b0: 0000 0000 0000 0000 0000 0000 0000 0000
000000c0: 0000 0000 0000 0000 0000 0000 0000 0000
000000d0: 0000 0000 0000 0000 0000 0000 0000 0000
000000e0: 0000 0000 0000 0000 0000 0000 0000 0000
000000f0: 0000 0000 0000 0000 0000 0000 0000 0000
0.0 0.0 0.0 0.0 0.0 0.0 0.0 0.0
0.0 0.0 0.0 0.0 0.0 0.0 0.0 0.0
0.0 0.0 0.0 0.0 0.0 0.0 0.0 0.0
0.0 0.0 0.0 0.0 0.0 0.0 0.0 0.0
0.0 0.0 0.0 0.0 0.0 0.0 0.0 0.0
0.0 0.0 0.0 0.0 0.0 0.0 0.0 0.0
0.0 0.0 0.0 0.0 0.0 0.0 0.0 0.0
0.0 0.0 0.0 0.0 0.0 0.0 0.0 0.0

critic.last.model.0.weight f4 [1, 64]
00000000: d006 393e 2349 543d 859b 61be 566b a8bd
00000010: 73d5 023e f560 a4bd 6b7f 1d3e 19b0 e83d
00000020: 57e4 9e3d 95fb 733d 8cd4 96bd 51a2 9b3d
00000030: eeb9 4d3e 8d8e 1b3e 13f5 ae3c be7e 5dbd
00000040: 8610 45bd b5d8 9cbd b72c 0fbe 077c a2bc
00000050: be95 98bc a9ef c23d d2f0 8f3e e47c f5bd
00000060: 8b82 3cbd c319 a63d 7967 d43d 6d4f 443b
00000070: 2647 fbbd 56c5 4e3d 7cf9 693e 1616 463e
00000080: d28a 003e 6e12 ccbc 9936 91be 54a9 84bd
00000090: f74f 05bd 42f5 05be c169 8cbe 4b7f 1dbe
000000a0: d017 953d 6037 9b3d c292 7f3c 72a2 43be
000000b0: 128e dd3d 16bd b8bd 9873 1abe 17c6 853e
000000c0: fdb8 81bd 6f30 2dbe 79f3 4dbb f325 713d
000000d0: 4750 94bc 4b7e 24be c7b8 7e3d 261f 333d
000000e0: ed15 bf3d ba4f e83c 88d2 02bd a971 aa3d
000000f0: 359f ff3d f9d5 013c 82bd c93d 1cbe 063e
0.18069005 0.05182756 -0.22031982 -0.08223598 0.12776737 -0.080263056 0.15380637 0.11361713
0.07758396 0.0595661 -0.07364759 0.07599319 0.20090458 0.15191098 0.021357095 -0.05407595
-0.04811146 -0.07658521 -0.13981901 -0.019834531 -0.01862609 0.09518368 0.2811342 -0.119867116
-0.046022933 0.081103824 0.10371298 0.0029954568 -0.1226943 0.050481163 0.22849077 0.19344363
0.12552956 -0.024911132 -0.28361967 -0.06477609 -0.032546964 -0.1308184 -0.27424434 -0.1538059
0.072799325 0.07578921 0.015598955 -0.19104937 0.108181134 -0.0902044 -0.15083158 0.26127693
-0.06334112 -0.16913007 -0.0031425639 0.05887408 -0.018104685 -0.16063802 0.062187936 0.043730877
0.09330354 0.02835833 -0.03193906 0.0832246 0.12481538 0.00792455 0.09850599 0.13158458

_actor_critic.actor.preprocess.model.model.0.weight f4 [64, 4]
00000000: 2052 39bd b392 c43c 7af2 22bd 9fc8 ef3d
00000010: d1d8 02be 35e2 0a3e 9412 07be cfc9 94be
00000020: c811 1a3d 1667 7e3c 5b5e c83c 6d9b 2d3e
00000030: dff0 68bd 5ed4 643c c2ad a53d 750f 10bd
00000040: 8223 40be daa2 69be c7f6 6ebe 65d5 f03d
00000050: 2a55 c83d 0d3d 39bd 0723 b03e 0bd9 753d
00000060: 5056 e2bd e508 5f3d addd 6c3d c761 babd
00000070: 83a8 e63d 4d77 05be 893f 80bd 59df 5fbd
00000080: bee7 4ebe 3bf6 e23d 2db0 0a3d b786 40bd
00000090: fd1c da3d 4b1e 11be 86a2 0cbe 932a 24bd
000000a0: ece6 9fbd a522 1f3d b2b2 593d b3dc 7fbd
000000b0: 4f65 b4bd 25dc 71bb e020 a03d b14a ae3d
000000c0: 9cdd 45bd 573c 833d 3932 8dbe 3a79 1bbe
000000d0: 381d af3b dc6a 03be 4cfb 4ebe ad9d 833e
000000e0: db01 0a3d b2af ba3d c87b 9cbc 51d6 b43c
000000f0: 6388 66bd 68d1 6a3d 5b0f 52bd 8e33 86bd
00000100: 6057 813b 9a83 843d 917e 30bc 1838 c43d
00000110: db01 24bc acbe d6bd 5c09 0bbc 545f 6ebe
00000120: 6643 cabd c594 483c 8ea1 e73d c942 7f3e
00000130: f5f5 d7bb 983c 533c 7f82 edbd 4b63 e73c
00000140: 5ff7 9fbe 7b1a 41be 268c b53d 20e5 033d
00000150: fe5c 4abd 2519 283e a6b6 823d 3975 163d
00000160: b84e 003c f81d 3f3d 59b2 77bc 24d4 58bc
00000170: 3fd1 10be 9a7d c9bc 3a78 d8bc 27ca 993d
00000180: bf46 173e e00c 703e 2b96 c4bd ad9c e5bd
00000190: 7892 303d d693 ae3c e5c4 373d 7b6a 9fbd
000001a0: 9d51 52be 2600 613e c707 293e 38a6 8c3d
000001b0: c66e 55bd c98b ac3b 608b d3bd bf71 3d3c
000001c0: 412a cf3d 4771 34bd c0ed 0bbe 23b5 103d
000001d0: 146c 0f3e 040f a03c a3c0 4abe 8cf9 43bd
000001e0: 0763 3a3e bbe1 eb3d 9d54 84bd 1cca fb3d
000001f0: 6421 823c 686d 80b9 88ae 8e3d 1613 5a3e
00000200: 1d9b ecbd 9e5e ecbd 8e5b ad3e b4c9 06be
00000210: 72e4 14be 9ec1 b03d 2615 b53c 6aba 4b3b
00000220: 8ce4 033d 93ee a2bd dd9c ae3c b247 acbd
00000230: edb4 aa3d bb6b 853d 843a f9bb f9a2 cf3c
00000240: a98d f6bd e4de 1abe 1f8b 42be 8594 e2bd
00000250: 44fc 24be d7b7 9d3d 7f04 b63c af82 e5bd
00000260: 24c2 2bbe 11a9 4f3c 3944 e03d 1db0 073d
00000270: 79b9 543b 8718 e33c 6445 f93d ff10 6dbc
00000280: 7469 11be 396b f63d 17d4 b7bd 5160 263e
00000290: 45f7 63be 6a46 bf3d b0d7 9fbd f8ef 433e
000002a0: 9ce7 293d 5e16 e2bd e823 2cbc 56da 5c3e
000002b0: 67cb d93d e8f3 6abe 3bc8 c03d 217a 9cbd
000002c0: 8c9b b63e ee25 343e 1153 c4bb ce4d 093e
000002d0: 38fa 333d 741d b0be 1e82 92bd 01f6 8ebd
000002e0: 1b95 5dbe 742d cd3a 616e 31bd e8dd 043d
000002f0: 15a9 323d f8cd 3c3e 3758 d93d dae2 bcbd
00000300: 239b 08be 075b 223e c57f 97be 6126 773e
00000310: 9e14 2bbd adc7 0d3e 0a99 72be c7f7 f4bd
00000320: 8922 94bd 65c7 033d 17c1 98bd 7a12 adbd
00000330: bda9 823d e84a abbd c8d6 cf3d a627 b0bd
00000340: 98ad 423d 5512 6b3e 23c7 b73d 09ae 6e3e
00000350: 41ac 85bc 393f 813d 9e2d 18be 427a 67bd
00000360: 2641 ad3d f2d5 953c 1527 423c 3767 a0bd
00000370: a454 ff3d 5683 6abe 166a 97bc ca90 203e
00000380: 0dcf 3d3e 88a1 953d 0e72 debd 1cce b23c
00000390: 0ae2 103e 6494 86bd 45c8 63bd 0a0a f539
000003a0: c248 4c3e 6ec3 7b3d b13a ef3d cf0c fd3d
000003b0: 8a7a e23c 236d 683d 0712 13be 608e 7dbe
000003c0: 4454 513b 9b2d 173d ccf8 a3bc efc4 263c
000003d0: f606 d8bd 0ed1 043e a42e 0b3e b74f 35be
000003e0: ea69 ccbd fb36 343e 1423 b6bd 3b96 b13d
000003f0: 1b36 343e 512b 913e be71 623d fbd4 17be
-0.045244336 0.023995733 -0.039782025 0.11708187 -0.12778021 0.13562854 -0.1319068 -0.29060218
0.037614614 0.015527507 0.024459055 0.16953821 -0.056870338 0.013966648 0.08089782 -0.03517099
-0.18763545 -0.22816029 -0.23336326 0.11759452 0.09781869 -0.04522424 0.34401724 0.06002144
-0.11051619 0.05445184 0.057828594 -0.09100681 0.1126261 -0.13033791 -0.06262118 -0.05465636
-0.2020559 0.11082121 0.03385942 -0.047003474 0.1065006 -0.14171712 -0.13733873 -0.040079664
-0.07807717 0.0388514 0.053148933 -0.062466335 -0.088083856 -0.0036904898 0.078187704 0.0851034
-0.048307046 0.06407993 -0.2757738 -0.15182963 0.0053440593 -0.12833732 -0.2021305 0.25706235
0.033693176 0.091155425 -0.019101992 0.02207485 -0.056282412 0.05732861 -0.051284175 -0.06552802
0.0039471835 0.064704135 -0.010772363 0.095810115 -0.010010208 -0.104855865 -0.008486118 -0.23278552
-0.098761365 0.012242501 0.11310111 0.2492782 -0.0065905997 0.012892865 -0.11597156 0.028245589
-0.31243417 -0.18857758 0.08864622 0.032200933 -0.04940509 0.16415842 0.06382494 0.036732886
0.007831268 0.04665944 -0.015118205 -0.013234172 -0.14142321 -0.024596024 -0.026424516 0.075092606
0.14773081 0.23442411 -0.09598955 -0.11211524 0.043108433 0.021310728 0.044865508 -0.077839814
-0.20538945 0.21972713 0.16506873 0.06867641 -0.052107595 0.005265687 -0.10329318 0.011562764
0.10115481 -0.044053342 -0.13664913 0.035328995 0.14006072 0.01953841 -0.19800048 -0.04784541
0.18201838 0.11517664 -0.06461451 0.12294409 0.015885063 -0.00024495577 0.06966883 0.21296343
-0.11553023 -0.11541484 0.33858913 -0.13162881 -0.1454027 0.086306795 0.02210481 0.0031086453
0.03220038 -0.07955661 0.021315033 -0.08412112 0.0833529 0.065146886 -0.0076058526 0.025346266
-0.12038738 -0.15124089 -0.18998383 -0.11063484 -0.16111857 0.0770108 0.02221894 -0.112065665
-0.16773278 0.012674586 0.109505124 0.03312694 0.0032459183 0.027721656 0.12171438 -0.014469384
-0.14200383 0.1203217 -0.08976 0.1624768 -0.22262295 0.09339602 -0.07804811 0.1913451
0.041480646 -0.110394225 -0.010506608 0.21567664 0.10634499 -0.22944605 0.09413191 -0.07640482
0.35665548 0.17592594 -0.0059913476 0.13408586 0.0439398 -0.3439747 -0.07153724 -0.06980515
-0.2163891 0.0015653805 -0.043318156 0.03243819 0.04361828 0.18437946 0.10612529 -0.09222956
-0.1334043 0.15855037 -0.29589668 0.24135734 -0.04176771 0.13845702 -0.23691192 -0.11961322
-0.072331496 0.03217258 -0.07458704 -0.0845079 0.06380031 -0.083638966 0.10148388 -0.08601312
0.047528833 0.22956212 0.08973529 0.23308577 -0.016317489 0.06310887 -0.14861152 -0.05651308
0.08459692 0.018290494 0.011850138 -0.07832187 0.12467316 -0.22901663 -0.018483203 0.15680233
0.18536015 0.073062 -0.10861598 0.021826796 0.14148727 -0.06571272 -0.055610914 0.0004673752
0.1994963 0.061465673 0.11681116 0.12355959 0.027646322 0.056744706 -0.14362346 -0.24761343
0.0031941095 0.036908727 -0.020016097 0.010178789 -0.10548203 0.12970373 0.1359201 -0.1770619
-0.09981139 0.17599098 -0.08893409 0.08671232 0.17598765 0.2835336 0.055284254 -0.1482734

_actor_critic.actor.preprocess.model.model.0.bias f4 [64]
00000000: 0000 0000 0000 0000 0000 0000 0000 0000
00000010: 0000 0000 0000 0000 0000 0000 0000 0000
00000020: 0000 0000 0000 0000 0000 0000 0000 0000
00000030: 0000 0000 0000 0000 0000 0000 0000 0000
00000040: 0000 0000 0000 0000 0000 0000 0000 0000
00000050: 0000 0000 0000 0000 0000 0000 0000 0000
00000060: 0000 0000 0000 0000 0000 0000 0000 0000
00000070: 0000 0000 0000 0000 0000 0000 0000 0000
00000080: 0000 0000 0000 0000 0000 0000 0000 0000
00000090: 0000 0000 0000 0000 0000 0000 0000 0000
000000a0: 0000 0000 0000 0000 0000 0000 0000 0000
000000b0: 0000 0000 0000 0000 0000 0000 0000 0000
000000c0: 0000 0000 0000 0000 0000 0000 0000 0000
000000d0: 0000 0000 0000 0000 0000 0000 0000 0000
000000e0: 0000 0000 0000 0000 0000 0000 0000 0000
000000f0: 0000 0000 0000 0000 0000 0000 0000 0000
0.0 0.0 0.0 0.0 0.0 0.0 0.0 0.0
0.0 0.0 0.0 0.0 0.0 0.0 0.0 0.0
0.0 0.0 0.0 0.0 0.0 0.0 0.0 0.0
0.0 0.0 0.0 0.0 0.0 0.0 0.0 0.0
0.0 0.0 0.0 0.0 0.0 0.0 0.0 0.0
0.0 0.0 0.0 0.0 0.0 0.0 0.0 0.0
0.0 0.0 0.0 0.0 0.0 0.0 0.0 0.0
0.0 0.0 0.0 0.0 0.0 0.0 0.0 0.0

_actor_critic.actor.preprocess.model.model.2.weight f4 [64, 64]
00000000: 803e 0abd bacf 9a3c 5874 7fbc 50b1 f4bd
00000010: 5e44 9cbc 0c54 df3c 8880 b33d 873f 07be
00000020: 8f9c 223e 2e1b 603e 76af 7dbe ac95 3cbd
00000030: 9ee0 9c3d 6432 2f3e b092 3bbe 9821 2f3d
00000040: f122 993c 3b79 9abc fcfd bebc 97ea 3a3e
00000050: d3a5 db3d 5ebd 43bc 225e 82bd b705 23be
00000060: b869 503e 2a4e e73d 1bdf 73be 8753 41be
00000070: 81c3 a83e 433d 20be 4b3a debc 8959 91bc
00000080: cafb 29bd 3a9e c5bc d30a 043b 1d32 163d
00000090: 54ce 2dbe 85ab 4dbd 215e 17be 8177 023e
000000a0: 9967 50be a3e1 89bd acb4 1cbd f2cc 3ebd
000000b0: bbd0 3a3c 17e6 edbc 3740 53bc 9854 82be
000000c0: c184 35be 3711 a33d d64f d73d 932b cfbd
000000d0: 2dd6 44bd 92dd 6ebd a777 9e3b 3ead 43bd
000000e0: 21c4 29bd 4c03 9f3d 1a03 293e 3315 88bd
000000f0: e1de ae3c 2b82 2e3e b00d e8bd bd3d 743e
00000100: 4c39 bebc f07e e0bd 0f0e 2a3e 9986 fa3d
00000110: 0962 b4bc 6b47 813e e898 463e 0774 ef3d
00000120: 8e51 f03d 3af7 1cbe 5b29 253d ca05 5a3d
00000130: a1f7 2c3e 6f58 81bd e2b6 d8bc 3434 993d
00000140: 0318 323e b506 f23c 1d26 053d dc9d 163e
00000150: bfd3 ec3d 2865 a73d 4a6f 95bd faaf 963c
00000160: 6aae 15bd f363 09be 74aa d0bc f1e1 8a3d
00000170: a292 803d 1930 62be d6ea fcbd c067 59bd
00000180: 35ea 073e 9347 ddbd 49c8 78ba 62d7 6a3d
00000190: 737e 05be c4d8 31be b397 313e dd99 ebbd
000001a0: 4423 29be 3d4c 06be 990f 1bbd 5986 1d3e
000001b0: 1f1e 5abd d8cd 053d 744d 6ebd c3fb ff3d
000001c0: f7ce 473e 4560 ecbc 1dec 14be 967c f13c
000001d0: cf74 4cbe 9fd2 16be 36ad 05be 8ae6 6c3e
000001e0: 3b5c 20be fac2 20be 5af0 083e e40f 24bd
000001f0: 22c2 5bbe e3e7 46be d387 a6bd 343a a23d
00000200: 8d99 133e a74d 7e3e 6079 933d 98c0 c5bd
00000210: f61a 36be 82da 7dbd 9c7e f2bd d713 36be
00000220: 7cb7 43bc e291 a13d 28d2 1f3e 29d3 7d3d
00000230: 2cc8 14be 3e06 33bd 7a2c 1e3d 2dc4 d1bd
00000240: 3c64 58bd fe26 e4bd f51f 183e d070 d73d
00000250: 8839 23bd 1aec 263e febf 9abd 6322 033e
00000260: 6015 2c3d 7cb0 323b d034 38be 9bc0 7f3d
00000270: 88da bdbd 4027 6fbc 3e11 3c3e 9971 8e3d
00000280: 43cc cabd 5831 86be 2d62 f6bd da87 21be
00000290: e8dd 11be 4b56 dcbd 4fb7 31bd bc8e 753d
000002a0: 6289 3ebe c8c3 ef3b c2c9 8cbd b705 84be
000002b0: aa49 8fbd 8d49 963d 53f3 72be 3221 4e3e
000002c0: 9837 073d 1836 e23d 486e 3dbe 7f99 75be
000002d0: 5411 aebd d60d 363e ae41 37bc eae3 a43c
000002e0: 4b90 d23d 0725 09be 988f a93c 5376 883d
000002f0: c83e 27bd 44be 48bd f89c 05be c1d5 13bd
00000300: a758 193d 1795 21be 2dbf ad3c 1803 22be
00000310: a90f 2e3e 5405 30bc 0eb0 7bbd e93b 0b3e
00000320: 6361 893d d263 f63d e650 9d3e d64f a93d
00000330: db56 0e3e 56e4 9d3e 2237 9bbd 71dc e3bd
00000340: 8a28 59bc da35 993d edb1 f73c 6479 04be
00000350: bc95 a03d d1ad 333e c711 be3d bf0d fd3b
00000360: 8093 d338 9268 1bbe 8ed0 2bbe 030a 67bd
00000370: c950 813d a070 013c c01b 7a3d 7696 8fbc
00000380: e950 513e bcc5 793d 4a1e b3bd 0905 54bd
00000390: 68c7 653c 59f2 28be c3af 4fbe b426 56bd
000003a0: 7a51 8f3d a8b2 09be ad13 71be 480e 97bc
000003b0: 33c6 45bd f908 41bd 7ee2 b5bd 7303 07be
000003c0: 88b5 1e3e f493 14bd a893 afbc 0580 ca3d
000003d0: 8422 a23e a267 38bc d240 99bd 2bd0 19be
000003e0: 4b05 26bd 460e 4fbe 5379 44be c13f fdbc
000003f0: f276 a4bc 98c0 f43c c719 0fbe a1f8 ddbd
-0.03375101 0.01889788 -0.015591703 -0.11947882 -0.019075569 0.027261756 0.0876475 -0.13207828
0.15880035 0.21885368 -0.24773964 -0.046041176 0.0766003 0.17109066 -0.18317676 0.042756647
0.01869342 -0.018856635 -0.023314469 0.18253551 0.10724988 -0.011947004 -0.06365611 -0.15920149
0.20352829 0.112942055 -0.23815577 -0.1887952 0.32961658 -0.1564837 -0.027127406 -0.017742889
-0.04149989 -0.0241233 0.0020148053 0.036668885 -0.16973239 -0.050212402 -0.14782001 0.127409
-0.2035202 -0.0673249 -0.03825824 -0.04658217 0.011402304 -0.02904038 -0.012893728 -0.25455165
-0.17726423 0.07962268 0.10513274 -0.10115733 -0.048055816 -0.058316775 0.004836041 -0.04777264
-0.04144681 0.07764301 0.1650509 -0.066446684 0.021346511 0.17041843 -0.11330736 0.23851676
-0.02322068 -0.109617114 0.16606925 0.12232704 -0.022019403 0.252498 0.19394267 0.11692052
0.11734305 -0.15328684 0.040322643 0.053228177 0.16891338 -0.063156955 -0.026454393 0.0748066
0.17391972 0.029544214 0.03250705 0.14708656 0.11563825 0.08173591 -0.07296617 0.018394459
-0.036543287 -0.13417034 -0.025471903 0.06781376 0.06277968 -0.2208866 -0.12349479 -0.05307746
0.13272937 -0.10804667 -0.0009490294 0.05733431 -0.13036518 -0.17367846 0.17343025 -0.115039565
-0.16517359 -0.1311502 -0.037856672 0.15383281 -0.053251382 0.03266701 -0.058179334 0.124991916
0.19512545 -0.028854499 -0.14543195 0.029478353 -0.19966434 -0.14728783 -0.13054356 0.23134819
-0.15660183 -0.15699378 0.13372937 -0.040054217 -0.21460775 -0.19424395 -0.08131375 0.079212576
0.14414044 0.2483431 0.07200885 -0.09655875 -0.17783722 -0.061975963 -0.11840555 -0.17781006
-0.011945602 0.07889153 0.15607512 0.061968956 -0.14529485 -0.043707125 0.038616635 -0.10242496
-0.052829966 -0.1114025 0.1485594 0.10519564 -0.039849788 0.16301003 -0.07556151 0.12806086
0.042012572 0.0027265837 -0.17988896 0.062439542 -0.09270197 -0.01459676 0.18365952 0.06955261
-0.09902241 -0.2620952 -0.12030444 -0.1577448 -0.14244807 -0.107586466 -0.043387707 0.059950575
-0.18607095 0.00731704 -0.0687442 -0.2578561 -0.06996472 0.073382474 -0.23725633 0.2012985
0.033012003 0.11045474 -0.184991 -0.23984335 -0.08499399 0.17778715 -0.011185093 0.02012821
0.10281428 -0.13393031 0.020698354 0.066631936 -0.040831357 -0.049009576 -0.1304816 -0.036092523
0.03743806 -0.1577953 0.021209324 -0.15821493 0.16998161 -0.010743458 -0.061447196 0.13597073
0.06708028 0.12030758 0.30725783 0.082671806 0.1390032 0.3083827 -0.07578875 -0.1112603
-0.013254294 0.074809745 0.030236209 -0.12936932 0.078410596 0.17546774 0.092807345 0.007722586
0.00010088738 -0.15176609 -0.16778776 -0.056406032 0.06314237 0.007900387 0.06106162 -0.0175278
0.20441021 0.06097959 -0.087460116 -0.051762614 0.014024593 -0.16498698 -0.20281892 -0.052283004
0.06997962 -0.13447058 -0.23542662 -0.018439427 -0.04828472 -0.047127698 -0.088810906 -0.1318491
0.15498936 -0.03627391 -0.021432713 0.09887699 0.31666958 -0.011255177 -0.074830666 -0.15020816
-0.04053239 -0.20220289 -0.19186907 -0.03091419 -0.020076249 0.029876992 -0.13974677 -0.10838438

_actor_critic.actor.preprocess.model.model.2.bias f4 [64]
00000000: 0000 0000 0000 0000 0000 0000 0000 0000
00000010: 0000 0000 0000 0000 0000 0000 0000 0000
00000020: 0000 0000 0000 0000 0000 0000 0000 0000
00000030: 0000 0000 0000 0000 0000 0000 0000 0000
00000040: 0000 0000 0000 0000 0000 0000 0000 0000
00000050: 0000 0000 0000 0000 0000 0000 0000 0000
00000060: 0000 0000 0000 0000 0000 0000 0000 0000
00000070: 0000 0000 0000 0000 0000 0000 0000 0000
00000080: 0000 0000 0000 0000 0000 0000 0000 0000
00000090: 0000 0000 0000 0000 0000 0000 0000 0000
000000a0: 0000 0000 0000 0000 0000 0000 0000 0000
000000b0: 0000 0000 0000 0000 0000 0000 0000 0000
000000c0: 0000 0000 0000 0000 0000 0000 0000 0000
000000d0: 0000 0000 0000 0000 0000 0000 0000 0000
000000e0: 0000 0000 0000 0000 0000 0000 0000 0000
000000f0: 0000 0000 0000 0000 0000 0000 0000 0000
0.0 0.0 0.0 0.0 0.0 0.0 0.0 0.0
0.0 0.0 0.0 0.0 0.0 0.0 0.0 0.0
0.0 0.0 0.0 0.0 0.0 0.0 0.0 0.0
0.0 0.0 0.0 0.0 0.0 0.0 0.0 0.0
0.0 0.0 0.0 0.0 0.0 0.0 0.0 0.0
0.0 0.0 0.0 0.0 0.0 0.0 0.0 0.0
0.0 0.0 0.0 0.0 0.0 0.0 0.0 0.0
0.0 0.0 0.0 0.0 0.0 0.0 0.0 0.0
