log/Pendulum-v1/ddpg/policy.pth (torch, 283267 bytes, 20 tensors)

actor.preprocess.model.model.0.weight f4 [128, 3]
0	0xbcd3e44b	-0.025865695
1	0x3e9462d1	0.2898164
2	0xbef79568	-0.48356175
3	0xbeeed3a5	-0.46645847
4	0xbe5ca7fa	-0.21548453
5	0x3e378f19	0.17925681
6	0xbc1c8084	-0.009552125
7	0x3efafb44	0.49019825
8	0xbda30d0d	-0.079614736
9	0x3decbbfb	0.11559292
10	0xbe3d6a26	-0.18497524
11	0xbd5fd612	-0.054647513
12	0xbf2798f6	-0.65467775
13	0xbe911dc7	-0.2834303
14	0xbe63641e	-0.2220616
15	0x3ca8cbd0	0.020604998
16	0x3ea60f6a	0.32433635
17	0x3ea3cb40	0.31991005
18	0xbeba5d04	-0.3639909
19	0xbe6bcfa4	-0.23028427
20	0x3e86caf6	0.26326722
21	0x3eebdf20	0.46068668
22	0xbdc661cf	-0.09686624
23	0x3ee3f588	0.44523263
24	0xbd936890	-0.07197678
25	0x3dfaafab	0.12240537
26	0x3f08f0db	0.53492516
27	0xbf2eeee0	-0.68333244
28	0xbe845561	-0.2584639
29	0xbd308d86	-0.043103717
30	0xbe97dd81	-0.29661182
31	0x3efaf484	0.49014676
32	0xbed6cf79	-0.41955164
33	0xbeba3ede	-0.3637609
34	0xbec3b4f9	-0.3822401
35	0xbef455e1	-0.4772177
36	0xbeaec3d4	-0.3413378
37	0x3f0ecb59	0.55779034
38	0x3e8a9aca	0.2707122
39	0x3e0628d4	0.13101512
40	0xbd80cc73	-0.062889956
41	0xbeaf16b1	-0.34197
42	0xbc8898fa	-0.016674507
43	0xbf288203	-0.6582338
44	0xbeda722e	-0.42665237
45	0xbe6b4492	-0.22975376
46	0x3efa3731	0.48870233
47	0x3ea07cd4	0.31345236
48	0xbe955821	-0.291688
49	0x3c9c1a00	0.019055367
50	0x3ec6ebad	0.3885168
51	0x3f20046b	0.6250674
52	0x3e4cbc43	0.19993691
53	0x3dc81e51	0.097714074
54	0x3eafeb86	0.34359378
55	0xbeaa5428	-0.3326733
56	0x3e31cd77	0.17363535
57	0xbf0482da	-0.51762164
58	0xbee3e03b	-0.44507012
59	0xbe36c649	-0.17849077
60	0x3e8a4b5d	0.27010623
61	0x3e6b4c1b	0.2297825
62	0xbeb8fe57	-0.36131546
63	0x3d1ab82d	0.0377733
64	0x3ee5e25d	0.44899264
65	0xbe3117c8	-0.17294228
66	0xbb3bf81c	-0.002868182
67	0x3e38666c	0.18007821
68	0x3ebafd4c	0.36521375
69	0x3ef3e1f3	0.47633323
70	0xbf0a8509	-0.54109246
71	0xbe11da25	-0.14243372
72	0x3e751ff0	0.23937964
73	0x3f0852d4	0.53251386
74	0x3f03d1bb	0.514919
75	0x3efddb2d	0.4958128
76	0x3df914bb	0.12162157
77	0xbf09e653	-0.5386707
78	0xbddc8a87	-0.107686095
79	0xbeeba3ae	-0.46023315
80	0xbf13d97f	-0.5775375
81	0x3f05cc49	0.5226484
82	0x3efe042e	0.49612564
83	0xbf1d51cf	-0.61452955
84	0x3dafac5c	0.08577797
85	0xbdbceeed	-0.09225259
86	0xbdb3f66e	-0.08787237
87	0xbea5f4cf	-0.32413337
88	0x3e624e01	0.22100069
89	0xbeb21657	-0.3478267
90	0x3e5127e6	0.20425376
91	0x3eb0f044	0.34558308
92	0x3edb35f3	0.42814597
93	0x3e744610	0.23854852
94	0xbf25c1cc	-0.64748836
95	0xbec3e5f8	-0.3826139
96	0x3e7b835f	0.24561833
97	0x3d06ae5d	0.03288113
98	0xbf08da3e	-0.5345801
99	0xbea8a975	-0.32941785
100	0x3f1d7108	0.61500597
101	0x3eb93f8b	0.36181292
102	0xbe96e2ed	-0.29470006
103	0xbe663eb1	-0.22484852
104	0xbf2208f2	-0.632949
105	0xbdbd90f5	-0.09256164
106	0xbf0193c2	-0.50616086
107	0xbec61ffa	-0.3869627
108	0xbda07203	-0.07834246
109	0x3d845326	0.06461172
110	0xbe84c749	-0.25933293
111	0x3e9602f6	0.29299134
112	0xbeaff76f	-0.34368464
113	0x3f0d368f	0.55161375
114	0x3ee06f8d	0.43835106
115	0xbf205ae7	-0.62638706
116	0xbdd506e5	-0.10401706
117	0x3c0c3c39	0.00855928
118	0x3e27868d	0.16359921
119	0x3de2fc42	0.110832706
120	0x3e79e266	0.2440277
121	0xbd06ef37	-0.032942977
122	0xbe974384	-0.29543698
123	0x3e588851	0.2114575
124	0xbf2199fe	-0.631256
125	0xbeb5379f	-0.35393998
126	0xbe856983	-0.26057062
127	0xbebb2578	-0.36552024
128	0xbe13f9f0	-0.14450812
129	0xbf01025b	-0.5039422
130	0xbd4174f9	-0.047230694
131	0x3e03718e	0.12836286
132	0xbeec6f73	-0.4617878
133	0x3df0c5c7	0.11756473
134	0x3ec9a22a	0.39381534
135	0xbdaae76f	-0.08344924
136	0x3d55e4fe	0.052220337
137	0xbcc6f6f0	-0.02428767
138	0x3de16cff	0.110071175
139	0x3ed54b83	0.41659173
140	0x3f1148bc	0.5675161
141	0x3eb728bc	0.35773265
142	0x3f18cfc4	0.59692025
143	0xbbf74adf	-0.007546767
144	0xbf010065	-0.50391227
145	0xbe81ef20	-0.2537775
146	0x3ee2277f	0.44170758
147	0xbc70f5b8	-0.014707021
148	0xbebe7c87	-0.37204382
149	0xbee773e1	-0.45205596
150	0xbf2cde28	-0.67526484
151	0xbecd8e9e	-0.4014787
152	0xbdca9ff5	-0.09893791
153	0x3e842ab2	0.25813824
154	0x3eac2217	0.33619758
155	0xbf1c6e29	-0.6110559
156	0x3ec29fa0	0.3801241
157	0xbf0931f2	-0.53591835
158	0xbdf2c4bc	-0.1185393
159	0xbed4634d	-0.4148201
160	0xbe660d06	-0.22465906
161	0xbe04881e	-0.1294255
162	0xbf063422	-0.524233
163	0xbf0c0fbe	-0.5471152
164	0xbdab25c5	-0.08356813
165	0xbd7fc8ab	-0.06244723
166	0xbe696609	-0.2279283
167	0x3e74dac7	0.23911582
168	0xbf18aee3	-0.59641856
169	0x3cf73f85	0.030181656
170	0x3f00f110	0.5036783
171	0xbe7668ec	-0.24063462
172	0x3f0ca5be	0.549404
173	0x3e803142	0.2503758
174	0xbf011847	-0.5042767
175	0x3ed3cea0	0.4136858
176	0xbe09e5e9	-0.1346661
177	0xbe871f50	-0.26391077
178	0x3f023ffc	0.5087888
179	0xbee43f69	-0.44579628
180	0x3cedd067	0.029030038
181	0xbdba7ab7	-0.09105437
182	0x3ede6680	0.43437576
183	0x3e4e576f	0.20150541
184	0x3ed6a07f	0.41919324
185	0x3e52c568	0.20583117
186	0xbe6e647f	-0.23280524
187	0xbe76b7b6	-0.24093518
188	0xbf0503b7	-0.51958793
189	0x3ea8b223	0.32948408
190	0x3f039345	0.5139659
191	0x3ecf4125	0.4047939
192	0xbeecfa03	-0.46284494
193	0x3d0ffdf2	0.03515429
194	0xbecf92b6	-0.4054162
195	0xbec4e9f8	-0.38459754
196	0xbe90eb7a	-0.28304654
197	0x3e51f3c9	0.20503153
198	0xbeb2b608	-0.34904504
199	0x3d2e5c64	0.04256858
200	0x3d8a6731	0.067579634
201	0x3e917bd9	0.284148
202	0xbf057be3	-0.5214216
203	0xbed02fc8	-0.40661454
204	0xbeb113dc	-0.34585464
205	0x3f0270e3	0.509535
206	0xbe61b005	-0.22039802
207	0x3f051cfd	0.5199736
208	0x3e44c538	0.19215858
209	0x3ce330c7	0.02773322
210	0xbd131ebd	-0.035917986
211	0xbe299a75	-0.16562827
212	0x3db08055	0.086182274
213	0xbe3fac40	-0.18718052
214	0x3d6e51de	0.058183543
215	0x3dc13e6c	0.09435734
216	0xbefc84f1	-0.49320176
217	0xbe914064	-0.2836944
218	0x3ef687b8	0.4815042
219	0xbef8b107	-0.4857256
220	0x3b67f2e9	0.0035392588
221	0x3f140fd4	0.5783665
222	0x3e43ac64	0.1910873
223	0x37d5dd9c	2.5494774e-05
224	0xbf0894de	-0.53352153
225	0x3ea1b53c	0.31583583
226	0xbf047b09	-0.51750237
227	0xbe220f1f	-0.1582608
228	0xbe465c08	-0.19371045
229	0xbdaf19bc	-0.0854983
230	0x3bcef000	0.0063152313
231	0x3ef63aba	0.4809168
232	0x3df78cbe	0.12087391
233	0x3f051a09	0.5199285
234	0x3ea84702	0.32866675
235	0xbed9f906	-0.42572802
236	0x3e8b9cb1	0.27267984
237	0xbf0122e4	-0.50443864
238	0xbdc08d97	-0.09402006
239	0x3e300be5	0.17192037
240	0x3e2f7240	0.17133427
241	0x3efa3b21	0.48873237
242	0xbe2d46ef	-0.1692159
243	0xbc62b4e3	-0.013837072
244	0x3ea3cb20	0.3199091
245	0xbf0e745f	-0.5564632
246	0x3ebf5d12	0.37375695
247	0xbf1bd52a	-0.6087214
248	0x3b14a7d3	0.002268304
249	0xbe1e7225	-0.1547323
250	0xbea5af22	-0.32360178
251	0x3e044755	0.12917836
252	0x3eee2ce3	0.4651862
253	0xbe253c1e	-0.16136214
254	0xbec4431e	-0.38332456
255	0xbe9f628d	-0.31129876

actor.preprocess.model.model.0.bias f4 [128]
0	0x3e516bdb	0.204513
1	0x3f163738	0.5867801
2	0x3e95cc55	0.29257455
3	0x3ecd94fa	0.40152723
4	0xbe3263ee	-0.17420933
5	0x3e999cc6	0.3000242
6	0x3d0909eb	0.033456724
7	0xbe1216b2	-0.1426647
8	0xbe9d7c3e	-0.30758852
9	0xbe7de86e	-0.24795696
10	0xbec4e686	-0.38457125
11	0x3eea402e	0.4575209
12	0x3ecdd52d	0.40201703
13	0x3d2ec5aa	0.042668976
14	0xbe8e5dae	-0.27805847
15	0x3ed10a70	0.40828276
16	0x3ec46aea	0.3836282
17	0x3cffd016	0.031227153
18	0xbe58fea5	-0.21190889
19	0x3f202a22	0.6256429
20	0x3e807983	0.25092706
21	0xbea2e39f	-0.31814286
22	0x3f1269f3	0.57192916
23	0x3f12b585	0.57308227
24	0xbe4b0aaa	-0.19828287
25	0x3ebfe056	0.37475842
26	0xbe3ec7d5	-0.18630917
27	0xbd16d147	-0.036820676
28	0x3f020b2a	0.50798285
29	0x3d53e0b7	0.051727977
30	0xbeca267d	-0.3948249
31	0xbe32e9e0	-0.17472029
32	0xbdb8b40a	-0.09018715
33	0xbe101494	-0.1407035
34	0x3d2448d3	0.040108513
35	0x3f12a43c	0.5728185
36	0x3d5da40f	0.054111537
37	0xbeaa9157	-0.3331401
38	0x3e25e833	0.16201858
39	0x3e8abd29	0.27097443
40	0x3e9ede70	0.3102908
41	0xbf084194	-0.53225064
42	0x3cac44c6	0.021028887
43	0xbed5343a	-0.41641408
44	0xbe597c6d	-0.21238871
45	0x3e68b6e4	0.22726017
46	0xbec818a7	-0.39081308
47	0x3e85efaf	0.26159427
48	0x3ef48b4c	0.47762525
49	0x3d651327	0.05592647
50	0xbea0c00b	-0.31396517
51	0xbe05bb45	-0.13059719
52	0x3e2bf624	0.16793114
53	0xbe9c545b	-0.30533108
54	0x3e9f2e94	0.31090224
55	0xbefaa6bf	-0.48955342
56	0xbf004101	-0.5009919
57	0xbf06994f	-0.5257768
58	0xbdf726f4	-0.120679766
59	0x3ec9e3f6	0.39431733
60	0xbf099042	-0.53735745
61	0x3edc49ea	0.43025142
62	0xbe2b441e	-0.16725203
63	0x3e2a13fc	0.16609186
64	0x3d3611c2	0.04445053
65	0xbefecc43	-0.49765214
66	0x3effd43d	0.49966612
67	0x3ed1dfc6	0.40991038
68	0x3f11e5ed	0.56991464
69	0x3eb26276	0.34840745
70	0xbeb2e719	-0.3494194
71	0x3f041ceb	0.51606625
72	0x3d37d9d3	0.044885468
73	0x3e8a5c4b	0.2702354
74	0xbedeee5f	-0.43541238
75	0xbe030bf8	-0.12797534
76	0xbf111f86	-0.56688726
77	0xbe51689d	-0.20450063
78	0x3e2bb3ed	0.16767855
79	0xbec021da	-0.37525827
80	0x3e57c14c	0.2106983
81	0x3ea41e59	0.32054403
82	0x3e3257e7	0.17416345
83	0xbea6145c	-0.32437408
84	0xbecbf4de	-0.39835256
85	0xbd881c91	-0.066460736
86	0x3e9ab683	0.3021737
87	0x3f1212b7	0.57059807
88	0x3ec72111	0.38892415
89	0xbd7c008d	-0.061523963
90	0x3e852e54	0.26011908
91	0xbef2f625	-0.47453418
92	0xbef1cf4c	-0.47228467
93	0x3e9cf371	0.3065448
94	0xbe990c63	-0.29892263
95	0x3ea9dbab	0.33175406
96	0xbe8e1b9d	-0.27755442
97	0xbe50985b	-0.20370619
98	0xbee864ba	-0.45389348
99	0x3e99128b	0.2989696
100	0xbca683b1	-0.020326467
101	0x3ecb4f39	0.3970888
102	0x3eae694e	0.34064716
103	0x3eade87c	0.33966434
104	0x3d1462fd	0.036227215
105	0xbdd259e3	-0.10271051
106	0xbd95dfea	-0.07318099
107	0x3e27cdfb	0.16387169
108	0x3e8fa029	0.2805188
109	0xbec1c0ca	-0.378424
110	0x3efa7640	0.48918343
111	0xbc0b1e94	-0.008491177
112	0xbef20f16	-0.47277135
113	0xbe813c00	-0.2524109
114	0x3f0f80f8	0.56056166
115	0x3f042941	0.5162545
116	0xbee2a2dc	-0.44264877
117	0x3eedb757	0.4642894
118	0x3e9cafe4	0.30602944
119	0x3ec7cd79	0.3902395
120	0x3f0d8d69	0.552939
121	0xbe9630a7	-0.29333994
122	0x3e99fa6a	0.30073863
123	0x3e8c73df	0.27432153
124	0xbe072443	-0.13197426
125	0x3e397195	0.18109734
126	0xbe1da134	-0.15393525
127	0x3ec142f9	0.3774641

actor.preprocess.model.model.2.weight f4 [128, 128]
0	0xbcd713b2	-0.026254509
1	0xbd127c0e	-0.03576284
2	0x3ca8079f	0.020511447
3	0x3cf7a090	0.03022793
4	0xbd4c0ea5	-0.049818654
5	0x3be3fe91	0.006957837
6	0x3d4dedf0	0.050275743
7	0xbc14cf84	-0.009082679
8	0x3cd5a979	0.026081787
9	0xbcef93c9	-0.029245274
10	0x3cefcade	0.02927154
11	0xbd92372a	-0.07139428
12	0xbd60f626	-0.054922245
13	0xbd3e41e8	-0.04644957
14	0x3d9c6969	0.07637293
15	0xbcd4666f	-0.02592775
16	0xba9582d3	-0.0011406787
17	0xbd239c8b	-0.039944213
18	0x3db5a1a4	0.08868721
19	0x3da51480	0.08060551
20	0xbd8c0b69	-0.06838114
21	0xbd94f4e5	-0.072732724
22	0xbd8ac726	-0.06776266
23	0xbb2d62c9	-0.0026456586
24	0xbcc3bd42	-0.023893956
25	0xbd72dc4e	-0.05929213
26	0xbd08a731	-0.03336257
27	0x3c75dbc5	0.01500601
28	0xbd489a2a	-0.048975147
29	0x3c92352e	0.017847624
30	0xbcb0da22	-0.021588389
31	0xbd469066	-0.048477553
32	0x3c2b2ab3	0.010447192
33	0x3d90b8d7	0.070665054
34	0xbd7bc58e	-0.0614677
35	0x39e884f1	0.00044349537
36	0xbd0c96b2	-0.0343234
37	0x3db0d21a	0.08633824
38	0xbdb06dcf	-0.08614694
39	0xbdaf3367	-0.08554726
40	0x3da934a8	0.082619965
41	0xbd6993d9	-0.057025764
42	0x3c16c31b	0.00920179
43	0xbc2a49d0	-0.010393575
44	0xbca220cf	-0.019791035
45	0xbcd1189f	-0.025524436
46	0x3d604faf	0.054763492
47	0x3c29ab2e	0.010355754
48	0xbdb21234	-0.08694878
49	0xbd6b13a2	-0.05739177
50	0xbd1934db	-0.037403923
51	0x3d2f3a4c	0.042780206
52	0xbd770160	-0.060304046
53	0x3da76d5c	0.081751555
54	0xbcbd7361	-0.023126306
55	0xbc8bccf7	-0.017065508
56	0x3d8a5752	0.06754936
57	0x3d292086	0.041290782
58	0x3d95edd3	0.07320752
59	0x3d4a48aa	0.049385704
60	0xbce59f2e	-0.028030004
61	0xbd7336d1	-0.05937845
62	0xbc07fd0e	-0.008300079
63	0x3d946ad9	0.07246942
64	0xbd00a5f9	-0.031408284
65	0xbdab4f52	-0.083647385
66	0x3d07387a	0.033012845
67	0x3da6f1e9	0.081516095
68	0xbce2c6e2	-0.027682725
69	0xbd902b29	-0.07039482
70	0xbda5bf96	-0.08093183
71	0x3c9e5297	0.019326491
72	0xbbf85afb	-0.007579205
73	0xbd3aab6b	-0.045573633
74	0x3c8497e4	0.016185708
75	0x3d01ab37	0.031657424
76	0x3d8ff7d5	0.07029692
77	0x3d8bb026	0.06820707
78	0xbc5b3c83	-0.013381126
79	0xbda439be	-0.08018826
80	0xbda7146b	-0.08158191
81	0x3da5773b	0.08079382
82	0x3d2640da	0.04058919
83	0x3d1b0e91	0.03785569
84	0xbd9f9734	-0.077925116
85	0x3da63518	0.081155956
86	0x3d9eaaf9	0.07747454
87	0x3da21ea5	0.07916001
88	0xbd9e17d5	-0.07719389
89	0xbd0e743d	-0.034778822
90	0xbd8b3f19	-0.06799144
91	0x3da7fc03	0.08202364
92	0xbd09355b	-0.03349815
93	0xbd39bb53	-0.045344662
94	0x3d22991b	0.039696794
95	0xbd26bb2d	-0.04070585
96	0xbd394c5b	-0.045238834
97	0xbbfd5830	-0.00773146
98	0xbc163c5b	-0.009169663
99	0xbd90c8da	-0.070695594
100	0x3d9359cd	0.071948625
101	0xbd2d1c64	-0.042263404
102	0x3cfa65e8	0.03056617
103	0x3d995cbf	0.07488393
104	0x3d355099	0.044266317
105	0x3c63654b	0.013879131
106	0x3d9c4f29	0.07632286
107	0x3c3d5565	0.011556004
108	0xbd29f2de	-0.04149138
109	0x3da7d942	0.081957355
110	0x3ca50524	0.020144053
111	0xbdb0c2e1	-0.0863092
112	0xbcd85bfa	-0.026411045
113	0xbd7ab5b1	-0.06120843
114	0x3d9d55c3	0.076823734
115	0xbc74bf3b	-0.014938171
116	0xbda87cf3	-0.08226957
117	0xbbbae126	-0.0057031093
118	0x3d5c02a7	0.053713467
119	0x3cbb72f6	0.022881966
120	0x3cc12676	0.02357791
121	0x3be78974	0.0070659462
122	0x3ce6fe35	0.028197387
123	0xbcb5bec6	-0.022185694
124	0xbd17c0d5	-0.037049133
125	0xbdab9bb4	-0.083793074
126	0xbd8ae20b	-0.067813955
127	0x3d192779	0.03739116
128	0xbd05771e	-0.032584302
129	0xbd305255	-0.043047268
130	0x3d1b4741	0.03790975
131	0x3ceb6140	0.028732896
132	0xbd5f6abe	-0.054545157
133	0x3dbbbfb4	0.09167424
134	0xbd8c86eb	-0.06861671
135	0x3dd4bbaf	0.1038736
136	0xbd9d5eaf	-0.07684075
137	0xbd6354a3	-0.055500638
138	0x3d86efc0	0.065886974
139	0xbcb6a229	-0.02229412
140	0x3d70ff31	0.05883712
141	0xbcda0136	-0.026611906
142	0xbd27000c	-0.04077153
143	0xbd49697c	-0.049172863
144	0x3baa2199	0.0051919934
145	0x3de34c77	0.11098569
146	0xbb6e81f1	-0.003639337
147	0x3d2ef26d	0.042711664
148	0x3bdcaf39	0.0067347554
149	0x3d88a4b6	0.06672041
150	0x3d94340b	0.07236489
151	0xbd0978eb	-0.033562582
152	0x3c1a310c	0.009411108
153	0x3dea2de9	0.11434538
154	0x3c6bcc1f	0.014391928
155	0x3dd002d6	0.10156791
156	0xbba74f7a	-0.00510591
157	0x3daca405	0.08429722
158	0xbda6fdd3	-0.08153882
159	0x3c954216	0.018219989
160	0x3c7237d9	0.014783823
161	0x3ac207a0	0.0014803298
162	0x3d57d7d3	0.05269606
163	0x3daefc7e	0.08544253
164	0x3bd13763	0.0063847764
165	0x3c9f57d5	0.019451061
166	0x3de6972b	0.11259302
167	0xbc246b7e	-0.010035394
168	0x3dd9d436	0.10636179
169	0xbbaba05a	-0.0052376213
170	0x3c5e14d9	0.013554775
171	0xbc63da1f	-0.013906985
172	0x3c604368	0.013687946
173	0x3d80b7f5	0.06285087
174	0xbc89864d	-0.016787672
175	0xbc433510	-0.011914507
176	0x3cc6daae	0.024274196
177	0x3d3950af	0.04524296
178	0x3c4c2d98	0.012462042
179	0xbccdfb36	-0.0251442
180	0x3dd4ae90	0.10384858
181	0x3da48ace	0.080342874
182	0x3b6be094	0.0035992013
183	0xbd8107c4	-0.06300309
184	0x3d1c69dc	0.038186893
185	0xbe07d15f	-0.13263462
186	0x3bc0302c	0.0058651175
187	0x3cd0fff7	0.025512679
188	0xbd10ca9c	-0.035349473
189	0x3d481d95	0.048856337
190	0xbd6af2fd	-0.057360638
191	0x3d0e19ea	0.034692682
192	0xbd2e714c	-0.042588517
193	0xbc0fa300	-0.00876689
194	0xbc7dd956	-0.015493711
195	0x3ddb2ddd	0.10702107
196	0xbd2c815e	-0.04211556
197	0x3d8d6b51	0.069052346
198	0x3c8ebb43	0.017423278
199	0xbd8a684a	-0.06758173
200	0xbdbdd88e	-0.0926982
201	0xbdc7144e	-0.0972067
202	0x3deedbac	0.11662993
203	0x3d21f665	0.03954162
204	0x3b90aad0	0.0044148937
205	0x3d4de00f	0.050262507
206	0x3dad1c50	0.08452666
207	0x3d87477f	0.06605434
208	0x3dcaf3ec	0.09909806
209	0xbd3b0a7e	-0.045664303
210	0x3d4b9135	0.049699027
211	0xbcab07a4	-0.020877667
212	0xbc4f8946	-0.012667006
213	0x3c64f4be	0.013974367
214	0x3dba8d32	0.09108962
215	0xbd5a5fbd	-0.05331396
216	0x3da081d6	0.07837264
217	0xbd49c853	-0.04926331
218	0xba47a5ed	-0.00076159724
219	0x3dd57aad	0.10423789
220	0x3d0f0e5c	0.034925804
221	0x3d078d5d	0.0330938
222	0xbdd01414	-0.101600796
223	0x3dd04d9b	0.10171052
224	0x3c1da004	0.00962067
225	0xbda48949	-0.080339976
226	0x3cc63a29	0.024197655
227	0xbd81f00c	-0.063446134
228	0xbd72030b	-0.059084933
229	0x3ce06af6	0.027394753
230	0x3db45e4d	0.08807049
231	0xbcba171e	-0.022716101
232	0x3d8199f1	0.0632819
233	0x3df84bab	0.121238075
234	0x3dfa16be	0.12211369
235	0xbb47d106	-0.0030489578
236	0x3c68afd6	0.014202079
237	0x3c041181	0.008060814
238	0xbd9f2ff2	-0.07772817
239	0x3ce6e95f	0.028187452
240	0x3d918760	0.07105899
241	0x3de52a34	0.1118969
242	0x3d19ffcd	0.037597466
243	0x3d1e11a7	0.038591053
244	0xbd252420	-0.040317655
245	0x3dafadc6	0.085780665
246	0xbc99854b	-0.018740317
247	0xbc5db397	-0.013531587
248	0x3cb5d825	0.022197792
249	0x3d8eee23	0.06979015
250	0xbd3872b0	-0.04503125
251	0x3da54c8e	0.08071242
252	0x3d476d4f	0.04868823
253	0xbd9a2873	-0.07527246
254	0xbbfe3453	-0.0077577024
255	0x3d981d98	0.074275196

actor.preprocess.model.model.2.bias f4 [128]
0	0xbd2d6c82	-0.04233981
1	0xbd8b67f1	-0.068069346
2	0xbd8f8429	-0.070076294
3	0xbaa6d8e5	-0.0012729435
4	0xbd56a8a6	-0.05240693
5	0xbd652096	-0.05593928
6	0x3dc96c4f	0.09835111
7	0xbdb40db3	-0.087916754
8	0xbc24f717	-0.010068676
9	0x3d6299e1	0.05532253
10	0xbd23acb5	-0.039959628
11	0x3d1b5c4c	0.037929818
12	0xbd41f742	-0.047354944
13	0x3bacc352	0.0052723074
14	0x3d5f03d8	0.054447025
15	0xbc8f65f9	-0.017504679
16	0xbd75c425	-0.06000151
17	0x3c393055	0.011303027
18	0xbce60ecd	-0.02808323
19	0x3d8158c9	0.063157625
20	0x3c6ca897	0.014444492
21	0x3dd00aed	0.10158334
22	0xbd2aa7ec	-0.04166405
23	0xbd0d1205	-0.034441013
24	0xbbe1c5f6	-0.006890054
25	0x3d928148	0.07153565
26	0x3dbc8159	0.092043586
27	0x3d81089d	0.06300471
28	0xbcd97c52	-0.026548538
29	0xba9f794a	-0.0012166884
30	0x3d9a0f7f	0.07522487
31	0x3d8f4b1e	0.06996749
32	0x3deeb045	0.116547145
33	0x3d20152b	0.039082687
34	0xbc326940	-0.010889351
35	0x3d89aa2b	0.0672191
36	0x3ceb23b4	0.028703548
37	0xbcbf7e39	-0.023375617
38	0x3daa0be5	0.0830305
39	0xbac36165	-0.0014906345
40	0x3df8dea2	0.12151839
41	0x3d7cc331	0.061709587
42	0xbc63cd4f	-0.01390393
43	0xbd719c27	-0.05898681
44	0xbdb193bf	-0.086707585
45	0xbca70fea	-0.02039333
46	0x3ce4bbf7	0.02792166
47	0xbbdffd1e	-0.006835594
48	0x3d180a97	0.037119474
49	0xbd55a2bd	-0.052157152
50	0x3d69ad4e	0.05705004
51	0xbd06fce9	-0.032956038
52	0x3cfb07b0	0.030643314
53	0xbd62bb2e	-0.05535429
54	0x3c17dac8	0.00926847
55	0x3ced2ad4	0.028951086
56	0x3d266bc0	0.040630102
57	0xbdab5ce8	-0.0836733
58	0x3db31845	0.087448634
59	0xbd0e7d10	-0.034787238
60	0xbdaf3c89	-0.08556468
61	0xbd5faf30	-0.05461043
62	0xbdb4ee59	-0.08834524
63	0x3cfbb021	0.030723633
64	0x3d9bf9c4	0.076159984
65	0x3da4694a	0.08027895
66	0x3d31b470	0.04338497
67	0xbd196cc0	-0.037457228
68	0x3c966484	0.018358476
69	0x3d319c27	0.04336181
70	0xbd6ff670	-0.05858463
71	0xbc7ed07f	-0.015552639
72	0x3cb4e6a0	0.022082627
73	0x3d907f3a	0.070555165
74	0x3d2d7505	0.042347927
75	0xbd001f5a	-0.0312799
76	0x3cf5efa5	0.030021498
77	0x3d7bfbb7	0.06151935
78	0x3db11549	0.08646638
79	0xbd424b6d	-0.047435213
80	0x3db2edc7	0.08736759
81	0xbbefb9e8	-0.007315863
82	0xbd284c21	-0.041088227
83	0x3c288e27	0.010287798
84	0x3da1f157	0.0790736
85	0xbd4ebd8d	-0.05047374
86	0x3d399c02	0.045314796
87	0xbd69074e	-0.056891732
88	0x3b99aeeb	0.0046900413
89	0x3d9d1fd2	0.07672085
90	0xbd1ec6ac	-0.038763687
91	0xbcc314c1	-0.023813607
92	0xbbe70383	-0.007049979
93	0x3d41a090	0.047272265
94	0x3c05223d	0.008125839
95	0xbc22a559	-0.009927117
96	0x3cade642	0.02122796
97	0x3d24ce70	0.040235937
98	0x3da657c1	0.081222065
99	0x3d3278b3	0.04357214
100	0x3d6a24a3	0.057163846
101	0x3d15623a	0.03647063
102	0x3c8b9610	0.017039329
103	0x3b506321	0.0031797367
104	0xbd414dbc	-0.047193274
105	0xbd1229a9	-0.03568426
106	0x3c1b31aa	0.00947229
107	0x3d0cdebc	0.034392104
108	0xbd38289f	-0.044960614
109	0xbcd36165	-0.025803277
110	0x3d553678	0.0520539
111	0x3c8e9593	0.017405307
112	0x3d50b8ca	0.05095748
113	0x3d22da51	0.039758984
114	0x3cf23d62	0.029570285
115	0x3c61805d	0.013763514
116	0xbd11580d	-0.035484362
117	0x3d7b1e1d	0.061308015
118	0xbce37f34	-0.027770616
119	0xbcb46752	-0.022021923
120	0xbd827258	-0.063694656
121	0x3af50e05	0.0018696195
122	0xbd711573	-0.058858346
123	0x3b6a3130	0.0035734884
124	0xbd08898f	-0.03333431
125	0x3d538971	0.051644746
126	0x3d85684c	0.06514034
127	0x3da71051	0.08157409

actor.last.model.0.weight f4 [1, 128]
0	0xbbc87ce9	-0.006118406
1	0x3e06d568	0.13167346
2	0xbda11bee	-0.07866655
3	0x3d2230d9	0.039597366
4	0x3cbffcac	0.023435913
5	0xbe1e7f84	-0.15478331
6	0x3dc78d22	0.09743716
7	0x3d700afa	0.058604218
8	0x3e3092a9	0.17243446
9	0x3d9b4b3c	0.07582709
10	0x3d36a12b	0.044587296
11	0xbdbda975	-0.09260837
12	0x3dd023d9	0.101630874
13	0xbdc12141	-0.09430171
14	0x3e1b3297	0.15156017
15	0xbe135cc9	-0.14390863
16	0xbd17f045	-0.037094373
17	0xbd1506ad	-0.03638332
18	0xbd875877	-0.0660867
19	0xbd9a0403	-0.075202964
20	0xbd07c9a7	-0.033151295
21	0xbdd283b1	-0.102790244
22	0xbd5ba1e5	-0.05362119
23	0xbda7bafd	-0.08189962
24	0x3d57439d	0.052554715
25	0x3de0a74b	0.109694086
26	0xbcc4e111	-0.024033101
27	0x3da8aa03	0.08235552
28	0x3da7bf35	0.08190767
29	0xbdac10c2	-0.08401634
30	0xbd4386a5	-0.04773583
31	0x3d8f70db	0.07003947
32	0x3e209093	0.1568015
33	0x3d11fd22	0.035641797
34	0xbc599210	-0.013279453
35	0x3d8da837	0.0691685
36	0xbda1d896	-0.079026386
37	0x3e1c4ee8	0.15264475
38	0xbdb1fb63	-0.08690526
39	0x3d8eb640	0.06968355
40	0xbd35756e	-0.044301443
41	0xbdf00154	-0.11719003
42	0xbd6135a6	-0.054982804
43	0xbd2b245d	-0.041782726
44	0x3b950b6f	0.004548482
45	0x3dc391e9	0.095493145
46	0xbd99fc1c	-0.07518789
47	0xbd2b85b2	-0.04187555
48	0xbe321c3b	-0.17393582
49	0x3d9fd293	0.07803836
50	0x3de5e1f2	0.11224736
51	0xbdc24ec6	-0.09487681
52	0xbd17d2b1	-0.037066165
53	0x3e084969	0.13309254
54	0x3dc58e47	0.09646278
55	0xbdb6e6e8	-0.089307606
56	0xbe0a6cb6	-0.13518032
57	0x3e00d47a	0.12581053
58	0xbd587209	-0.052843127
59	0x3e0197af	0.12655519
60	0xbdaeb47b	-0.08530518
61	0x3db9170a	0.090375975
62	0x3be3fe24	0.006957786
63	0xbc87865f	-0.016543565
64	0xbd984daa	-0.07436688
65	0x3d11ac1a	0.03556452
66	0xbd89fd26	-0.06737737
67	0xbd8ebcbe	-0.069695935
68	0xbdaea4ff	-0.08527564
69	0x3dffbb13	0.124868535
70	0x3da92b43	0.08260205
71	0xbd242868	-0.040077597
72	0x3c8ead1c	0.01741653
73	0x3dd29bba	0.10283609
74	0xbe147bb0	-0.14500308
75	0x3d40bfc6	0.04705789
76	0x3e022781	0.12710382
77	0x3d668b4b	0.056285184
78	0xbd89ef4c	-0.067350954
79	0xbd51e8a1	-0.051247243
80	0xbd5a6871	-0.05332226
81	0x3dd209d4	0.10255781
82	0xbd837174	-0.06418124
83	0xbdd076e8	-0.101789296
84	0xbd00a313	-0.03140552
85	0x3d138484	0.03601505
86	0xbe337447	-0.17524825
87	0xbb0dbd5d	-0.0021627762
88	0x3ca978b3	0.020687437
89	0xbd377452	-0.044788666
90	0xbdd0df9d	-0.10198901
91	0xbd4c0112	-0.04980571
92	0xbd842d22	-0.06453921
93	0x3d8a6edd	0.06759427
94	0xbe0a9f21	-0.13537265
95	0x3d61efa3	0.055160176
96	0xbdfee227	-0.12445479
97	0x3dacee7f	0.08443927
98	0xbd7aab46	-0.061198495
99	0x3d616ff4	0.055038407
100	0xbd2eb09c	-0.042648897
101	0x3d3d628b	0.046236556
102	0xbda0b09f	-0.07846188
103	0xbd1d98dd	-0.03847586
104	0xbe1902ea	-0.14942518
105	0x3ddf6414	0.1090776
106	0xbdc7ded0	-0.09759295
107	0x3d85404b	0.065064035
108	0xbd9ae99d	-0.075640894
109	0x3df7aca2	0.12093474
110	0xbd550cfe	-0.052014343
111	0xbdfe1944	-0.12407163
112	0x3b40f9bf	0.0029445735
113	0xbe2f8216	-0.17139468
114	0x3d33784a	0.04381589
115	0x3e1851aa	0.14874902
116	0xbcdfa3a3	-0.027299708
117	0xbd91d9e9	-0.07121641
118	0x3e352512	0.17689922
119	0x3dcf2fce	0.1011654
120	0x3bafefb0	0.005369149
121	0x3d889096	0.066682026
122	0xbddadadd	-0.10686276
123	0xbdae3a82	-0.08507253
124	0x3cc2c5dc	0.023775987
125	0x3d36fc78	0.044674367
126	0xbd76e247	-0.06027439
127	0xbdd27c56	-0.102776214

actor_old.preprocess.model.model.0.weight f4 [128, 3]
0	0xbc83ac8e	-0.016073491
1	0x3e9b3ff5	0.30322233
2	0xbef67422	-0.48135477
3	0xbeecb267	-0.4622986
4	0xbe5eb5b6	-0.21749005
5	0x3e3796cb	0.17928617
6	0xbc186c6b	-0.009303193
7	0x3ef9f258	0.48817706
8	0xbda26915	-0.07930199
9	0x3df1d835	0.11808816
10	0xbe3b7fd6	-0.18310484
11	0xbd5f626c	-0.05453722
12	0xbf238d88	-0.63887835
13	0xbe966ddf	-0.293807
14	0xbe639751	-0.22225691
15	0x3c3bc90a	0.011461506
16	0x3ea1f038	0.31628585
17	0x3ea34f79	0.3189657
18	0xbebd96bd	-0.37029067
19	0xbe6bea05	-0.2303849
20	0x3e865496	0.2623641
21	0x3ee9f4a8	0.4569447
22	0xbdc6a92b	-0.09700235
23	0x3ee40a19	0.44538954
24	0xbd9b1982	-0.075732246
25	0x3dfeb0f9	0.124360986
26	0x3f09450a	0.5362097
27	0xbf2b32fe	-0.6687468
28	0xbe8865dc	-0.26640213
29	0xbd3b61fb	-0.04574774
30	0xbe984db5	-0.29746786
31	0x3efd8767	0.49517366
32	0xbed61207	-0.4181063
33	0xbeb2dddc	-0.3493489
34	0xbec17066	-0.37781066
35	0xbef678a3	-0.48138914
36	0xbeb0e9ee	-0.34553474
37	0x3f0d6a7f	0.55240625
38	0x3e8a95ac	0.27067316
39	0x3e0f4e3a	0.13994685
40	0xbd5f946a	-0.054584898
41	0xbead8628	-0.33891416
42	0xbbed9b19	-0.007251155
43	0xbf239603	-0.63900775
44	0xbed8cf60	-0.42345715
45	0xbe74b035	-0.23895343
46	0x3ef67d42	0.4814244
47	0x3ea08a76	0.31355637
48	0xbe979886	-0.29608554
49	0x3c66735b	0.014065589
50	0x3ec68362	0.38772112
51	0x3f20922d	0.62723047
52	0x3e48c457	0.19606148
53	0x3dc7f23c	0.097629994
54	0x3eb0635e	0.3445081
55	0xbeafdcba	-0.34348089
56	0x3e2e1c97	0.17003094
57	0xbf0394c2	-0.5139886
58	0xbedad98d	-0.42744103
59	0xbe3b9e14	-0.18322021
60	0x3e87d003	0.26525888
61	0x3e7160ea	0.23572126
62	0xbeba0ff1	-0.36340287
63	0x3d4272dd	0.047472823
64	0x3ee32868	0.44366765
65	0xbe2f52d0	-0.17121434
66	0xbbec6fd8	-0.0072154813
67	0x3e34f223	0.17670493
68	0x3ebad3d5	0.3648974
69	0x3ef5460f	0.47905013
70	0xbf0979e7	-0.53701633
71	0xbe18bb1c	-0.14915127
72	0x3e6fe4d9	0.23427142
73	0x3f0860ac	0.5327251
74	0x3f03ded6	0.51511896
75	0x3eff4d57	0.49863693
76	0x3e04915e	0.12946078
77	0xbf093d14	-0.5360882
78	0xbdae4497	-0.08509176
79	0xbee238b9	-0.441839
80	0xbf1330a0	-0.5749607
81	0x3f062c55	0.52411395
82	0x3efd6f0d	0.49498788
83	0xbf1cfdcc	-0.61324763
84	0x3db30855	0.087418236
85	0xbdbc6e4e	-0.092007264
86	0xbdb2b4eb	-0.087259136
87	0xbe9f93ca	-0.31167442
88	0x3e68819e	0.22705695
89	0xbeb20901	-0.34772494
90	0x3e4d0f28	0.20025313
91	0x3eb0f63c	0.34562862
92	0x3edb5736	0.42839974
93	0x3e7d7079	0.24749936
94	0xbf208ab0	-0.6271162
95	0xbec3144a	-0.38101417
96	0x3e791c68	0.24327242
97	0x3d49d705	0.049277324
98	0xbf0643b8	-0.5244708
99	0xbea75485	-0.3268167
100	0x3f1b2454	0.6060231
101	0x3ebac85b	0.36480984
102	0xbe8ffe3c	-0.28123653
103	0xbe547a46	-0.20749769
104	0xbf1ff449	-0.62482125
105	0xbd9a86ff	-0.0754528
106	0xbefb47d4	-0.49078238
107	0xbec97b2e	-0.3935179
108	0xbd88918f	-0.06668388
109	0x3d9846a3	0.07435348
110	0xbe840d80	-0.2579155
111	0x3e94bb02	0.29048926
112	0xbeafda64	-0.34346306
113	0x3f0d4e76	0.55197847
114	0x3ee22fed	0.4417719
115	0xbf1b8aa5	-0.6075843
116	0xbddc0be3	-0.10744455
117	0x3c7a4fcf	0.015277817
118	0x3e1f6d62	0.1556907
119	0x3de321df	0.11090445
120	0x3e8208b3	0.25397262
121	0xbca06589	-0.019579666
122	0xbe94bca6	-0.29050177
123	0x3e68b513	0.22725324
124	0xbf1dd2f0	-0.6164999
125	0xbeb51601	-0.3536835
126	0xbe7d974e	-0.2476475
127	0xbeb37b06	-0.35054797
128	0xbe205c3f	-0.15660189
129	0xbf03843f	-0.51373667
130	0xbd60d256	-0.054888092
131	0x3e02bbbc	0.12766927
132	0xbeeec122	-0.46631724
133	0x3dde2be8	0.10848218
134	0x3ec97bc2	0.39352232
135	0xbda8979c	-0.08232042
136	0x3d449373	0.04799218
137	0xbcd4830c	-0.025941394
138	0x3dd7c705	0.10536007
139	0x3ed5c0e0	0.41748714
140	0x3f115452	0.5676929
141	0x3eb565ea	0.35429317
142	0x3f19ebaf	0.6012525
143	0xbc327db9	-0.010894232
144	0xbf01f12f	-0.5075864
145	0xbe82ad20	-0.2552271
146	0x3ee1fce7	0.44138262
147	0xbbcebed0	-0.0063093677
148	0xbeb6a447	-0.3567221
149	0xbee6d8a6	-0.45087165
150	0xbf28c45b	-0.65924615
151	0xbecf4d0e	-0.40488476
152	0xbdcc4157	-0.099734
153	0x3e8540ed	0.26026097
154	0x3eadabdb	0.33920178
155	0xbf1baddf	-0.6081218
156	0x3ec41347	0.38295957
157	0xbf04a1cf	-0.518094
158	0xbdf25d66	-0.118342206
159	0xbecc31a8	-0.39881635
160	0xbe5a28bc	-0.21304601
161	0xbe070387	-0.1318494
162	0xbf07ffe1	-0.53124815
163	0xbf09a9c8	-0.5377469
164	0xbdaac4ee	-0.083383426
165	0xbd84bc79	-0.06481261
166	0xbe6761c4	-0.22595888
167	0x3e74c635	0.23903735
168	0xbf187ddc	-0.59567046
169	0x3cbf2716	0.023334067
170	0x3f00db8b	0.50334996
171	0xbe79625c	-0.24353927
172	0x3f0ead11	0.5573283
173	0x3e7eaf8a	0.2487165
174	0xbeff1a67	-0.4982483
175	0x3ed565a0	0.41679096
176	0xbe03883d	-0.1284494
177	0xbe83fbaf	-0.25777957
178	0x3f022074	0.5083077
179	0xbee3ca4d	-0.4449028
180	0x3cdcbb20	0.026944697
181	0xbdba865f	-0.091076605
182	0x3ede6d57	0.43442795
183	0x3e44af07	0.19207393
184	0x3ed17892	0.409123
185	0x3e513810	0.20431542
186	0xbe595187	-0.21222506
187	0xbe5bdeca	-0.21471706
188	0xbf03ec07	-0.51532024
189	0x3ea5fdf1	0.32420304
190	0x3f0360aa	0.5131937
191	0x3ecf82bd	0.40529433
192	0xbee8a579	-0.45438746
193	0x3d1aae43	0.037763845
194	0xbecfa9d2	-0.4055925
195	0xbec5113f	-0.3848972
196	0xbe90b846	-0.2826559
197	0x3e53bc28	0.20677245
198	0xbeb41791	-0.3517423
199	0x3d030956	0.031991325
200	0x3d83713d	0.06418083
201	0x3e97d5ce	0.29655308
202	0xbf01c2d3	-0.50687903
203	0xbecfbafc	-0.40572345
204	0xbeaa1604	-0.33219922
205	0x3efed96b	0.49775252
206	0xbe6395f6	-0.22225174
207	0x3f03ffae	0.5156201
208	0x3e4620e3	0.19348483
209	0x3cc6c0b5	0.024261812
210	0xbd069927	-0.0328609
211	0xbe23ff61	-0.16015388
212	0x3dae485f	0.085098974
213	0xbe3c762b	-0.18404453
214	0x3d46725d	0.04844891
215	0x3dc005cd	0.093761064
216	0xbefd208f	-0.49438903
217	0xbe938522	-0.2881251
218	0x3ef66ebc	0.4813136
219	0xbefc8a56	-0.49324292
220	0xbb071e69	-0.002061749
221	0x3f13b7b6	0.57702196
222	0x3e50e25c	0.20398849
223	0x3bda74af	0.006666742
224	0xbf07b7ec	-0.5301502
225	0x3ea642bd	0.32472792
226	0xbefcd2c5	-0.49379554
227	0xbe24e822	-0.16104177
228	0xbe465c08	-0.19371045
229	0xbdaf19bc	-0.0854983
230	0x3bcef000	0.0063152313
231	0x3ef1bed8	0.47215915
232	0x3df6471c	0.12025282
233	0x3f056051	0.5210009
234	0x3ea85011	0.32873586
235	0xbedadf51	-0.42748502
236	0x3e8b91cf	0.2725968
237	0xbf028ebe	-0.5099906
238	0xbdc8c968	-0.0980404
239	0x3e2f2804	0.17105108
240	0x3e2d48fc	0.16922373
241	0x3efc3b91	0.49264196
242	0xbe2a015a	-0.16602078
243	0xbbb19cf6	-0.0054203225
244	0x3ea7322d	0.3265547
245	0xbf0e08a8	-0.5548196
246	0x3ec19cac	0.37814844
247	0xbf1962dc	-0.5991647
248	0x3b1956c4	0.0023397664
249	0xbe230b2d	-0.15922232
250	0xbea70df2	-0.32627827
251	0x3e033641	0.12813665
252	0x3eefda17	0.46846077
253	0xbe209e8b	-0.1568548
254	0xbec3a303	-0.38210306
255	0xbea188ba	-0.31549627

actor_old.preprocess.model.model.0.bias f4 [128]
0	0x3e4b0943	0.19827752
1	0x3f167cb7	0.5878405
2	0x3e9366d3	0.28789386
3	0x3ecd7f58	0.40136218
4	0xbe372f68	-0.17889178
5	0x3e9c01b6	0.30470055
6	0x3d140947	0.03614166
7	0xbe10f112	-0.14154461
8	0xbe9e2f65	-0.30895534
9	0xbe7f69f1	-0.24942757
10	0xbec51648	-0.38493562
11	0x3ee5f9d5	0.4491717
12	0x3ecedb55	0.40401712
13	0x3d0da3a4	0.034579888
14	0xbe8f6d6c	-0.2801317
15	0x3ed148f9	0.40875986
16	0x3ec57e38	0.3857286
17	0x3d0bdb8b	0.03414492
18	0xbe5c71ab	-0.21527736
19	0x3f1e5123	0.61842555
20	0x3e7d7425	0.24751337
21	0xbea3d55a	-0.31998712
22	0x3f13193d	0.57460386
23	0x3f109ef8	0.5649257
24	0xbe4b805e	-0.19873187
25	0x3ebee346	0.3728277
26	0xbe570f21	-0.21001865
27	0xbd3813b7	-0.044940677
28	0x3f022dcd	0.50851136
29	0x3d38a219	0.045076463
30	0xbeca4729	-0.39507416
31	0xbe410c33	-0.1885231
32	0xbdcdbf18	-0.10046214
33	0xbe0d2be8	-0.1378628
34	0x3d0d4d3b	0.03449748
35	0x3f10ccb0	0.5656233
36	0x3d35e375	0.044406373
37	0xbeaa4b5d	-0.33260623
38	0x3e1b0619	0.15139045
39	0x3e8a2317	0.26979896
40	0x3e9a5bbe	0.3014812
41	0xbf08e634	-0.5347626
42	0x3baab472	0.005209499
43	0xbed13d68	-0.40867162
44	0xbe525719	-0.20541038
45	0x3e690d53	0.22758989
46	0xbec8a3f0	-0.39187574
47	0x3e83b79b	0.25726017
48	0x3ef56642	0.4792958
49	0x3d467f97	0.048461523
50	0xbea3318a	-0.31873733
51	0xbe0bdd7c	-0.13658708
52	0x3e2a2e1e	0.16619155
53	0xbea1a662	-0.31572253
54	0x3e9e385b	0.3090237
55	0xbefad225	-0.48988453
56	0xbf004735	-0.50108653
57	0xbf06dd24	-0.52681184
58	0xbdfbe563	-0.122996114
59	0x3ec8393f	0.39106175
60	0xbf09b417	-0.5379042
61	0x3ee03587	0.43790838
62	0xbe3d8bf2	-0.18510416
63	0x3e2bec82	0.1678944
64	0x3d2ac627	0.04169288
65	0xbefd6876	-0.4949376
66	0x3effb878	0.49945426
67	0x3ecdb5fe	0.40177912
68	0x3f111c86	0.5668415
69	0x3eb0003d	0.34375182
70	0xbeb4bdb0	-0.3530097
71	0x3f03c7db	0.5147683
72	0x3d45f449	0.04832867
73	0x3e8df199	0.27723387
74	0xbee29cd7	-0.44260284
75	0xbe10feb0	-0.14159656
76	0xbf111f86	-0.56688726
77	0xbe526ff0	-0.20550513
78	0x3e2dad61	0.1696067
79	0xbebeb8cd	-0.37250367
80	0x3e5746d9	0.2102312
81	0x3ea19cfa	0.31565076
82	0x3e32e77c	0.17471117
83	0xbea618b0	-0.3244071
84	0xbece86d8	-0.40337253
85	0xbd8ceecb	-0.06881484
86	0x3e967c29	0.29391602
87	0x3f141a3e	0.5785254
88	0x3ec408bb	0.3828791
89	0xbd75d6fd	-0.060019482
90	0x3e823c14	0.2543646
91	0xbef802cf	-0.48439643
92	0xbef1d1cf	-0.47230384
93	0x3e993e4c	0.2993034
94	0xbe9b2266	-0.3029968
95	0x3ea9edea	0.33189327
96	0xbe99658c	-0.29960287
97	0xbe5522dd	-0.2081408
98	0xbee6a3e7	-0.45046923
99	0x3e994501	0.29935458
100	0xbcf82bb4	-0.030294277
101	0x3eccc651	0.39995053
102	0x3eb0d9e9	0.34541252
103	0x3eafe69d	0.3435563
104	0x3d16cc48	0.03681591
105	0xbdd9703e	-0.106171116
106	0xbd917b0e	-0.07103549
107	0x3e2994c6	0.16560659
108	0x3e8fc10c	0.2807697
109	0xbec12295	-0.37721696
110	0x3efbe03f	0.49194524
111	0xbbbe02eb	-0.0057986877
112	0xbef1ee51	-0.47252133
113	0xbe82283e	-0.25421327
114	0x3f0e1b90	0.5551081
115	0x3f04a60c	0.5181587
116	0xbee648b6	-0.4497735
117	0x3eeda221	0.46412757
118	0x3e991893	0.2990156
119	0x3ec9aff1	0.39392045
120	0x3f0a3d6b	0.53999966
121	0xbe964cd1	-0.2935548
122	0x3e9125cc	0.2834915
123	0x3e8df237	0.27723858
124	0xbe0d29c5	-0.13785465
125	0x3e43d130	0.19122767
126	0xbe1d09f8	-0.15335834
127	0x3ec2b49f	0.38028428

actor_old.preprocess.model.model.2.weight f4 [128, 128]
0	0xbcd7130a	-0.026254196
1	0xbd121f65	-0.03567447
2	0x3ca8080e	0.020511653
3	0x3cf76342	0.030198697
4	0xbd4a9221	-0.049455766
5	0x3be67f92	0.0070342505
6	0x3d4e4586	0.05035927
7	0xbc143ccb	-0.009047697
8	0x3cd64374	0.026155211
9	0xbcebd05f	-0.028785883
10	0x3cefcb2a	0.02927168
11	0xbd915a70	-0.07097328
12	0xbd60783e	-0.054802172
13	0xbd3e4a1a	-0.046457388
14	0x3d9ce5f3	0.07661047
15	0xbcd39372	-0.025827143
16	0xba8b0a7e	-0.0010607985
17	0xbd246c5e	-0.04014241
18	0x3db597d3	0.08866849
19	0x3da5b742	0.08091594
20	0xbd8c0b35	-0.06838075
21	0xbd94f476	-0.0727319
22	0xbd8aa29a	-0.06769295
23	0xbb29b82b	-0.0025897126
24	0xbcc2d663	-0.023783868
25	0xbd72f1b2	-0.05931253
26	0xbd08aa9d	-0.033365835
27	0x3c75dc4b	0.015006135
28	0xbd48373a	-0.048880793
29	0x3c923555	0.017847696
30	0xbcaffa23	-0.02148158
31	0xbd4556cb	-0.048178475
32	0x3c2b2b2e	0.010447307
33	0x3d910bb6	0.07082312
34	0xbd7bc80d	-0.06147008
35	0x3a1c0cad	0.00059528166
36	0xbd0c9645	-0.034322996
37	0x3db0e8f3	0.086381815
38	0xbdb03ebf	-0.08605718
39	0xbdaf0cfe	-0.085474
40	0x3da99ff0	0.08282459
41	0xbd69aea3	-0.057051312
42	0x3c1e23c7	0.009652085
43	0xbc26d02f	-0.010181471
44	0xbca15104	-0.019691952
45	0xbcce8d9f	-0.025214015
46	0x3d60c5fc	0.054876313
47	0x3c205da2	0.009787949
48	0xbdb1e851	-0.08686889
49	0xbd6a0230	-0.057130992
50	0xbd178667	-0.03699341
51	0x3d2f3b06	0.0427809
52	0xbd767165	-0.060166735
53	0x3da76e26	0.08175306
54	0xbcbc52c2	-0.02298868
55	0xbc8affd4	-0.016967691
56	0x3d8a9e9a	0.06768532
57	0x3d2a1aa2	0.041529305
58	0x3d95ee75	0.07320873
59	0x3d4a48d0	0.049385846
60	0xbce4ce11	-0.027930291
61	0xbd72ef96	-0.05931052
62	0xbc07fced	-0.008300048
63	0x3d948bf4	0.072532564
64	0xbd00a53d	-0.031407584
65	0xbdab09a7	-0.083514504
66	0x3d07b551	0.0331319
67	0x3da76412	0.08173384
68	0xbce24f5e	-0.027625736
69	0xbd90a465	-0.07062606
70	0xbda59d05	-0.0808659
71	0x3c9f0e4b	0.019415995
72	0xbbf5c55e	-0.0075003346
73	0xbd3a54e4	-0.045491114
74	0x3c84982c	0.016185842
75	0x3d01e74e	0.03171473
76	0x3d8ff7d5	0.07029692
77	0x3d8bc749	0.0682512
78	0xbc5ad188	-0.01335562
79	0xbda3dde6	-0.08001308
80	0xbda7144f	-0.081581704
81	0x3da577ce	0.080794916
82	0x3d25dcbe	0.04049372
83	0x3d1b50b4	0.03791876
84	0xbd9f971e	-0.07792495
85	0x3da65757	0.081221275
86	0x3d9f5ddc	0.07781574
87	0x3da23e62	0.07922055
88	0xbd9debb3	-0.07710972
89	0xbd0dfc76	-0.034664594
90	0xbd8a69d7	-0.067584686
91	0x3da7fc56	0.08202426
92	0xbd0a9039	-0.033828948
93	0xbd38bb0e	-0.045100264
94	0x3d243560	0.040089965
95	0xbd26b98f	-0.040704306
96	0xbd394c60	-0.045238853
97	0xbbfd5830	-0.00773146
98	0xbc1533ab	-0.009106557
99	0xbd90c58e	-0.070689306
100	0x3d935a4d	0.07194958
101	0xbd2ca2cb	-0.04214744
102	0x3cfafb78	0.030637488
103	0x3d996db3	0.074916266
104	0x3d357716	0.044303022
105	0x3c6203b6	0.01379483
106	0x3d9c2b0e	0.076253995
107	0x3c3df797	0.011594675
108	0xbd29b6fa	-0.041434266
109	0x3da7d9f6	0.081958696
110	0x3ca59a4c	0.020215176
111	0xbdb0b8a0	-0.086289644
112	0xbcd78777	-0.026309712
113	0xbd7ab5b4	-0.06120844
114	0x3d9d2b41	0.07674266
115	0xbc741bcb	-0.0148992045
116	0xbda87c77	-0.08226865
117	0xbbba0db9	-0.0056779054
118	0x3d5c0796	0.053718172
119	0x3cbb9e80	0.022902727
120	0x3cc2d0b7	0.023781164
121	0x3bea9f1f	0.007160082
122	0x3ce8ea4b	0.028432032
123	0xbcb53d02	-0.022123817
124	0xbd17b58b	-0.037038367
125	0xbdab67e1	-0.08369423
126	0xbd8aad5d	-0.06771348
127	0x3d197ca6	0.03747239
128	0xbd06fd55	-0.03295644
129	0xbd329b6b	-0.04360525
130	0x3d1d27b3	0.03836794
131	0x3cd37221	0.025811257
132	0xbd679803	-0.056541454
133	0x3dbc3272	0.09189309
134	0xbd8c749d	-0.0685818
135	0x3dd52618	0.104076564
136	0xbd9cd33e	-0.07657479
137	0xbd5c7fab	-0.05383269
138	0x3d865b97	0.06560438
139	0xbccbd26e	-0.024880614
140	0x3d75563f	0.059896704
141	0xbce42d96	-0.027853768
142	0xbd362661	-0.044470195
143	0xbd462ead	-0.048384357
144	0x3bba72ac	0.0056899395
145	0x3de543d9	0.111945815
146	0xbb01b256	-0.0019790134
147	0x3d196713	0.037451815
148	0x3bc30662	0.0059516886
149	0x3d83aeb7	0.064298086
150	0x3d9545eb	0.072887264
151	0xbd18130d	-0.037127543
152	0x3c2024aa	0.009774366
153	0x3de83593	0.113383435
154	0x3c452878	0.012033574
155	0x3dcfea92	0.101521626
156	0xbc037f61	-0.008025975
157	0x3dac8375	0.08423511
158	0xbda6d121	-0.08145357
159	0x3c7f0d05	0.015567069
160	0x3c6998ed	0.014257652
161	0x3aab53b5	0.0013071211
162	0x3d50a15b	0.05093513
163	0x3da82fd2	0.08212246
164	0x3bbc4256	0.0057452125
165	0x3ca2a8db	0.019855907
166	0x3dda0c0d	0.1064683
167	0xbc1c299b	-0.009531404
168	0x3dd69b6c	0.10478863
169	0xbbf84375	-0.007576401
170	0x3c069aca	0.0082156155
171	0xbc54cd14	-0.012988348
172	0x3c639e6c	0.013892751
173	0x3d7d9d0d	0.061917353
174	0xbc8830f7	-0.01662491
175	0xbc6ebf94	-0.014572043
176	0x3cc88d20	0.024481356
177	0x3d313d17	0.04327115
178	0x3c3decf4	0.011592139
179	0xbcce3290	-0.025170594
180	0x3dc80e76	0.09768383
181	0x3da474e8	0.080301106
182	0xbb4af5af	-0.0030969193
183	0xbd7f4bdb	-0.0623282
184	0x3d1cd6ac	0.038290665
185	0xbe099297	-0.13434826
186	0x3be10eda	0.0068682255
187	0x3cd21885	0.025646457
188	0xbd10fa8f	-0.0353952
189	0x3d494162	0.04913462
190	0xbd731cb7	-0.059353556
191	0x3d0ded7d	0.034650315
192	0xbd3313b2	-0.043719955
193	0xbc093e62	-0.00837669
194	0xbc8495a9	-0.016184645
195	0x3dd2fe3a	0.10302396
196	0xbd2671fc	-0.040636048
197	0x3d921695	0.071332134
198	0x3c9424c5	0.01808394
199	0xbd8b321c	-0.06796667
200	0xbdbd9fc7	-0.09258991
201	0xbdc6086b	-0.09669574
202	0x3deee21f	0.11664223
203	0x3d0b6aa8	0.034037262
204	0x3b90aad0	0.0044148937
205	0x3d4e0d74	0.0503058
206	0x3dacd326	0.08438711
207	0x3d8911f8	0.066928804
208	0x3dcc185b	0.09965583
209	0xbd3d32b7	-0.046190944
210	0x3d427e94	0.047483996
211	0xbcaba6d5	-0.020953575
212	0xbc1f76e3	-0.009732935
213	0x3c59076b	0.0132463975
214	0x3db4ebbf	0.088340275
215	0xbd591546	-0.052998804
216	0x3d99d639	0.07511563
217	0xbd43d97c	-0.04781483
218	0xbb413224	-0.002947935
219	0x3dd1bfaf	0.10241639
220	0x3d216af8	0.039408654
221	0x3d008a0a	0.031381644
222	0xbdd3c07c	-0.10339448
223	0x3dd011bb	0.10159632
224	0x3c0d97b3	0.008642125
225	0xbd9fe3f8	-0.078071535
226	0x3cc71c73	0.024305558
227	0xbd7ec88a	-0.062202968
228	0xbd747560	-0.05968225
229	0x3cd58c0d	0.026067758
230	0x3db4ad8a	0.088221624
231	0xbcea81ba	-0.028626312
232	0x3d822124	0.06353977
233	0x3df5b7f0	0.11997974
234	0x3dfb5727	0.12272482
235	0xbba3585a	-0.0049848976
236	0x3c64c513	0.013963002
237	0x3bfa5622	0.0076396624
238	0xbd9f4c34	-0.077782065
239	0x3ce9c574	0.028536536
240	0x3d924ba3	0.07143333
241	0x3debb954	0.11509958
242	0x3d1b65c8	0.037938863
243	0x3d209ab6	0.039210044
244	0xbd22e610	-0.039770186
245	0x3dafa03e	0.08575486
246	0xbc92a800	-0.017902374
247	0xbc7b8930	-0.015352532
248	0x3c9dffcd	0.019287014
249	0x3d8f5664	0.069988996
250	0xbd49118d	-0.049089003
251	0x3da507e8	0.080581486
252	0x3d3d51b3	0.046220493
253	0xbd98f498	-0.074685276
254	0xbbf8e60b	-0.0075957826
255	0x3d9905f6	0.0747184

actor_old.preprocess.model.model.2.bias f4 [128]
0	0xbd2d24dd	-0.042271484
1	0xbd8d4627	-0.06898146
2	0xbd8edef2	-0.06976117
3	0xba830987	-0.0009997346
4	0xbd56a8a6	-0.05240693
5	0xbd6e39da	-0.05816064
6	0x3dcd6efa	0.10030933
7	0xbdb409ea	-0.087909535
8	0xbbf3e61c	-0.0074432027
9	0x3d66fa92	0.056391306
10	0xbd1f8233	-0.038942527
11	0x3d1ac165	0.03778209
12	0xbd3ad064	-0.045608893
13	0x3b7c7e07	0.0038527267
14	0x3d6a209b	0.05716
15	0xbc97c02c	-0.018524252
16	0xbd7568a0	-0.05991423
17	0x3c393107	0.011303193
18	0xbce17bfe	-0.027524944
19	0x3d7e6cad	0.06211536
20	0x3c40ee74	0.011775602
21	0x3dc63b4c	0.09679279
22	0xbd2aa50c	-0.041661307
23	0xbd0d1205	-0.034441013
24	0xbbe1c553	-0.006889978
25	0x3d8987a4	0.067153245
26	0x3dbb22f8	0.09137529
27	0x3d8329e9	0.06404478
28	0xbce70670	-0.028201312
29	0x3a70da57	0.00091878086
30	0x3d956a94	0.07295719
31	0x3d8d8a2a	0.06911118
32	0x3dee27c2	0.11628677
33	0x3d290436	0.04126378
34	0xbc326940	-0.010889351
35	0x3d8bc76e	0.068251476
36	0x3ce329c8	0.027729884
37	0xbcc075dc	-0.0234937
38	0x3da44751	0.08021415
39	0xb9e6461d	-0.00043921257
40	0x3df2d921	0.1185782
41	0x3d7a46ba	0.061102606
42	0xbc611d4f	-0.013739898
43	0xbd7e07ac	-0.062019035
44	0xbdb19308	-0.08670622
45	0xbca4d904	-0.020123012
46	0x3ce03aa7	0.027371718
47	0xbbea4674	-0.007149512
48	0x3d15c3bd	0.036563624
49	0xbd4ea4dc	-0.05045019
50	0x3d6e7171	0.058213655
51	0xbd09ceb7	-0.033644404
52	0x3cf67d6f	0.030089108
53	0xbd5bc1d8	-0.05365166
54	0x3c353c76	0.011061778
55	0x3cefd2a4	0.029275246
56	0x3d130748	0.035895616
57	0xbdb099d7	-0.086230926
58	0x3db0f97e	0.08641337
59	0xbd0786a1	-0.033087377
60	0xbdaf3bcf	-0.085563295
61	0xbd5c7f3f	-0.05383229
62	0xbdb0d761	-0.0863483
63	0x3ce2a090	0.027664453
64	0x3d93036d	0.07178388
65	0x3da69a81	0.08134938
66	0x3d25f7f8	0.040519685
67	0xbd1b8d06	-0.037976287
68	0x3c93899a	0.01800995
69	0x3d397337	0.045275893
70	0xbd691176	-0.056901418
71	0xbc8dc3cf	-0.017305283
72	0x3cb4e6a0	0.022082627
73	0x3d8f7004	0.07003787
74	0x3d28cfc9	0.041213784
75	0xbd001f0f	-0.03127962
76	0x3d02414c	0.031800553
77	0x3d8016e0	0.06254363
78	0x3dab5fbd	0.0836787
79	0xbd424ab9	-0.047434542
80	0x3dae9815	0.08525101
81	0xbbd9a00d	-0.006641394
82	0xbd2cb04b	-0.042160314
83	0x3be17bba	0.0068812044
84	0x3d9fe5e1	0.07807518
85	0xbd4ebd8d	-0.05047374
86	0x3d354c29	0.044262085
87	0xbd690517	-0.05688962
88	0x3bb9ece0	0.0056739897
89	0x3d9b1f8d	0.07574377
90	0xbd2a516a	-0.04158155
91	0xbcd7d86f	-0.02634832
92	0xbc02a430	-0.007973716
93	0x3d4bf138	0.04979059
94	0x3bdb0a54	0.006684581
95	0xbc17221a	-0.009224439
96	0x3ca9a4ed	0.020708526
97	0x3d28daae	0.041224174
98	0x3da4de43	0.080502056
99	0x3d36afc9	0.044601236
100	0x3d64843d	0.055790175
101	0x3d19cf34	0.03755112
102	0x3c8b9914	0.017040767
103	0x3b583112	0.0032988233
104	0xbd472750	-0.048621476
105	0xbd0db24b	-0.03459386
106	0x3c15554c	0.009114575
107	0x3d110820	0.03540814
108	0xbd38289f	-0.044960614
109	0xbcc81994	-0.02442626
110	0x3d53aac2	0.05167652
111	0x3c4e6a0f	0.0125985285
112	0x3d50b941	0.050957922
113	0x3d219c19	0.039455507
114	0x3cfac0da	0.030609537
115	0x3c707e3d	0.014678535
116	0xbd183e9f	-0.037169095
117	0x3d76dbcc	0.06026821
118	0xbcec5821	-0.028850617
119	0xbca06723	-0.01958043
120	0xbd827258	-0.063694656
121	0x3b1dfc15	0.0024106551
122	0xbd747060	-0.05967748
123	0xba995536	-0.0011698368
124	0xbd08898d	-0.033334304
125	0x3d5dced3	0.05415232
126	0x3d833622	0.064068094
127	0x3da2c61b	0.07947942

actor_old.last.model.0.weight f4 [1, 128]
0	0xbbcdd651	-0.006281652
1	0x3e05abb9	0.13053788
2	0xbd9f0610	-0.07764828
3	0x3d1c4cc7	0.038159158
4	0x3cbffcac	0.023435913
5	0xbe12bd60	-0.14330053
6	0x3dc70007	0.09716802
7	0x3d700b3b	0.05860446
8	0x3e2b7c28	0.1674658
9	0x3d98f6f7	0.0746898
10	0x3d36afbc	0.044601187
11	0xbdb84911	-0.08998311
12	0x3dcf0aff	0.10109519
13	0xbdc03a7e	-0.093861565
14	0x3e0fde58	0.14049661
15	0xbe137aa1	-0.14402248
16	0xbd129263	-0.035784137
17	0xbd150735	-0.036383826
18	0xbd8406ff	-0.06446647
19	0xbd998bda	-0.07497378
20	0xbd0b3ce1	-0.033993606
21	0xbdc63b0d	-0.09679232
22	0xbd5ba239	-0.053621504
23	0xbda7bafd	-0.08189962
24	0x3d574441	0.052555326
25	0x3ddf428e	0.10901366
26	0xbcbeff94	-0.023315229
27	0x3da9020e	0.08252345
28	0x3d9ea3a6	0.07746057
29	0xbda52b50	-0.08064902
30	0xbd37c180	-0.04486227
31	0x3d8491a3	0.064730905
32	0x3e16623d	0.14685912
33	0x3d0ee062	0.034881957
34	0xbc59921a	-0.013279462
35	0x3d8e9021	0.06961084
36	0xbd9cb34a	-0.07651384
37	0x3e123f28	0.14281905
38	0xbdb05340	-0.08609629
39	0x3d8e97af	0.06962525
40	0xbd36edfa	-0.044660546
41	0xbde9ac8d	-0.114098646
42	0xbd614d18	-0.055005163
43	0xbd2a2d32	-0.041547008
44	0x3b950be5	0.004548537
45	0x3dc17fdf	0.094482176
46	0xbd94e33e	-0.072699055
47	0xbd2ad862	-0.041710265
48	0xbe30d07a	-0.17267027
49	0x3d9e8187	0.07739549
50	0x3de4e945	0.11177305
51	0xbdc16f88	-0.09445101
52	0xbd10a02f	-0.035309013
53	0x3e043d16	0.12913927
54	0x3dbfe3b8	0.09369606
55	0xbdb33230	-0.08749807
56	0xbe08e1f9	-0.13367452
57	0x3dfb5a93	0.12273135
58	0xbd579b6c	-0.052638456
59	0x3df99fce	0.121886835
60	0xbdaeb4a6	-0.0853055
61	0x3db7e3c5	0.089789905
62	0x3c011090	0.007877484
63	0xbc5f949b	-0.01364627
64	0xbd89cfa5	-0.06729058
65	0x3d102c0e	0.035198264
66	0xbd87db68	-0.06633645
67	0xbd861143	-0.06546261
68	0xbdaa3739	-0.08311314
69	0x3dfd9446	0.123817965
70	0x3da27b76	0.079337046
71	0xbd22bb50	-0.039729416
72	0x3c8ead1c	0.01741653
73	0x3dc9e1fa	0.09857555
74	0xbe1368ab	-0.14395396
75	0x3d40c030	0.047058284
76	0x3dff63f9	0.1247024
77	0x3d6842e8	0.05670443
78	0xbd882390	-0.06647408
79	0xbd51e929	-0.05124775
80	0xbd58cfd1	-0.052932564
81	0x3dd24985	0.10267929
82	0xbd81f906	-0.063463256
83	0xbdcd7c5c	-0.10033485
84	0xbd0249a7	-0.03180852
85	0x3d138484	0.03601505
86	0xbe319c68	-0.1734482
87	0xbb0dbeea	-0.0021628686
88	0x3cb4e1a4	0.02208025
89	0xbd32e2fb	-0.043673497
90	0xbdd154be	-0.102212414
91	0xbd4a3691	-0.049368445
92	0xbd846fbd	-0.06466625
93	0x3d892086	0.066956565
94	0xbe07e06d	-0.13269205
95	0x3d5f2ced	0.054486204
96	0xbdebf127	-0.115206055
97	0x3dac6ba9	0.08418972
98	0xbd7a2a5e	-0.06107556
99	0x3d61ff30	0.055175006
100	0xbd2dc5c7	-0.042424943
101	0x3d3a28f4	0.045449212
102	0xbda0b126	-0.078462884
103	0xbd1a0460	-0.03760183
104	0xbe168706	-0.14699945
105	0x3dd9aa0e	0.106281385
106	0xbdbf29d9	-0.09334154
107	0x3d86442b	0.06555971
108	0xbd9ae99d	-0.075640894
109	0x3df668e7	0.12031727
110	0xbd53923c	-0.05165313
111	0xbdfb7f4e	-0.12280141
112	0x3b40fa00	0.0029445887
113	0xbe298ae9	-0.16556896
114	0x3d343dd6	0.044004284
115	0x3e1754e8	0.14778483
116	0xbcdf6bb3	-0.027273035
117	0xbd90e767	-0.070753865
118	0x3e2943bf	0.1652975
119	0x3dbe3005	0.09286503
120	0x3bafefb0	0.005369149
121	0x3d84fc7c	0.0649347
122	0xbdd89782	-0.10575773
123	0xbdaef972	-0.08543672
124	0x3cc2c628	0.023776129
125	0x3d346190	0.044038355
126	0xbd7590f1	-0.05995268
127	0xbdd11c82	-0.102105156
