log/MountainCarContinuous-v0/sac/policy.pth (torch, 353302 bytes, 25 tensors)

actor.preprocess.model.model.0.weight f4 [128, 2]
000000 c2 e2 ae 3e 82 39 bc 3e d2 54 bb be b8 0f c1 bd
       0.34157377 0.36762625 -0.3658815 -0.09426826
000010 40 ba e2 3d e6 d0 0e bf 6a 5a ad 3e 27 f5 94 be
       0.110706806 -0.55787504 0.33858043 -0.29093286
000020 14 c8 8b be 2b 11 18 bf e3 3a 31 3f 08 0f fc bd
       -0.27301085 -0.59401196 0.6923048 -0.123075545
000030 28 2e 8d bd c0 c2 3b 3d 29 40 e5 be d3 68 cb be
       -0.06893569 0.045840025 -0.44775513 -0.39728412
000040 6b 18 26 bf 38 2c 2b 3e ab 20 9e be da 78 f1 be
       -0.6488101 0.16716087 -0.308843 -0.47162515
000050 bb d1 a1 be d0 68 22 bd ea e4 21 bf 56 b0 95 3e
       -0.31605324 -0.03965074 -0.6323992 0.29236096
000060 6c 71 08 bf ec bc ed be bb 68 08 3f 0b 62 ee be
       -0.5329807 -0.46433198 0.53284806 -0.46559176
000070 92 c9 f1 3e e6 23 ff 3e a5 cd 29 3f e8 b8 dc bd
       0.47224098 0.49832076 0.66329414 -0.107774556
000080 80 6a 35 3e 52 5b a4 3e 7a b6 a0 be 76 9e a1 3e
       0.17716408 0.32100922 -0.3138922 0.3156621
000090 eb 76 1e 3f 26 ef 29 bf 1f 8e 2f 3f 40 56 03 bd
       0.61900204 -0.66380537 0.68576235 -0.032064676
0000a0 44 34 13 3e dc 94 d2 be eb ed 1b bf d2 c5 a4 3e
       0.14375407 -0.41129196 -0.6090991 0.32182175
0000b0 99 ef 2a 3f 78 74 81 be f0 98 45 be bb fd 29 bf
       0.66771847 -0.2528417 -0.19296622 -0.66402787
0000c0 8c 7e 28 bf 93 a4 e8 be 5b 6e 9d be 86 77 e4 3e
       -0.65818095 -0.4543806 -0.30748257 0.4462244
0000d0 03 ee 2b bf ba 55 59 be 6e 2e 0c bf bc ed 0b bf
       -0.6716005 -0.21224108 -0.54758346 -0.5465963
0000e0 28 c7 ae 3d 13 cc 31 bf ec da c9 be 0e 7e cc be
       0.0853408 -0.6945202 -0.39424837 -0.39939922
0000f0 d7 ac 09 3f 00 f7 9f bc 13 f2 a4 be 50 7a 53 3d
       0.5377936 -0.019526958 -0.32215938 0.05163032
000100 4c 8f 01 bf e0 e9 02 3e 1c 1e e7 be f0 4a 6d 3d
       -0.5060928 0.12784529 -0.4514016 0.057932794
000110 b4 e0 18 3e fe 57 ec 3e 0a f3 cc 3e e8 d0 0e 3e
       0.14929467 0.46160883 0.40029174 0.13946879
000120 4f de 00 3f d0 fc 74 3e ff 02 16 3f f4 0d 7e 3e
       0.50339216 0.23924565 0.5859832 0.2481001
000130 22 7a 03 bf 57 f4 12 bf 70 dc 50 3e a0 b1 9c be
       -0.51358235 -0.57404083 0.2039659 -0.30604267
000140 a9 65 e3 be 7b 69 23 3f a0 c6 67 3e 7f 50 2a 3f
       -0.44413498 0.63832825 0.22634363 0.6652908
000150 c0 d6 3e 3c 3b c2 02 bf 31 e5 20 bf d3 16 89 be
       0.01164788 -0.5107762 -0.6284972 -0.26775226
000160 d8 09 c9 bd 1a 88 a7 be f4 9f 79 3e ca 8f ea 3e
       -0.09816331 -0.32721025 0.24377424 0.45812827
000170 e1 56 1d bf c0 43 4e be 96 2b d1 3e f0 e6 fd bd
       -0.6146069 -0.20143032 0.40853566 -0.123975635
000180 32 d2 e8 be 92 a5 75 be 24 0f c1 be e0 3a ea 3d
       -0.45472866 -0.23988941 -0.37706864 0.11437011
000190 28 80 71 be b0 2a 90 be 5d f3 83 be 71 22 14 3f
       -0.23584044 -0.28157568 -0.2577161 0.57865053
0001a0 6c 4c 1e 3e 16 40 33 bf e0 e9 66 3d f0 92 1a be
       0.1545884 -0.7001966 0.056375384 -0.15095115
0001b0 a8 aa 21 bf 6b 26 91 be 08 ae a2 bd 70 45 26 be
       -0.63151026 -0.28349623 -0.0794335 -0.16237426
0001c0 0a 25 ed 3e f9 fa 09 3f f9 fb 07 3f 00 33 cb bc
       0.4631732 0.5389858 0.53118855 -0.024804592
0001d0 10 61 ff bd 98 4d 1e 3e 0d 9e 0c 3f fc 49 88 3e
       -0.12469685 0.15459287 0.54928666 0.26618946
0001e0 ec 87 17 bf f0 ae 9d be fc 97 20 3e 40 3a 17 3e
       -0.59191775 -0.3079753 0.15682977 0.14768314
0001f0 e7 27 2a 3f 90 10 53 3d c7 8a 9c be e0 8f ae bc
       0.66467136 0.051529467 -0.3057463 -0.02130884
000200 70 a8 34 3d 00 31 5d bd ec 15 57 be 8d e3 2f 3f
       0.044105947 -0.05400181 -0.21004456 0.6870659
000210 85 c5 2e 3f e5 00 24 bf f3 cd 2a 3f d0 18 35 bd
       0.6827014 -0.64063865 0.66720504 -0.044213116
000220 9a 58 a0 3e 6e 2f aa 3e c0 8e f2 3c 34 93 c3 be
       0.31317598 0.3323931 0.029609084 -0.38198245
000230 58 38 cf 3d 32 94 a8 3e 4a 7c f6 3e 20 ae 80 3d
       0.101181686 0.32925564 0.481417 0.06283212
000240 fd c6 16 3f de b8 f3 be 60 17 42 be 98 63 e9 be
       0.5889738 -0.4760198 -0.1895423 -0.45583797
000250 e6 1c d1 be 2c e9 34 bf c0 12 26 3e 6f 33 16 bf
       -0.4084236 -0.7066829 0.1621809 -0.5867223
000260 0c 9e 01 bf 45 69 1b 3f a2 71 c9 3e 61 42 09 3f
       -0.50631785 0.60707504 0.39344507 0.5361691
000270 8e fd e5 be 81 8d 0b bf d8 18 91 3d c0 d2 b1 3d
       -0.4492001 -0.5451279 0.07084817 0.086827755
000280 40 a4 10 be dc 27 2d 3e 72 b9 9e 3e f0 36 32 bf
       -0.14125156 0.16909736 0.3100086 -0.6961508
000290 da ea 99 3e 07 33 18 3f ee 7f ef 3e be 84 eb be
       0.3006199 0.5945286 0.4677729 -0.45999712
0002a0 1c 49 49 be a6 6e 6e be f8 3b 7d 3e c8 10 23 be
       -0.19656795 -0.23284397 0.24729908 -0.1592437
0002b0 c7 46 93 be 60 45 15 bf f4 f0 52 be 97 74 0f bf
       -0.28764936 -0.5830898 -0.20599729 -0.56037277
0002c0 cc 57 6f be e0 a0 27 3d b0 d0 73 be f0 cc 47 be
       -0.23373336 0.040924907 -0.23810077 -0.19511771
0002d0 f6 96 ae be 0f 4a c8 be aa 13 0c bf 6a 66 e1 3e
       -0.3409955 -0.39119002 -0.54717505 0.44023448
0002e0 a2 ed d2 be 3f fc cf be 29 37 ba be c5 14 17 bf
       -0.41196924 -0.40622136 -0.3637021 -0.59016067
0002f0 48 41 ba 3d e7 a2 23 3f 2e 62 ac 3e 7c ee 08 be
       0.09094483 0.63920444 0.33668655 -0.13372225
000300 7e bb a0 be b8 44 98 be 72 ec ae 3e a6 9b b4 3e
       -0.31393045 -0.29739928 0.34164768 0.35275
000310 71 bc 1e 3f 90 16 52 3d fa 05 d2 3e 78 25 97 bd
       0.6200629 0.05129105 0.41020185 -0.073801935
000320 93 50 0f 3f c3 7e 2f bf 88 73 3c be d0 31 09 be
       0.5598232 -0.685528 -0.18403447 -0.13397908
000330 e7 cb 2a bf 40 29 d5 3d a0 eb 00 bf 2f a3 31 3f
       -0.6671738 0.104082584 -0.50359535 0.69389623
000340 66 f2 ff 3e df 28 da be a3 74 23 3f 48 6c f3 be
       0.49989623 -0.42609307 0.6384985 -0.4754355
000350 74 27 dd be 3a b7 63 be 10 8e 5a 3d 2c c9 16 3e
       -0.43194163 -0.22237864 0.053358138 0.14725178
000360 50 f1 6f bd 04 74 46 3e f0 8d 0e 3e 3b e0 05 3f
       -0.058579743 0.19380194 0.13921332 0.52295274
000370 80 27 cc be c0 ff 11 3d 38 dc 03 be e2 e2 d3 3e
       -0.39873886 0.035644293 -0.12876976 0.41384035
000380 24 90 a8 be b8 3a 18 bf 80 cd f4 bc e8 e0 01 3e
       -0.3292247 -0.594646 -0.029883146 0.12683451
000390 20 3a 53 bd 90 38 f1 be 2c e7 8c be 20 6e 28 3d
       -0.051569104 -0.47113466 -0.2752012 0.04112065
0003a0 f0 95 51 be 84 1c 71 3e c8 25 8a bd e0 fd 37 3d
       -0.20467353 0.23546034 -0.067454875 0.04491985
0003b0 7f 66 18 3f 98 c1 e5 bd 64 ad 14 bf 97 5f 10 3f
       0.59531397 -0.11218566 -0.58077073 0.5639586
0003c0 38 ac 21 be 46 90 11 bf 7a 84 c1 be 70 0f 59 3e
       -0.15788352 -0.5686077 -0.37796384 0.21197295
0003d0 4a f1 8f 3e 85 1f 25 3f 57 a1 03 3f 95 05 28 3f
       0.28113776 0.6450122 0.5141806 0.6563352
0003e0 d5 0d 0b 3f 4a e0 dd 3e 0d 06 24 bf d0 8e 21 3e
       0.5431798 0.4333518 -0.6407173 0.15777135
0003f0 50 88 ee 3d 03 e1 e4 be 6a ed ff 3e 36 50 df 3e
       0.11647093 -0.4470292 0.4998582 0.43615884

actor.preprocess.model.model.0.bias f4 [128]
000000 60 c6 61 be 81 06 31 3f ca 8b bf 3e f0 e1 cb 3d
       -0.2204833 0.6915055 0.37411338 0.099552035
000010 8f 5a cb be 50 4c 3d 3d 2a 6f 07 bf f3 de 34 bf
       -0.39717528 0.046215355 -0.52904 -0.70652694
000020 e8 3c 81 be ec f8 91 3e 48 89 93 3e f4 c9 d3 be
       -0.2524178 0.28510225 0.28815675 -0.41365016
000030 63 18 91 be 06 02 a5 3e 40 bb 6e bd cd 60 9f be
       -0.28338918 0.32228106 -0.058284044 -0.3112854
000040 a2 44 fb be 0b 98 22 bf ea f0 85 3e 00 7d 86 bb
       -0.490758 -0.6351325 0.26160365 -0.0041042566
000050 a6 1f 9a 3e dd 08 2f 3f 4f 98 0f bf 18 4d a6 3d
       0.3010227 0.683729 -0.5609178 0.08120173
000060 af de 19 3f d9 06 25 3f fc 38 f1 be fb 37 21 3f
       0.60105413 0.64463574 -0.47113788 0.62976044
000070 39 f8 0e 3f 00 f3 5c bd a0 95 6f be 7e b9 aa 3e
       0.5584751 -0.05394268 -0.23396921 0.33344644
000080 b0 f1 6a 3d 49 f2 aa be ca 45 25 bf 2c 8d 1c 3e
       0.057359397 -0.33387974 -0.64559615 0.15288228
000090 d7 7e 1e 3f a6 bc ee 3e 3d 4c 24 3f 15 0e 2e 3f
       0.6191229 0.46628302 0.6417883 0.6799024
0000a0 07 cb f4 be 3e 9c 33 bf 80 ed 03 bf 2c 99 d3 be
       -0.47811148 -0.7016028 -0.5153427 -0.41327798
0000b0 5a cd 94 3e 5c 58 1b bf 4a d7 af 3e 32 17 e0 be
       0.2906292 -0.606817 0.3434394 -0.43767697
0000c0 00 92 90 3d dc 98 d2 be 30 58 00 bd 9c 70 46 3e
       0.07059097 -0.41132247 -0.031334102 0.19378895
0000d0 77 9b 23 bf 00 e8 ca 3b 90 26 b2 3d 5c a7 06 be
       -0.63909096 0.0061922073 0.086987615 -0.1314978
0000e0 d8 04 ae be 5e 82 87 3e 59 f2 c8 be 16 15 e3 3e
       -0.3398807 0.2646665 -0.39247397 0.44352025
0000f0 32 93 85 3e 72 6a a1 be e1 63 1e 3f 3c 2f 12 bf
       0.26088864 -0.31526524 0.61871153 -0.57103324
000100 18 55 73 3e c1 59 a7 be 88 fb 35 3e 06 a4 c9 3e
       0.2376293 -0.32685664 0.17771733 0.39382952
000110 a4 b0 30 be 2d c1 14 3f c0 63 af 3c 03 f5 2e 3f
       -0.17254883 0.5810726 0.02140987 0.6834261
000120 8a 75 ee 3e 83 af 11 3f 78 bb d2 3d e5 7a 1b 3f
       0.4657405 0.56908435 0.10289663 0.607344
000130 4f 31 b3 be 4c 5c 29 bf 1b c4 1b 3f f3 6e 28 3f
       -0.34998557 -0.6615646 0.6084611 0.65794295
000140 69 15 32 3f 0f 00 23 3f 7c 58 00 bf c2 a6 db 3e
       0.6956392 0.63671964 -0.50135016 0.42900664
000150 37 2c 98 be 2e cf ea be 3d aa bd be 60 43 02 be
       -0.29721233 -0.4586119 -0.37043944 -0.12721014
000160 4b 57 0c 3f b2 c6 f2 be cc 24 26 be 68 65 c1 bd
       0.548207 -0.47417217 -0.16224974 -0.0944317
000170 f5 84 25 3f 08 4c ed 3d c8 0f 17 3e 94 aa 2f be
       0.64656 0.115867674 0.14752114 -0.17154914
000180 56 6a ca 3e 84 ec 10 3e 17 2d 1f 3f 5a 5c 66 be
       0.39534253 0.14152724 0.62178177 -0.22496167
000190 8d 9d 04 bf b6 e8 8a 3e 43 54 26 3f a4 09 f3 be
       -0.51802903 0.2713067 0.64972323 -0.47468293
0001a0 40 a0 27 3c 30 cb 02 bd b8 ce 5a 3e 93 4e be be
       0.010231078 -0.031932056 0.2136792 -0.37169322
0001b0 7c a2 31 be f0 27 f8 3d 00 6c 12 bf 48 61 b3 bd
       -0.17347139 0.121169925 -0.57196045 -0.08758789
0001c0 a8 37 db bd 4e 96 fe 3e 69 59 22 3f c8 26 12 be
       -0.10703975 0.49724048 0.6341768 -0.14272606
0001d0 c0 01 3c 3d fe b7 c7 3e 79 95 14 3f 3d c1 2a 3f
       0.045900106 0.39007562 0.5804058 0.6670111
0001e0 29 a6 dd be 1a 74 f7 3e 2e 2d aa 3e ef 76 19 bf
       -0.43290833 0.48330766 0.33237594 -0.59947103
0001f0 e9 61 12 3f 44 0e 71 3e 80 1f 95 be 92 0f 0a bf
       0.5718065 0.23540598 -0.29125595 -0.5393001

actor.preprocess.model.model.2.weight f4 [128, 128]
000000 51 2b 8a 3d e0 62 2e bc d8 5d 3b bc 0c 1a 6b bd
       0.06746543 -0.010643691 -0.011435948 -0.057397887
000010 60 ba 17 3b 00 e4 86 bd 57 71 aa 3d 28 0c ee 3c
       0.002315186 -0.06586456 0.08322399 0.02905853
000020 50 ab 75 bc dd ed 9b bd e4 02 99 bc 17 71 a9 3d
       -0.014994457 -0.07613728 -0.018678136 0.08273523
000030 38 d2 7e bc 4e 19 61 3d e1 f6 88 3d ac 2e 0a bd
       -0.01555305 0.054955773 0.066877134 -0.033735916
000040 20 54 1d 3b 86 33 30 3d 3a 7a 7a 3d 86 fc 9f bd
       0.0024006441 0.043017887 0.06115172 -0.07811837
000050 3c dd e7 3c 4e 1c 75 3d 00 94 32 bd fa 43 03 3d
       0.028303735 0.059841447 -0.043598175 0.03204725
000060 9a 85 53 3d ad a7 47 bd ea 12 5f 3d c0 f1 bc 3a
       0.051641084 -0.048743892 0.054461397 0.0014415309
000070 83 27 b1 bd 4a 82 56 bd d4 55 c8 3c d2 55 4e 3d
       -0.086501144 -0.052370347 0.024454989 0.050374813
000080 ab d9 61 bd 4c 27 e7 3c 33 ea a9 3d 1e ad f2 bc
       -0.055139225 0.02821698 0.08296623 -0.029623564
000090 fe 51 18 3d 66 c1 10 bd b5 e7 8b 3d e0 20 01 bd
       0.03718757 -0.03534069 0.06831304 -0.031525493
0000a0 f2 8c 64 3d 4b c9 13 bd 68 3b b8 bc f2 2a 3b 3d
       0.05579848 -0.03608064 -0.022489265 0.045695253
0000b0 7c cc 7b bd 80 99 da 3b 8b 13 29 bd 64 4c a6 bd
       -0.06147431 0.0066711307 -0.041278403 -0.08120039
0000c0 5a cb 8c bd 62 1d 36 bd cf dd 5f bd 0a 5f 4b 3d
       -0.06874724 -0.044461615 -0.054654893 0.049651183
0000d0 0b 3f a3 3d 00 22 38 3c 08 f8 26 3c b1 c6 9d bd
       0.07971009 0.011238575 0.010190971 -0.07703913
0000e0 fd 85 91 3d 3a 8b 28 3d 80 37 d1 3a ee a2 5c 3d
       0.07105634 0.0411484 0.0015961975 0.05386632
0000f0 fd 1b 11 bd 38 0a 31 bc 65 3b ad bd 96 96 34 bd
       -0.035427082 -0.010805659 -0.08458594 -0.044088922
000100 10 1d e1 3c b9 d9 4c bd 3e c9 18 3d 54 e2 80 3c
       0.027479678 -0.050012324 0.037301295 0.015732922
000110 26 04 36 bd 08 d6 a9 3c 4b 5d 8c bd 19 39 ab 3d
       -0.04443755 0.02073194 -0.06853732 0.083605
000120 4a fd 34 3d 2b 60 9a 3d 67 63 ac 3d cf 4c ae 3d
       0.044186868 0.07537874 0.08417397 0.08510744
000130 a8 97 f2 3c 1f 79 64 bd da 6c a4 bd 60 8f 10 bc
       0.029613331 -0.055779573 -0.08028574 -0.008823246
000140 8c 81 65 bd 47 0a 00 bd b7 de 90 3d 20 ce 9f 3c
       -0.05603175 -0.0312598 0.070737295 0.019507468
000150 0f ef 2c bd 41 c9 9c bd 8a df 1b 3d e8 56 9a bd
       -0.04222017 -0.07655574 0.03805498 -0.07536107
000160 5c 9a e0 3c a5 b5 99 3d 08 ed 93 bd 42 39 58 3d
       0.027417354 0.07505349 -0.072229445 0.05278898
000170 4e 5e 87 bd a7 52 96 3d 42 e8 33 3d 58 d9 0f 3d
       -0.06609784 0.073399834 0.04392267 0.035119385
000180 1d 61 94 bd e5 7f 89 3d 58 86 89 bc 24 15 aa bc
       -0.072450854 0.06713847 -0.016787693 -0.020762034
000190 48 87 8f bc 4c a9 ae 3c f0 66 d2 bc b2 5a 69 3d
       -0.017520562 0.021320961 -0.02568385 0.05697126
0001a0 15 85 90 3d 5e 5e a1 bd d8 d9 39 bd ac 19 d3 3c
       0.070566334 -0.07879327 -0.045373768 0.025769077
0001b0 45 f8 aa 3d 5f b4 54 bd b9 90 b3 bd 60 03 1b 3b
       0.08348135 -0.051929828 -0.08767838 0.0023653135
0001c0 a0 99 c8 3c 21 ef ad 3d 97 65 1c bd 78 bd b0 3c
       0.024487317 0.08492876 -0.03818282 0.02157472
0001d0 56 eb 85 bd 7c a6 80 3c f6 9f 51 3d 8f 20 80 3d
       -0.065390274 0.015704386 0.05117794 0.0625621
0001e0 ac 08 c7 bc de 92 2b 3d b1 0c aa bd c2 cd 50 bd
       -0.024296127 0.04188811 -0.08303202 -0.050977476
0001f0 b7 39 1c bd 7c 8e f9 3c 62 d4 35 3d bc 1a f6 3c
       -0.03814098 0.03046345 0.044391997 0.030042045
000200 fe 73 b0 bd 0b 1e a2 3d c5 28 a7 bd c2 e3 16 3d
       -0.08615874 0.079158865 -0.08162073 0.0368383
000210 a1 60 2d bd 2b 7e a5 bd 30 80 63 bc 70 ef ad bd
       -0.04232848 -0.08080705 -0.013885543 -0.08492935
000220 41 08 99 3d c2 36 db bc e9 bc 2a bd 34 f0 6a bd
       0.074722774 -0.026759509 -0.041684065 -0.05735798
000230 d0 9a a9 bd 23 0d 46 bd a7 7a a5 3d bc 3c c5 bc
       -0.08281481 -0.048352372 0.08080035 -0.024076812
000240 1d 14 60 bd 20 ea 14 bc ad 59 0e bd 5d f4 8e 3d
       -0.05470668 -0.009089023 -0.03475349 0.06980202
000250 89 6f a8 3d 58 35 36 3c 8a 76 37 bd 59 8d 9b bd
       0.08224399 0.011121117 -0.044790782 -0.07595319
000260 1c fe d5 3c c0 36 2c bd 5b 76 8c 3d 47 8a 9a 3d
       0.026122145 -0.0420444 0.06858512 0.075459056
000270 48 18 4b 3c d0 c2 61 bc b0 d7 39 bc 73 7d b1 bd
       0.012395926 -0.013779357 -0.011342928 -0.08666506
000280 22 ea 1c 3d 72 27 4f 3d 6e e0 5e 3d da ae 67 3d
       0.038309224 0.050574727 0.05441325 0.056563236
000290 c2 84 56 3d 5e e8 7b 3d fa 73 82 bd 1f 1c 43 bd
       0.0523727 0.0615009 -0.06369777 -0.04763424
0002a0 71 96 04 bd a0 07 92 3c 08 6c a4 bd 10 89 9a bd
       -0.032370035 0.017825902 -0.08028418 -0.07545674
0002b0 0e 16 a6 bd 04 30 2d bd 2e 41 9f bd 00 f1 aa 3c
       -0.08109675 -0.04228212 -0.07776104 0.02086687
0002c0 a8 74 ff 3c 0e 0a 8a bd 0b c5 28 bd 24 ad b0 3c
       0.031183556 -0.06740199 -0.04120354 0.021566935
0002d0 b0 8c 14 3c 7c 32 f0 3c 9f c7 b3 3d 80 5b 34 3c
       0.009066746 0.029320948 0.08778309 0.011008143
0002e0 00 f4 7d 3c a4 0b 4f bd 73 55 ab 3d f1 5e a0 3d
       0.015500069 -0.05054821 0.083659075 0.07830609
0002f0 7e f0 67 3d 73 cb b3 3d 75 66 2e bd 38 5c 3c 3c
       0.056625836 0.08779039 -0.04257818 0.011496596
000300 3c aa 53 bd 8a 34 72 3d 4f 05 84 3d c8 97 2b bc
       -0.05167602 0.059132136 0.06446325 -0.010473199
000310 fe 29 1d 3d c8 98 94 bc f7 d4 b4 3d cc a5 f3 3c
       0.038370125 -0.018139258 0.08829682 0.029742144
000320 af ad 99 3d c0 6c a7 3c 20 64 55 bb 1c 14 37 bd
       0.07503831 0.020437598 -0.00325609 -0.044696912
000330 58 72 af 3c fb e7 97 3d f0 a7 22 bd b2 52 74 3d
       0.021416828 0.07417294 -0.03971094 0.059649177
000340 d8 5a 7a 3c 05 07 6b bd 2c 75 ba 3c ac 42 bd 3c
       0.015280448 -0.05737974 0.02276095 0.02310308
000350 6d b0 08 bd a6 6b 25 3d 80 f1 44 bc 50 fa a9 bb
       -0.033371378 0.040385865 -0.012020469 -0.0051873103
000360 2c 7f ec 3c 24 24 c3 bc e9 50 3f bd 40 5a f3 bc
       0.028869234 -0.023820944 -0.04670802 -0.02970612
000370 09 a4 92 3d ce 7d 5b 3d 0c 3d ea 3c 9a d0 3a 3d
       0.071601935 0.053586774 0.028593563 0.045609094
000380 90 37 15 3d 5c 36 89 bd 3a 06 6c bd ce 91 6b 3d
       0.03642994 -0.06699821 -0.057623126 0.057512097
000390 cd 14 88 3d 60 76 b4 bd 88 3c b7 3c 60 05 3e bb
       0.066445924 -0.08811641 0.02236773 -0.0028994903
0003a0 a0 53 44 bd 31 df a4 3d d0 2e 96 3b 34 cb df 3c
       -0.047931314 0.08050383 0.004583217 0.027318574
0003b0 77 82 a9 3d a6 3f 7d bd 24 48 80 3c ec b5 a5 bd
       0.08276837 -0.061828278 0.0156594 -0.080913395
0003c0 66 e8 6c 3d de d6 4b bd 70 98 52 3c ef 03 9f bd
       0.05783882 -0.04976546 0.012853727 -0.07764422
0003d0 80 9c 33 3a 42 e0 20 3d 31 3c af 3d d3 4a ac bd
       0.00068516284 0.03927637 0.085564025 -0.08412709
0003e0 90 f5 98 bb ae 84 05 bd e5 7a 86 3d a9 29 a8 3d
       -0.004667945 -0.032597236 0.06566409 0.08211071
0003f0 f8 ee 0a 3c 00 b6 11 b9 3b ab 74 bd 3f 02 a8 bd
       0.008479826 -0.00013896078 -0.05973361 -0.082035534

actor.preprocess.model.model.2.bias f4 [128]
000000 e6 2e 84 bd b9 e6 ad 3d a6 ca 26 3d 30 d0 78 bc
       -0.06454258 0.084912725 0.040720604 -0.0151863545
000010 e0 d7 e0 bb 03 db 85 bd e3 86 93 bd 9a 53 6c 3d
       -0.006861672 -0.06535914 -0.07203462 0.057696916
000020 e0 89 35 3b 96 93 35 bd 30 67 25 3c d2 e3 30 3d
       0.0027700588 -0.044330202 0.010095403 0.043186016
000030 be 58 37 3d bc 0d ff bc e7 30 98 bd 16 a8 85 bd
       0.044762366 -0.031134479 -0.074312024 -0.065262005
000040 98 b6 10 bd 2c 05 52 bd e7 f2 3b bd 2e fb 56 3d
       -0.035330385 -0.051274464 -0.045885947 0.052485637
000050 98 44 84 bd 6a 66 7b 3d 81 86 a3 3d 1a b6 a1 bd
       -0.06458396 0.061376967 0.07984639 -0.07896061
000060 c6 ea 3c 3d 05 4d ab 3d 40 ed 0f bb f2 6d 41 bd
       0.046122335 0.083643 -0.002196148 -0.047223993
000070 5d 99 80 3d 52 fa 7f 3d a3 41 18 bd 92 a7 39 3d
       0.06279252 0.062494583 -0.03717197 0.045325823
000080 5c 90 88 bc b9 23 87 bd 43 60 88 3d 6e da 47 3d
       -0.016670398 -0.065986104 0.066589855 0.048792295
000090 28 ef 9f bc bb 25 b4 3d b5 84 5c bd 3c ef 95 3c
       -0.019523218 0.08796259 -0.053837497 0.018302552
0000a0 e6 13 b4 bd aa fd 46 3d 15 f7 3d bd 5a ae 65 3d
       -0.08792858 0.048581757 -0.046378214 0.056074478
0000b0 7c 0d 9b bc c0 0a a7 3b 9b 77 b1 bd 29 3b 40 bd
       -0.018927328 0.005097717 -0.08665391 -0.04693142
0000c0 68 e3 e5 3c a0 1c c3 3c ba 9a 76 3d 1a 90 3e 3d
       0.028062537 0.02381736 0.060206152 0.046524145
0000d0 39 2e a6 3d 46 31 61 3d d6 34 5e 3d bf 80 9a bd
       0.08114285 0.05497863 0.054249607 -0.075440876
0000e0 00 c1 b7 3a fb 44 8e 3d 26 e6 50 3d 35 c5 8b 3d
       0.001401931 0.06946751 0.051000737 0.06824724
0000f0 b4 44 f8 3c 8c b4 ff 3c fb b3 95 3d 4b f3 b4 3d
       0.030306198 0.031214021 0.07309719 0.08835467
000100 e6 d6 26 3d 62 29 3c 3d ce 6a 1f 3d b0 26 4f bd
       0.040732287 0.045937903 0.038920216 -0.050574005
000110 bb 54 88 bd 9a 11 23 3d 33 b1 81 bd 35 85 3e bd
       -0.06656786 0.039811708 -0.06332626 -0.046513755
000120 8c c8 02 3d 84 eb 9a bd a6 38 3c 3d ba cf 60 3d
       0.031929538 -0.07564452 0.04595246 0.054885603
000130 3c 8a e9 3c dd 6b a4 3d 67 a0 88 bd 0b 3a 21 bd
       0.028508298 0.08028386 -0.06671219 -0.039361995
000140 f8 f2 a2 3c fb fa 22 bd 51 53 98 3d a2 4d ea bc
       0.019891247 -0.039790135 0.07437766 -0.028601471
000150 e0 b9 3e 3b 18 ac c4 3c 80 f7 d5 3b e0 a7 10 bb
       0.002910249 0.024007842 0.0065297484 -0.0022072718
000160 65 21 8c 3d 8c d0 84 3c 46 26 17 3d 11 0b b2 3d
       0.06842307 0.016212724 0.036901735 0.08693517
000170 9c 1f c0 3c dd 99 26 bd f7 a3 6f bd 64 bb 0e bd
       0.023452573 -0.04067408 -0.05850598 -0.03484668
000180 7c 52 80 3c 26 e2 4c 3d 3a b1 59 3d 9b 84 24 bd
       0.015664332 0.05002036 0.053147532 -0.040165525
000190 a8 35 de 3c 02 0d 17 bd fe 78 3a 3d 9d 3b ad 3d
       0.027125195 -0.03687764 0.045525543 0.08458636
0001a0 93 e8 ae 3d 9e a4 9a bd 2a e4 a7 bd ff 4b 58 bd
       0.08540454 -0.075509295 -0.08197816 -0.05280685
0001b0 ff 18 b2 bd 0e 7d 12 bd c5 8b a6 bd 33 03 98 3d
       -0.08696174 -0.035763793 -0.08132128 0.07422485
0001c0 60 cc f5 3c d4 5c 89 bd 0d 9e 26 bd 38 32 75 bc
       0.03000468 -0.06707159 -0.040678073 -0.014965586
0001d0 46 6b 91 bd a2 ae 71 3d f3 01 96 3d 83 6c ae bd
       -0.07100539 0.059004433 0.073245905 -0.08516791
0001e0 db e2 9a 3d fb 9d a8 bd 55 84 6f bd 80 cd 2b bd
       0.075628005 -0.082332574 -0.05847581 -0.041944027
0001f0 33 3d b0 3d 35 52 80 3d 98 18 b6 bc 71 d2 a3 bd
       0.08605423 0.0626568 -0.022228524 -0.07999123

actor.mu.model.0.weight f4 [1, 128]
000000 8a 91 20 3d 00 00 a5 39 a7 87 a0 bd b2 4e 94 bd
       0.039201297 0.00031471252 -0.07838374 -0.072415724
000010 de b4 37 3d 7f 69 a1 3d 00 26 49 39 73 4e a2 3d
       0.044850223 0.0788145 0.0001918301 0.07925119
000020 d1 88 95 3d f2 a0 25 3d 0e 28 75 3d 8e 5f 4d bd
       0.07301486 0.040436693 0.059852652 -0.050139956
000030 f9 c2 9d bd 4c ea 9c 3c 7e e3 fc bc d8 21 0a 3d
       -0.07703204 0.01915469 -0.030870195 0.033723682
000040 00 7b cc 3a 23 17 0d bd f9 ca 88 3d 56 8a 43 3d
       0.0015600622 -0.034445893 0.06679339 0.04773935
000050 84 42 c8 bc a6 7e 5b 3d 81 d3 8f 3d 70 dd 8e 3c
       -0.02444578 0.05358758 0.07022763 0.017439574
000060 00 dd 1f 3a c7 9d 95 3d 78 c2 a9 bd b0 96 0c 3d
       0.00060983 0.07305484 -0.08289045 0.034323394
000070 e8 eb 51 3c 20 81 61 3c 30 95 76 bd f6 e2 24 bd
       0.012812592 0.013763696 -0.06020087 -0.04025551
000080 f7 95 82 bd e6 4f 76 3d 78 e1 5a bc 87 12 b3 3d
       -0.0637626 0.06013479 -0.01335942 0.08743768
000090 bc 20 9c bd 40 42 97 3a eb 7c 8a 3d cb 02 51 bd
       -0.07623431 0.001154013 0.067621075 -0.051028054
0000a0 d6 a4 6f bd 4f df 95 3d 20 13 30 bc 84 70 9c 3c
       -0.05850681 0.07317983 -0.010746747 0.01909662
0000b0 e6 29 7a bd 0f 50 69 bd 56 05 6f 3d 86 a7 05 3d
       -0.061075114 -0.056961115 0.058354698 0.032630466
0000c0 8d ea ab bd fd 5e 9c 3d 81 8b 1b bd 73 f0 3b bd
       -0.083943464 0.07635305 -0.03797484 -0.045883607
0000d0 a9 b8 90 bd ed f7 8e 3d 23 64 a4 3d 54 41 a9 bd
       -0.07066471 0.06980882 0.08026912 -0.082644135
0000e0 70 b5 df bb 60 17 ad 3b 47 8c ab 3d 05 de a8 3d
       -0.006827049 0.0052823275 0.08376365 0.08245472
0000f0 8e ff 27 3d 60 37 77 3c 60 46 f6 3c bc ed f0 3c
       0.0410152 0.015088886 0.030062854 0.029410236
000100 88 9d 75 3c 7f b3 06 bd d0 8c 24 bc 50 7d 8c bd
       0.014991172 -0.032886025 -0.010043338 -0.06859839
000110 74 42 9a 3c 97 27 06 bd 55 61 86 3d 80 af c6 3c
       0.018830515 -0.0327526 0.06561533 0.024253607
000120 d2 f4 a9 bd 80 42 df 3a c8 82 ed 3c 4e 1d 40 3d
       -0.08298649 0.0017033368 0.028993025 0.046902947
000130 00 87 eb bb 46 a3 75 3d f2 da 42 bd 20 0f 4b 3c
       -0.007187724 0.059970163 -0.047572084 0.012393743
000140 13 77 ad 3d f8 04 9d bc 18 be a9 3c fd e7 04 bd
       0.08469977 -0.019167408 0.020720527 -0.032447804
000150 a4 9f 8b bd a9 ac a8 3d 3e 63 f7 bc 53 aa 59 bd
       -0.068175584 0.08236057 -0.03019869 -0.05314095
000160 8d fb 84 3d 61 10 ad 3d 94 07 8e 3c 87 a9 2d bd
       0.06493292 0.0845039 0.017337598 -0.042398002
000170 d6 82 0f bd ef 2c b4 bd aa 53 9e bd 6c 26 10 3d
       -0.035036884 -0.08797633 -0.077308014 0.035192892
000180 43 d0 57 bd 9a 7d 6f 3d 1c c8 13 3d 84 53 fa bc
       -0.05268885 0.058469392 0.03607951 -0.030557401
000190 b4 45 c3 bc 45 92 a4 3d 36 b3 44 3d de ad b0 bd
       -0.023836948 0.08035711 0.04802247 -0.086269125
0001a0 ab 62 99 3d a3 ad 05 bd a0 e0 66 bd ae 4a 81 bd
       0.074895225 -0.032636296 -0.056366563 -0.06313072
0001b0 70 22 c9 3c 00 f2 5f 39 60 ea 91 bd 9d 6e 9c 3d
       0.024552554 0.0002135709 -0.071247816 0.07638285
0001c0 d1 18 8d 3d 48 78 9f bc de e6 5b 3d 94 ea f5 bc
       0.06889499 -0.019466534 0.05368697 -0.030019082
0001d0 b0 59 a0 bc 94 b0 28 bd 0a 32 3a 3d 8b fd 28 bd
       -0.019574016 -0.041184023 0.045457877 -0.041257422
0001e0 c0 4d af 3b 64 43 a7 bd e4 ac 85 3c f2 85 5a bd
       0.0053498447 -0.081671506 0.016317792 -0.053350396
0001f0 d8 32 38 bc 7b e9 b1 3d ec ca 89 3c d8 35 0c 3c
       -0.011242591 0.08687111 0.016820394 0.008557759

critic1.preprocess.model.model.0.weight f4 [128, 3]
000000 40 49 9c bc 00 9f 7a bd 62 35 13 3f 54 af c8 bd
       -0.019077897 -0.06118679 0.5750333 -0.09799066
000010 00 d4 bb bd 7e 4f 99 3e 80 82 7e 3c 68 d9 5d 3e
       -0.09171295 0.2994346 0.015534043 0.21664965
000020 b8 86 83 3d e4 1a e0 3e bc 21 d9 3e e4 53 2d be
       0.0642218 0.43770516 0.4240855 -0.16926533
000030 38 75 86 3e 22 36 8b 3e e0 91 e9 bc 2c 61 0f bf
       0.26261306 0.27189738 -0.028511941 -0.5600765
000040 16 eb dc be 07 05 80 be f6 f8 a5 3e 78 d4 8b 3d
       -0.43148106 -0.25003836 0.32416505 0.068276346
000050 0d 3a d7 be 5c df 0f be c4 80 36 3e 5a b8 63 be
       -0.42036477 -0.14050049 0.17822558 -0.22238293
000060 d0 04 7f 3d bc a8 07 be f2 cc 94 3e b4 fb 71 3e
       0.06226045 -0.13247961 0.2906261 0.23631173
000070 9a e4 a1 3e 1f b3 0b bf e4 d0 0f 3f ae b8 8b be
       0.31619722 -0.5457019 0.56178117 -0.27289337
000080 78 ba d1 3d 10 82 fd 3d 90 e0 7c bd f8 4c 88 3d
       0.10240644 0.12378323 -0.061737597 0.066553056
000090 a2 5b d6 3e 9c 63 e3 be 4e 6e 43 be fa eb 6c be
       0.41866785 -0.44411933 -0.19085047 -0.23136893
0000a0 24 3a ba 3e 93 ef 0c bf ea 0b 08 be 0d 99 04 bf
       0.36372483 -0.5505306 -0.13285795 -0.51796037
0000b0 58 bb 2d be ba 81 50 be 20 ce f5 be 1a da b9 be
       -0.16965997 -0.20361987 -0.48008823 -0.3629921
0000c0 82 dc bb be 58 41 b6 be 58 0b 16 3e a8 99 6c be
       -0.36691672 -0.35596728 0.14652765 -0.2310549
0000d0 90 50 54 3d e9 e4 09 bf ec 0d 11 3f 28 c0 25 3e
       0.051834643 -0.53864914 0.5666187 0.16186583
0000e0 64 5f 11 3f 00 ff 8e bc 5c 20 a6 be c2 89 d7 3e
       0.5678618 -0.017455578 -0.32446563 0.42097288
0000f0 da e1 af 3e ee bf 2c be d4 d0 44 3e ed e4 0c bf
       0.34352 -0.1687009 0.19220287 -0.55036813
000100 06 1d 84 3e f8 e3 02 3f ba 9e 13 3f 90 3a 9e 3d
       0.25803393 0.511291 0.5766407 0.07726014
000110 7c bc 42 3e 8c 05 45 3e 18 45 86 3d 9e 5e 01 3f
       0.19017214 0.19240397 0.06556147 0.50535
000120 40 15 e0 be 3c 0e af be 18 16 d5 3e 60 6b fc 3c
       -0.43766212 -0.34190547 0.4161842 0.03081292
000130 fc ac dd 3e fc a1 f5 3e 70 97 2d 3d e4 a4 1a 3e
       0.4329604 0.47975147 0.04238075 0.15101963
000140 0e f1 03 3f a0 9e 85 bd 44 9d 3a 3e 40 41 b3 be
       0.51539695 -0.06524396 0.18224055 -0.3501072
000150 82 3d da be a0 ed ad 3c b8 26 98 3d e3 ca da be
       -0.42625052 0.021231472 0.0742926 -0.42732915
000160 68 8b 81 bd b4 36 89 be 2a d2 0b bf 70 25 4a be
       -0.06325418 -0.26799548 -0.5461756 -0.19740844
000170 04 d5 ca 3e 3a 2e 19 be 7a c1 c1 be 66 83 d1 3e
       0.39615643 -0.1495904 -0.37842923 0.40920562
000180 10 35 d3 3d 1d 0a 8e be 1e 66 ca 3e 08 2c 97 3d
       0.10312855 -0.2774209 0.39531034 0.07381445
000190 b0 db 38 bd e0 0f 01 3f 38 31 89 3d d0 7c e1 3d
       -0.045131385 0.5041485 0.06698841 0.11010134
0001a0 80 c6 1e bc 76 60 c6 be f4 78 d5 3e 86 84 c4 3e
       -0.009690881 -0.3874547 0.41693842 0.38382357
0001b0 b8 de f2 3d 60 ee 00 3f a0 25 a5 3e a6 b2 44 be
       0.118588865 0.5036373 0.32255268 -0.19208774
0001c0 2c 7b c1 bd 04 38 33 3e 51 88 bc be e2 9e b4 3e
       -0.09447321 0.17501837 -0.3682275 0.35277468
0001d0 3c a4 06 bf 50 50 15 3d f6 e8 80 3e a4 87 52 3e
       -0.5259435 0.036453545 0.25177735 0.20559555
0001e0 30 ce db be 70 cd fb be 98 bb 25 be 24 5a f1 be
       -0.42930746 -0.49180174 -0.16184843 -0.47139084
0001f0 80 9c b4 3e 86 61 06 3f 26 01 8e 3e 10 77 88 3d
       0.3527565 0.5249256 0.2773525 0.06663334
000200 92 ad 05 bf d8 93 08 be 2a 4c af 3e 58 54 0c 3e
       -0.5221797 -0.13337648 0.34237796 0.1370405
000210 1b 9f 01 bf 70 74 5f 3d eb 32 9c be e2 86 d7 be
       -0.506334 0.054554403 -0.30507597 -0.42095095
000220 c8 62 8d 3d c4 d9 31 3e 4b 95 08 bf 6d d2 f1 be
       0.06903607 0.17368227 -0.53352803 -0.47230855
000230 b4 40 e2 3e 34 e5 b7 be 50 95 07 3f a0 c0 1e bd
       0.4418999 -0.35917056 0.5296221 -0.03875792
000240 00 68 26 3d 58 ef f9 be 40 f0 44 3e b0 37 05 3e
       0.040626526 -0.48815417 0.19232273 0.13009524
000250 f8 c7 e9 3e 9c ca 00 3f 24 75 50 3e 80 b7 a3 3c
       0.45660377 0.5030916 0.20357186 0.01998496
000260 98 90 d7 3e 20 00 93 3d 6c 96 dd 3e f4 e4 74 3e
       0.42102504 0.07177758 0.43278825 0.23915464
000270 54 3d a6 be a0 43 f6 be 6d e2 05 bf 5f 70 91 be
       -0.32468665 -0.4809847 -0.52298623 -0.28406045
000280 2e 41 d1 3e 65 94 ba be 9a a5 d6 be 58 28 05 3e
       0.4087004 -0.3644134 -0.4192322 0.13003671
000290 d1 18 ef be ec c6 a1 3e aa 16 03 3f 2e 7e ac 3e
       -0.4669862 0.31597078 0.5120646 0.33690017
0002a0 88 4b 03 be 2c 19 01 3f 5e be a5 3e 20 81 74 bd
       -0.12821782 0.50429034 0.323718 -0.059693456
0002b0 68 52 ee 3d c0 cd 61 3e 30 d7 33 3e 58 39 b5 3d
       0.116368115 0.22051144 0.17562556 0.08848828
0002c0 a4 e6 01 bf b4 bb a4 3e 48 10 98 3e 00 a6 a1 3b
       -0.50742555 0.32174456 0.29699922 0.004933119
0002d0 08 b6 c5 3e 70 8d e7 3e 22 4a 95 3e cc f3 f6 3e
       0.3861544 0.45225096 0.2915812 0.48232877
0002e0 aa 31 0e 3f a0 c4 a8 3d 0f 95 04 bf d8 62 56 be
       0.5554453 0.08240628 -0.51789945 -0.20936143
0002f0 10 a8 a7 be c8 a0 c7 be 56 28 60 be bc 7e 6e be
       -0.3274541 -0.38989854 -0.21890387 -0.23290533
000300 18 95 3c 3e 9c ab 7c 3e aa 03 9b be 4c a1 fc be
       0.1841625 0.24674839 -0.30276233 -0.4934181
000310 00 6f 89 3d a0 6d 04 3f 66 53 59 be b4 ac 84 be
       0.06710625 0.51729774 -0.2122322 -0.25913012
000320 90 1a 77 3d b0 3f 97 be c6 95 83 3e fa 06 11 3f
       0.060328066 -0.29540777 0.25700206 0.5665127
000330 36 43 a9 be f0 f2 68 be 06 1e 99 be d8 6b 74 3e
       -0.3305909 -0.22748923 -0.2990572 0.23869264
000340 6a 32 05 be 90 c3 02 3e 10 47 33 3e 9c 92 df 3e
       -0.13007513 0.12769914 0.17507577 0.43666542
000350 5a f1 be 3e 00 f3 1e 3d 04 a7 e8 3e 30 dc d8 3e
       0.37293512 0.03880596 0.45439923 0.4235549
000360 4b 53 da be 68 58 2b be 0f 05 e0 be 20 29 10 bf
       -0.42641672 -0.16732943 -0.4375386 -0.5631275
000370 da 95 13 3f d4 62 eb 3e fa a5 a2 3e f4 ff ea be
       0.5765053 0.45973837 0.31767255 -0.45898402
000380 d2 b5 b4 be 17 44 08 bf 44 8d 10 3e 50 6f 69 3d
       -0.35294968 -0.53228897 0.14116389 0.05699092
000390 f9 97 10 bf b0 c1 cb 3d f2 27 a7 be f0 0a 70 3d
       -0.5648189 0.09949052 -0.32647663 0.05860418
0003a0 24 19 b4 3e 74 77 e3 3e 04 87 04 bf 90 6d ce 3e
       0.3517543 0.44427073 -0.5176852 0.40317965
0003b0 31 bf a0 be 8c c5 7d 3e b0 5b 46 bd f6 b9 fc be
       -0.31395867 0.2478239 -0.048427284 -0.49360627
0003c0 4a e6 ca 3e 9e 89 0b be 30 11 99 3d 08 4e 49 3e
       0.39628822 -0.13626716 0.074739814 0.19658673
0003d0 a0 a8 44 3d 8d bc a4 be 4b 9e 12 bf f0 50 6a 3d
       0.048012376 -0.32175103 -0.57272786 0.057206094
0003e0 88 8a 07 3e f4 47 9e 3e 3a 97 ee be e6 1b cf 3e
       0.13236439 0.3091427 -0.46599752 0.40450972
0003f0 b0 8d d7 3d 50 17 03 3f 90 b4 c8 3e 06 05 b2 3e
       0.105250716 0.5120745 0.39200258 0.34769458

critic1.preprocess.model.model.0.bias f4 [128]
000000 0a d3 0f 3f 60 b1 99 3c 64 91 49 3e 00 b9 85 3d
       0.56181395 0.018761337 0.19684368 0.065294266
000010 ac 2d 90 3e 45 01 bb be 08 04 fd be cc ff 60 3e
       0.28159845 -0.36524406 -0.49417138 0.21972579
000020 10 d0 1e 3e 5f 5d 8d be 5e e7 df be 7a a9 c3 be
       0.15509057 -0.276103 -0.43731207 -0.38215238
000030 a6 ba 51 be 12 47 9b be 38 23 bc be 4d 6c 0f bf
       -0.20481357 -0.3032766 -0.3674562 -0.5602463
000040 6a 4d cd be 2b 84 04 bf 25 d1 b1 be f8 3c 88 3e
       -0.40098125 -0.5176417 -0.34729877 0.26609015
000050 e8 f1 db bd 4e 48 d8 be 00 dc 16 bb 58 09 0f 3e
       -0.10739499 -0.42242664 -0.0023019314 0.13968408
000060 89 51 9a be 18 24 f0 be 9c 0d 1b 3e a4 f5 07 bf
       -0.3014033 -0.46902537 0.1514191 -0.5310919
000070 e2 bc 0b bf 18 85 ed 3d 6c 5c 23 3e 9a c3 0c 3f
       -0.5458509 0.11597651 0.15953225 0.54985964
000080 18 6d ef 3e 06 22 92 3e 60 70 bf 3c 02 75 04 bf
       0.4676292 0.28541583 0.023369014 -0.5174104
000090 bc f4 25 be e0 5e 65 3d 12 97 18 be 00 84 0e 3c
       -0.1620664 0.055998683 -0.14901379 0.008698463
0000a0 2f c8 92 be 9a 10 8f be 28 d2 a7 3e 86 68 04 3f
       -0.28668353 -0.27942353 0.32777524 0.5172199
0000b0 ba a6 12 bf 60 c4 23 3e dc 5d d4 bd 24 0c e3 be
       -0.57285655 0.1599288 -0.10369465 -0.443452
0000c0 72 9e 4c be 0c 8d 25 be 10 b1 09 bd b0 f6 ca 3e
       -0.19982317 -0.16167086 -0.033616126 0.39641333
0000d0 e0 0c fe 3c f8 37 97 bd 00 80 10 ba 66 2e 42 be
       0.031011999 -0.07383722 -0.00055122375 -0.18963012
0000e0 70 21 03 3f 28 b7 01 3f 74 ea ed 3e 97 ac 93 be
       0.51222897 0.506701 0.46467936 -0.28842613
0000f0 ca c8 c5 3e 62 95 91 3e b2 ec ff be 38 f8 0b bf
       0.38629752 0.28434283 -0.49985272 -0.54675627
000100 30 71 67 3e b0 57 ad 3e 2a 86 67 be a0 91 91 3d
       0.22601771 0.33855963 -0.22609773 0.07107854
000110 d6 c0 7f be ee 99 23 be a1 46 00 bf f0 a3 a0 3e
       -0.24975905 -0.15976688 -0.5010777 0.31375074
000120 2a 81 f1 be b8 30 d8 3d c4 4f 16 be 6c 7d f4 be
       -0.47168857 0.10556167 -0.14678866 -0.4775194
000130 80 a4 60 3d 48 f5 fc 3e 46 f7 07 be 80 09 b5 bc
       0.05484438 0.49405885 -0.13277921 -0.022099257
000140 10 a0 a3 3e b0 4d fe 3e 60 3f 42 3e 75 68 f2 be
       0.31958055 0.49668646 0.18969488 -0.4734532
000150 24 71 86 3e 84 af ea 3e 40 a0 a4 3e bc 8a f0 3e
       0.26258194 0.45837033 0.3215351 0.46980846
000160 b0 0b ee be 3e a6 31 be 2a 06 b9 3e 2f f2 91 be
       -0.46493292 -0.17348573 0.36137515 -0.28505084
000170 16 27 e0 be 1a 65 ac 3e 2c 7f 0a 3f 9c 57 8f 3e
       -0.4377982 0.33670884 0.541003 0.27996528
000180 90 c2 56 bd 14 1e 66 3e f8 eb 9f 3d e0 38 c9 3e
       -0.052431643 0.22472411 0.07808679 0.39301205
000190 7a 4a fa be 16 65 93 be c0 c2 c1 be a0 09 1f 3e
       -0.48884946 -0.2878806 -0.37843895 0.15531015
0001a0 34 90 d8 be 6d 01 bd be e6 46 98 be a4 d9 ca 3e
       -0.42297518 -0.3691515 -0.2974159 0.39619172
0001b0 74 35 0b 3f 95 0b 02 bf 10 e5 c0 bd fd 72 f6 be
       0.5437844 -0.5079892 -0.0941869 -0.48134604
0001c0 96 ac f4 be e4 be df be c6 70 04 bf e4 00 ad 3e
       -0.47787923 -0.43700325 -0.5173458 0.33789742
0001d0 1e 66 46 be 24 33 dc bd 0d 43 87 be 14 db b7 bd
       -0.19374892 -0.10751942 -0.26418343 -0.08977333
0001e0 60 3f 26 3e 9e 06 9f 3e 12 b1 0f 3f 20 3a 30 3e
       0.16235113 0.31059736 0.5612956 0.17209673
0001f0 48 7d 24 3e 98 01 c8 3e 0c f4 45 3e 0c ff d9 3e
       0.16063416 0.39063716 0.19331378 0.42577398

critic1.preprocess.model.model.2.weight f4 [128, 128]
000000 20 f1 c1 bc 6e 42 59 3d 70 54 83 bc fe 2f 5a 3d
       -0.023674548 0.053041868 -0.016031474 0.053268425
000010 b0 f3 9f bd 90 7f a5 3b 18 b2 0a 3d 3c ce cd 3c
       -0.078101516 0.005050607 0.03386125 0.025122754
000020 40 08 44 bd 8c 97 6d bd 19 63 99 3d 70 f5 46 bc
       -0.04785943 -0.058005854 0.074896045 -0.012143478
000030 01 8b b4 3d 9c b1 a9 3c a2 38 18 3d ee 29 51 3d
       0.088155754 0.020714574 0.037163384 0.051065378
000040 3b 83 2b bd c9 7d ae bd b0 fa 1c bc 99 2f a9 3d
       -0.041873198 -0.08520085 -0.009581253 0.08261032
000050 6a 65 61 3d 9f 60 8d 3d 40 69 47 bb 84 99 ae 3c
       0.055028357 0.06903195 -0.0030427724 0.021313436
000060 94 ae cd bc c6 41 49 3d 72 87 99 bd a8 5f 38 3c
       -0.02510766 0.049134992 -0.07496537 0.011253275
000070 80 30 65 bb e0 66 ae bb 5c 92 c0 bc f8 22 94 bd
       -0.0034971535 -0.0053223222 -0.02350729 -0.07233232
000080 73 4e a9 3d 4a ab b3 bd 20 b1 b8 3b ba 20 68 3d
       0.08266916 -0.08772905 0.0056363493 0.056671835
000090 00 87 be bb 5e 58 6d bd f1 5a 76 bd 64 19 d1 bc
       -0.005814433 -0.0579456 -0.060145322 -0.025524803
0000a0 aa dd 3c bd 19 8f 53 bd d3 87 83 3d 45 6b 44 bd
       -0.046109833 -0.05165014 0.06422391 -0.047953863
0000b0 28 b5 1b 3c de 0a 55 bd 40 4f 80 3a bb 9b 78 bd
       0.00950364 -0.052012317 0.0009789243 -0.06069539
0000c0 b8 b8 79 bc 88 44 4c bc 50 c5 c3 bc c8 84 20 bd
       -0.015241794 -0.012467511 -0.023897797 -0.03918913
0000d0 dc 9c 08 3d 52 e3 1c 3d 2c c8 1f bd 84 ee 9e bd
       0.033352718 0.038302727 -0.03900926 -0.07760337
0000e0 98 61 89 bd 50 9b ba bc a7 da 17 bd f8 53 9b bc
       -0.06708068 -0.022779137 -0.037073757 -0.018960938
0000f0 c0 b1 57 3b 7f 9b 89 bd 50 9e ab bc 12 74 85 bd
       0.0032912344 -0.06719112 -0.020949513 -0.06516279
000100 00 90 6b ba 3b c4 6c bd d6 d9 a6 bd 6e 22 7c bd
       -0.0008985996 -0.057804327 -0.08147018 -0.061556272
000110 df 18 78 bd 30 f8 0a bd e1 61 83 3d 2b 2c 90 bd
       -0.060570594 -0.033928096 0.06415153 -0.07039674
000120 23 b3 ad 3d d0 d8 8b bc 5a cb 48 3d 77 fa 60 bd
       0.08481433 -0.017071158 0.049022056 -0.054926362
000130 f0 64 81 bb d4 72 d8 bc 89 62 97 3d 41 49 86 bd
       -0.0039488003 -0.026421942 0.07391841 -0.06556941
000140 ba d7 2f 3d 33 4a a4 3d 55 c8 92 3d 06 af f1 bc
       0.042930342 0.08021965 0.071671166 -0.029502403
000150 60 e6 56 bc fe 8a 8f bd 33 4a 82 3d 14 22 9b 3c
       -0.013116449 -0.070089325 0.06361809 0.018937148
000160 03 a9 8c 3d 1e c2 a2 bd 20 5a c7 bb a4 33 00 3d
       0.06868174 -0.07947181 -0.006083742 0.03129925
000170 8a 9d 18 bd e8 4a 66 3c 0f 8f 86 bd 6b dc 0b bd
       -0.037259616 0.014055945 -0.06570255 -0.034145754
000180 e0 2d 9e bb be 5c e7 bc a5 67 a9 3d 63 68 a5 bd
       -0.004827246 -0.028242465 0.08271722 -0.08076551
000190 fa ba 62 3d 80 b7 05 3a 5f f4 59 bd 80 99 ea 3b
       0.055354096 0.0005100891 -0.053211566 0.007159412
0001a0 9d bb 91 3d b0 27 85 3c 97 97 8b 3d c4 9c 9d bd
       0.071158625 0.016254276 0.06816023 -0.07695916
0001b0 04 69 07 bd 00 d6 13 3c 2a 55 2f 3d 8a 1e 02 3d
       -0.033059135 0.00902319 0.04280583 0.031767406
0001c0 5e be f0 bc b6 3a 29 3d 00 3a 34 b9 a2 fc f5 bc
       -0.02938765 0.041315757 -0.00017187744 -0.030027691
0001d0 68 54 e0 3c 24 49 f8 3c 54 5b 90 bd 48 e3 07 3d
       0.027383998 0.030308314 -0.070486695 0.033175737
0001e0 62 69 57 3d a7 2f ad 3d 44 7f cd bc e2 15 5a 3d
       0.052590735 0.084563546 -0.025085099 0.053243525
0001f0 0f 82 a3 bd 0c e0 c1 bc a2 5d 46 3d f6 98 7f 3d
       -0.07983791 -0.023666404 0.04842914 0.062401734
000200 48 ab 6c bc 00 08 a3 bd c7 f6 31 bd b8 fb b7 bc
       -0.0144451335 -0.0796051 -0.043448236 -0.022458896
000210 00 f8 25 b9 ed 4e b1 3d 51 88 b1 3d bd be 12 bd
       -0.00015828013 0.08657632 0.086685784 -0.035826433
000220 b4 d5 cf bc 00 fe 66 ba 42 22 59 bd 28 68 6f bc
       -0.025370456 -0.00088116527 -0.053011186 -0.014612235
000230 24 b4 85 3c 52 eb 4e 3d 67 8a 93 3d b2 fb 7f bd
       0.01632125 0.050517388 0.072041325 -0.062495895
000240 36 66 70 bd 3e aa 6a 3d 50 ee 22 bc 86 0f 48 3d
       -0.058691226 0.05729126 -0.009944513 0.04884293
000250 ab d3 af 3d 00 22 cb 3a 8d 1e a2 3d 00 0f a4 3a
       0.08585294 0.0015497804 0.07915983 0.0012516677
000260 aa e9 22 bd a8 e9 c5 bc 70 04 80 bd 5e 8a 3c 3d
       -0.03977362 -0.024159268 -0.062508464 0.046030395
000270 80 06 d9 3c 0f d3 88 3d f1 1e 8f bd cc 0e 0e 3d
       0.026492357 0.06680881 -0.069883235 0.03468208
000280 27 c5 87 3d a0 fe b3 bb 68 2a bc bc d0 ee 1e bd
       0.06629401 -0.005493 -0.02296944 -0.038801968
000290 31 c4 67 bd 70 7f b2 bd 06 58 75 3d d1 de 96 3d
       -0.056583587 -0.08715713 0.0598984 0.073667176
0002a0 bd 57 87 3d 04 6f 8f 3c c0 97 c3 bc fb a7 46 bd
       0.066085316 0.017508991 -0.023876071 -0.048500042
0002b0 12 ed 3a 3d 78 29 87 3c 3c 35 85 3c 40 16 a9 bb
       0.045636244 0.016499266 0.016260736 -0.005160123
0002c0 96 52 1d 3d 5e aa 28 3d f8 e7 b6 bc 4a 78 3a 3d
       0.03840884 0.0411781 -0.022327408 0.045524873
0002d0 aa 5b 4c 3d 62 3a 4c 3d 4d 6f 98 3d e2 37 86 bd
       0.049892105 0.049860366 0.07443104 -0.065536276
0002e0 28 10 14 3d 5a f9 6c bd 7c 37 c5 3c 00 5c ac 3b
       0.03614822 -0.057854988 0.024074309 0.0052599907
0002f0 0c 18 8f 3c 7a f0 3c bd ee 22 77 3d 2c 1e d2 3c
       0.017467521 -0.046127774 0.060336046 0.025649153
000300 a7 8a b2 bd c9 14 81 bd e8 ef 0b bd b8 ac a7 bd
       -0.08717852 -0.063027926 -0.03416434 -0.0818724
000310 b1 eb 3f bd e5 93 b4 bd 28 24 7e bd 08 0a 5f bd
       -0.046855632 -0.08817271 -0.0620462 -0.054452926
000320 06 33 73 3d 7e c9 59 bd a6 0c ff bc a0 dd 76 bb
       0.05937483 -0.053170674 -0.031133961 -0.003766872
000330 3a b6 58 bd 4d da 97 bd 70 c1 94 3b f7 ed a6 3d
       -0.05290816 -0.074146844 0.004539661 0.08150857
000340 6d f5 93 3d 99 d0 8e bd 33 f0 b0 bd 1a 37 02 3d
       0.07224546 -0.069733806 -0.08639564 0.03179083
000350 ec 7d cd bc cd 1b 80 bd 62 f0 7b 3d c9 4d 8a bd
       -0.025084458 -0.062553026 0.061508544 -0.067531176
000360 57 6d a3 3d 68 64 b5 bc 80 35 a9 bc 74 ae 05 3d
       0.07979839 -0.022142604 -0.020655394 0.032637075
000370 7e ef 2e bd 7a bf 6d bd 47 79 1c bd f7 76 30 bd
       -0.042708866 -0.058043934 -0.038201597 -0.043082204
000380 da eb 23 3d 06 c4 6e 3d f0 ee 81 bd b2 79 35 3d
       0.040019847 0.05829241 -0.06344402 0.04430551
000390 4f 38 25 bd 88 f4 3e bc d3 c4 0c bd 25 8a 94 3d
       -0.040336903 -0.0116549805 -0.034367394 0.072529115
0003a0 58 01 94 bd ca ba e3 bc 10 4a c3 3b c5 ad 97 3d
       -0.07226819 -0.027799029 0.0059597567 0.07406191
0003b0 3d 8e 05 bd 50 e5 bf bc c2 e2 50 3d 3e c9 18 3d
       -0.032606352 -0.023424774 0.050997503 0.037301295
0003c0 55 a2 8e 3d d4 97 e4 bc b3 9f 0c bd 66 37 51 3d
       0.06964556 -0.027904429 -0.03433199 0.051078223
0003d0 05 94 83 bd 29 8d 8b bd 18 4b 3e 3c 4e 19 29 3d
       -0.06424717 -0.068140335 0.011614583 0.041283898
0003e0 43 cb 78 bd ec 34 05 bd 6c 51 88 bc 4f 22 19 bd
       -0.06074072 -0.032521173 -0.016640387 -0.037386235
0003f0 00 29 aa b9 be de 5b 3d 8e 75 47 3d 5a e2 46 bd
       -0.00032455474 0.05367922 0.048696093 -0.04855571

critic1.preprocess.model.model.2.bias f4 [128]
000000 5e 50 3b 3d ae 17 6a 3d 16 a3 73 3d 53 2b b0 3d
       0.04573094 0.05715149 0.059481703 0.086020134
000010 40 37 e3 3c 32 44 45 3d 12 20 66 bd b2 89 5f 3d
       0.027736306 0.04816074 -0.05618293 0.054574676
000020 5c 28 f6 3c ba 4d 25 3d d9 f1 a4 bd fc 12 e4 3c
       0.030048542 0.04035733 -0.08053941 0.027841084
000030 8f 29 1b bd f8 76 c5 3c 6b 3b 9a bd 95 24 95 3d
       -0.03788143 0.02410458 -0.07530864 0.07282368
000040 84 02 e5 3c a9 dd 9c bd f0 99 fd bb 18 17 02 3d
       0.027955301 -0.07659466 -0.007739298 0.031760305
000050 08 6d 8e 3c d0 77 e4 3c 6d d7 b4 3d 3a 92 27 3d
       0.017385975 0.027889162 0.08830152 0.040910937
000060 06 b3 47 bd 30 9d 94 bd 50 ed a8 bb 25 a4 a3 3d
       -0.048754714 -0.07256544 -0.005155243 0.079902925
000070 88 d7 59 3c 5c 3e f4 3c f4 38 86 bc aa 98 2f 3d
       0.013296016 0.029814892 -0.01638458 0.0428702
000080 a0 be 7b bc ac 83 a2 bc 8c 33 89 bc fc 0c 26 bd
       -0.015365273 -0.019838177 -0.016748212 -0.040539727
000090 24 c4 99 bd cd 56 9f bd 01 1a 68 bd 2e 56 25 3d
       -0.07508114 -0.07780228 -0.056665424 0.04036539
0000a0 5e 0d 6d 3d 70 bf dc bb 52 73 72 3d 40 43 8a ba
       0.057874076 -0.0067366883 0.05919201 -0.0010548607
0000b0 e6 30 86 bd 6c 3f 9a bc 60 09 a9 bd 99 9b 97 bd
       -0.065522954 -0.01882907 -0.08253741 -0.07402725
0000c0 b6 9e 74 3d d3 87 98 3d 90 0f dd 3c 2c 37 9c 3c
       0.05972167 0.074477814 0.02698496 0.019069277
0000d0 90 71 8b bb 60 f8 bc 3b 6d 34 5f bd 7c 36 30 bd
       -0.004255481 0.0057669133 -0.054493356 -0.04302071
0000e0 be 28 28 3d e2 4f 67 3d f2 ee 2f 3d b0 df da 3b
       0.04105448 0.056472667 0.042952485 0.0066794977
0000f0 3b 20 b0 bd 94 c8 e2 bc df 62 ab bd bb 08 65 bd
       -0.085998975 -0.027683534 -0.083684675 -0.05591653
000100 9b bf 5f bd e7 b8 25 bd 64 54 9a 3c c5 d6 9e 3d
       -0.05462609 -0.04045954 0.018839069 0.07755808
000110 00 68 12 bb e1 e4 88 3d 44 ac 93 3c bf 9f 40 bd
       -0.002233982 0.0668428 0.018026479 -0.047027346
000120 4a 54 1a 3d fa f2 2c 3d 97 9c a5 3d 8e 89 61 bd
       0.03767804 0.042223908 0.08086508 -0.055062823
000130 4f 2b 1e bd 92 52 7c 3d 89 8f a0 bd 8c 94 e1 bc
       -0.03861552 0.061602183 -0.07839877 -0.027536653
000140 f4 bf 87 bd 57 49 24 bd 00 47 9c 3a 01 89 87 3d
       -0.06628409 -0.040109005 0.0011923015 0.06617928
000150 42 16 27 3d 86 50 00 3d 8b eb 89 bd c2 d1 24 3d
       0.04079271 0.031326793 -0.067343794 0.040239103
000160 00 2c cd 3b 8b 48 8a 3d e9 08 21 bd 40 4d 76 bd
       0.0062613487 0.06752118 -0.039315138 -0.060132265
000170 fe b1 57 3d 13 22 9a 3d 00 77 89 bd 10 eb eb bb
       0.05265998 0.075260304 -0.067121506 -0.0071996525
000180 c5 2b 85 3d b6 36 07 3d 70 47 7a bc 40 4a bf 3a
       0.06502489 0.03301116 -0.015275821 0.0014594272
000190 c7 9c 07 bd 8c 67 09 3d 48 50 72 3c 06 d7 73 3d
       -0.0331085 0.033546016 0.014789648 0.059531234
0001a0 e4 58 fe 3c 56 13 52 bd 69 57 9d 3d ae 39 1b 3d
       0.031048246 -0.05128797 0.07682688 0.037896805
0001b0 16 f9 7e 3d 80 56 73 bb d5 46 a3 bd d1 85 82 bd
       0.062249266 -0.0037130415 -0.079724945 -0.0637318
0001c0 fe 88 7a bd 8a 4a 5b 3d e2 84 4a 3d e6 a3 99 bd
       -0.061165802 0.053537883 0.049443133 -0.07501964
0001d0 e8 35 07 3c 80 27 33 3a f7 56 81 bd a3 7e 9a bd
       0.008252598 0.0006834194 -0.06315415 -0.07543685
0001e0 07 68 85 3d 23 07 a6 3d 32 c8 7b bd 60 74 e9 bc
       0.06513982 0.0810683 -0.061470218 -0.028497875
0001f0 2c f1 91 bc fc 32 95 bc 57 ba b4 bd 50 f8 ee 3c
       -0.017815195 -0.018212788 -0.08824604 0.029171139

critic1.last.model.0.weight f4 [1, 128]
000000 ea 1a 5d 3d d1 77 85 3d a8 29 44 3c 56 46 6b 3d
       0.053980745 0.06516994 0.011972822 0.057440124
000010 93 52 9e bd 00 70 38 bb c8 15 08 3c b8 93 74 bd
       -0.077305935 -0.002814293 0.008305974 -0.059711188
000020 b9 93 0c bd 40 c2 f9 3b c0 bc 9a ba 6f 88 94 bd
       -0.034320567 0.0076220334 -0.001180552 -0.07252585
000030 73 8e 8e 3d bc 11 61 bd 6e 29 4e 3d 7a 0d 71 3d
       0.06960764 -0.054948553 0.05033248 0.058850743
000040 4f 4b 2a bd b4 88 a5 bc 4a 8c 2a 3d 90 2b f2 3b
       -0.041575726 -0.020206787 0.041637696 0.007390447
000050 e8 86 ac bc 10 d4 ad bc a1 46 51 bd 90 17 e9 3c
       -0.021060422 -0.021219283 -0.051092748 0.028453618
000060 9d 2c 89 3d 46 e3 59 3d 18 2f 3f bc 16 d9 76 3d
       0.066979624 0.05319526 -0.011668943 0.060265623
000070 5a a7 42 3d 60 9f be bb 94 1a ba 3c a0 c4 4b 3c
       0.04752288 -0.005817339 0.022717752 0.012437016
000080 7f 67 83 3d 28 19 2f bd 1f fc 41 bd 70 9e b3 3b
       0.06416225 -0.0427486 -0.047359582 0.0054815337
000090 48 60 3f bc c0 88 7c bc b0 1a e3 bb ce f0 17 bd
       -0.01168067 -0.015413463 -0.0069306716 -0.037094884
0000a0 4b 58 97 bd 45 96 ad 3d b4 96 a0 bc 05 c7 91 bd
       -0.073898874 0.08475927 -0.01960311 -0.07118038
0000b0 f0 72 a5 3c 9a 3a 75 3d c2 7b 9e bd 28 75 d2 3c
       0.020196408 0.05987034 -0.07738449 0.02569063
0000c0 f9 4e 91 3d 30 af 74 3c a3 ee 84 3d 75 6b 48 bd
       0.07095141 0.014934346 0.06490829 -0.048930604
0000d0 01 2e ab 3d 57 20 78 bd b7 5f 11 bd b4 f4 1c bd
       0.08358384 -0.060577717 -0.03549167 -0.038319305
0000e0 b0 11 42 3c d0 4e 83 bd 58 d1 23 bd 7b 46 a1 3d
       0.011845037 -0.06411517 -0.039994568 0.07874771
0000f0 59 29 97 3d 9e 0b 32 3d e0 3c 9c bb 10 b9 50 3c
       0.07380933 0.04346811 -0.004767999 0.012739435
000100 cd e3 89 3d dd 70 ac 3d c1 ab 87 3d 02 4a 0c 3d
       0.06732903 0.084199645 0.06624556 0.034250267
000110 18 a0 21 bc 9e 5e 21 3d c8 95 ef 3c cb 41 11 bd
       -0.0098648295 0.039396875 0.029246226 -0.035463136
000120 95 d7 19 bd c2 58 7e bd 4c 12 b6 3c b6 6c 16 3d
       -0.03755911 -0.062096365 0.022225522 0.03672477
000130 52 e8 72 3d 00 0f 9c bd ef 70 b2 3d c7 1e 23 bd
       0.05930359 -0.076200485 0.087129466 -0.039824273
000140 7e 57 43 3d 1a dd 7f bd c3 5f 6d bd 8e e8 fb bc
       0.04769086 -0.06246672 -0.057952654 -0.03075054
000150 54 73 a9 3c 24 1b 4b bd 10 a9 5b bd 5d 01 32 bd
       0.020684876 -0.04958643 -0.053628027 -0.04345833
000160 c0 b6 bd bc 78 d8 f3 bc 3b 29 9a 3d 30 44 db 3c
       -0.023158431 -0.029766306 0.07527395 0.026765913
000170 0c 51 8c 3c 77 70 a5 3d 8d 80 88 3d c1 ee 96 bd
       0.01712849 0.080780916 0.06665144 -0.073697574
000180 69 04 06 bd 8e fc 2c 3d 7e e0 7e 3d 45 ae 13 bd
       -0.03271905 0.042233042 0.06222581 -0.03605487
000190 a0 c5 6f bb 35 ec 13 bd 80 53 3e 3b 8f 26 85 3d
       -0.00365863 -0.036113936 0.002904147 0.06501495
0001a0 4d 79 a4 3d 66 ca 16 3d 09 13 91 3d c9 92 87 3d
       0.08030949 0.036814116 0.07083709 0.06619794
0001b0 18 3a 11 3c 0e 2c 5f 3d 08 97 56 3c c5 02 a8 3d
       0.008863948 0.054485373 0.013097532 0.08203653
0001c0 1c fc e2 bc 47 4f 96 3d b6 f8 6a bd 09 9a a8 3d
       -0.027708106 0.0733934 -0.057366095 0.08232505
0001d0 02 e3 7c 3d c2 f4 0f bd 20 b5 d9 bb 40 55 46 bd
       0.06173993 -0.03514553 -0.0066439062 -0.048421144
0001e0 9c 1e 0e 3d 0e 2e 35 3d ac 13 8e 3c be 36 17 3d
       0.03469716 0.044233374 0.017343365 0.03691744
0001f0 3e 99 a3 bd 94 0c 9a bc 64 60 a2 bc 29 86 92 3d
       -0.07988213 -0.018804826 -0.019821353 0.07154495
