log/MountainCarContinuous-v0/sac/policy.pth (torch, 353302 bytes, 25 tensors)

actor.preprocess.model.model.0.weight f4 [128, 2]
0.34157377 0.36762625 -0.36444983 -0.645931 0.18767345 -2.3754046 0.84613615 -0.09924384
-0.27301085 -0.59401196 1.211288 0.32760152 -0.06893569 0.045840025 -0.44775513 -0.39728412
-0.6771467 1.7785125 -0.47026753 -1.7716093 -0.19063605 1.7365476 -0.6515803 2.2072184
-0.6661891 0.533939 0.44735417 -1.4570084 0.91719484 1.0625781 0.66329414 -0.107774556
0.17716408 0.32100922 -0.3138922 0.3156621 1.1395406 -0.85578144 1.1394308 0.45301315
0.2493154 0.80981016 -0.3665115 0.47382355 0.66771847 -0.2528417 -0.5727101 -1.5812732
-0.7321837 0.20604979 -0.2434556 1.58027 -0.83997554 -0.7650319 -0.5596188 -1.4177809
0.22936954 -2.7650814 -0.40723196 0.13675484 0.5328936 -0.019860553 -0.35742456 0.005043402
-0.6480873 0.3636203 -0.49136394 1.9792483 0.14929467 0.46160883 0.86517954 0.07154107
0.53112197 1.5526537 0.5862662 1.3714396 -0.60039824 -0.8223615 0.39971906 1.2231461
-0.5792868 2.3467808 0.22634363 0.6652908 0.01164788 -0.5107762 -0.79708225 0.65984607
-0.023964023 -2.3340423 0.24377424 0.45812827 -0.712129 0.098550126 0.40853566 -0.123975635
-0.9162097 -0.75564384 -0.3763096 0.4984684 -0.30891573 0.6252748 -0.16049932 2.1321828
0.1545884 -0.7001966 0.49323764 0.27954713 -1.0703748 -0.8401354 -0.0794335 -0.16237426
0.4631732 0.5389858 1.0755372 -0.25335193 -0.12469685 0.15459287 0.82404876 0.45313454
-0.74196255 -0.6568327 0.15682977 0.14768314 0.734248 -0.46564114 -0.3057463 -0.02130884
0.08396924 -1.9390627 -0.21004456 0.6870659 1.082736 -0.27716404 0.91469026 0.33845174
0.31317598 0.3323931 0.13855194 0.18277265 0.54800224 0.8481341 0.6801809 -1.0014588
0.63929737 -0.8773074 -0.03045469 1.0473101 -0.70199233 -1.8415233 0.56408376 -0.25006765
-0.5208204 2.6850476 0.39344507 0.5361691 -0.4870929 0.7107161 0.3046386 1.7478262
0.03467529 1.9540704 0.48185238 -2.484419 0.3006199 0.5945286 0.5073031 -1.250801
-0.19656795 -0.23284397 0.24729908 -0.1592437 -0.38257378 -0.6281102 -0.34156564 -1.9011154
-0.21143638 1.0141252 -0.23810077 -0.19511771 -0.47433892 0.2747997 -0.43098253 2.3825624
-0.31311163 1.0986823 -0.7878188 -1.2262448 0.365173 1.113286 0.33668655 -0.13372225
-0.43979514 -1.2891487 0.77171016 0.33258724 0.94561344 -0.0046296525 0.41020185 -0.073801935
0.5598232 -0.685528 -0.11880736 1.4809567 -0.50773543 1.5882607 -0.6156483 2.4163384
1.0606555 -0.22055082 1.1441783 -0.13122907 -0.53233206 0.16626622 0.053358138 0.14725178
-0.058579743 0.19380194 0.48504272 0.45848468 -0.39873886 0.035644293 -0.13119526 2.4209478
-0.40384033 -0.5184801 0.22532973 0.31217816 0.17086223 0.65715826 -0.24929756 2.1813679
-0.7282445 -0.189574 0.18540084 1.7403706 0.85674125 -0.13861811 -0.40109438 2.1021214
-0.15788352 -0.5686077 -0.24448992 1.8325069 0.30682153 2.562326 0.5141806 0.6563352
0.6617508 0.4628359 -0.7075581 0.92429 0.11647093 -0.4470292 0.4998582 0.43615884
00000000: c2e2 ae3e 8239 bc3e 2b99 babe bc5b 25bf
00000010: 782d 403e a106 18c0 619c 583f 5b40 cbbd
00000020: 14c8 8bbe 2b11 18bf 7c0b 9b3f 63bb a73e
00000030: 282e 8dbd c0c2 3b3d 2940 e5be d368 cbbe
00000040: 7c59 2dbf 4ca6 e33f e8c6 f0be 18c4 e2bf
00000050: 1936 43be 3147 de3f f7cd 26bf 1143 0d40
00000060: 5e8b 2abf 3ab0 083f 9b0b e53e 407f babf
00000070: 48cd 6a3f 8f02 883f a5cd 293f e8b8 dcbd
00000080: 806a 353e 525b a43e 7ab6 a0be 769e a13e
00000090: 77dc 913f 7e14 5bbf ded8 913f 57f1 e73e
000000a0: 894c 7f3e b84f 4f3f 65a7 bbbe 0099 f23e
000000b0: 99ef 2a3f 7874 81be 219d 12bf 2967 cabf
000000c0: 6470 3bbf b7fe 523e 6d4c 79be 4a46 ca3f
000000d0: a308 57bf 21d9 43bf 2d43 0fbf d879 b5bf
000000e0: d9df 6a3e 18f7 30c0 b580 d0be 7609 0c3e
000000f0: b76b 083f 99b2 a2bc 5a00 b7be 1f43 a53b
00000100: 0de9 25bf 712c ba3e 0e94 fbbe 0258 fd3f
00000110: b4e0 183e fe57 ec3e 687c 5d3f 2084 923d
00000120: 9cf7 073f 5bbd c63f 8b15 163f 558b af3f
00000130: b3b3 19bf 4986 52bf faa7 cc3e 0d90 9c3f
00000140: 244c 14bf a831 1640 a0c6 673e 7f50 2a3f
00000150: c0d6 3e3c 3bc2 02bf 950d 4cbf aceb 283f
00000160: 3350 c4bc f360 15c0 f49f 793e ca8f ea3e
00000170: 164e 36bf a6d4 c93d 962b d13e f0e6 fdbd
00000180: b88c 6abf e071 41bf a7ab c0be 4037 ff3e
00000190: 342a 9ebe 0212 203f ef59 24be af75 0840
000001a0: 6c4c 1e3e 1640 33bf a589 fc3e cd20 8f3e
000001b0: 0b02 89bf 1d13 57bf 08ae a2bd 7045 26be
000001c0: 0a25 ed3e f9fa 093f 34ab 893f 58b7 81be
000001d0: 1061 ffbd 984d 1e3e dcf4 523f 4001 e83e
000001e0: 42f1 3dbf 3026 28bf fc97 203e 403a 173e
000001f0: adf7 3b3f 8468 eebe c78a 9cbe e08f aebc
00000200: 11f8 ab3d 3533 f8bf ec15 57be 8de3 2f3f
00000210: 1897 8a3f 72e8 8dbe 2429 6a3f 8c49 ad3e
00000220: 9a58 a03e 6e2f aa3e 8fe0 0d3e c128 3b3e
00000230: e049 0c3f 511f 593f 5620 2e3f cd2f 80bf
00000240: fea8 233f 3897 60bf 1d7c f9bc 420e 863f
00000250: c5b5 33bf 09b7 ebbf cb67 103f de08 80be
00000260: 7c54 05bf d2d7 2b40 a271 c93e 6142 093f
00000270: 3e64 f9be 7ef1 353f 97f9 9b3e c5b8 df3f
00000280: ad07 0e3d fb1e fa3f 5bb5 f63e b900 1fc0
00000290: daea 993e 0733 183f 9ede 013f 3f1a a0bf
000002a0: 1c49 49be a66e 6ebe f83b 7d3e c810 23be
000002b0: b6e0 c3be d4cb 20bf b1e1 aebe c057 f3bf
000002c0: c782 58be dbce 813f b0d0 73be f0cc 47be
000002d0: 8ddc f2be 8cb2 8c3e bea9 dcbe e77b 1840
000002e0: 2b50 a0be 9fa1 8c3f 7eae 49bf 97f5 9cbf
000002f0: f5f7 ba3e 2880 8e3f 2e62 ac3e 7cee 08be
00000300: d42c e1be d302 a5bf cc8e 453f e048 aa3e
00000310: b913 723f 57b4 97bb fa05 d23e 7825 97bd
00000320: 9350 0f3f c37e 2fbf 4651 f3bd fd8f bd3f
00000330: f3fa 01bf 204c cb3f 219b 1dbf 4aa5 1a40
00000340: 8fc3 873f 13d8 61be 6f74 923f ea60 06be
00000350: ea46 08bf b141 2a3e 108e 5a3d 2cc9 163e
00000360: 50f1 6fbd 0474 463e 8557 f83e 81be ea3e
00000370: 8027 ccbe c0ff 113d 0d58 06be cff0 1a40
00000380: 29c4 cebe 1dbb 04bf d6bc 663e d1d5 9f3e
00000390: 82f6 2e3e 863b 283f dc47 7fbe 889b 0b40
000003a0: 3b6e 3abf b01f 42be b8d9 3d3e 77c4 de3f
000003b0: 6553 5b3f e8f1 0dbe 3e5c cdbe 2889 0640
000003c0: 38ac 21be 4690 11bf 915b 7abe 968f ea3f
000003d0: b617 9d3e 26fd 2340 57a1 033f 9505 283f
000003e0: 8068 293f d4f8 ec3e 8722 35bf 459e 6c3f
000003f0: 5088 ee3d 03e1 e4be 6aed ff3e 3650 df3e

actor.preprocess.model.model.0.bias f4 [128]
-0.2204833 0.5383788 0.26992524 0.0650866 -0.39717528 0.13501215 -0.52904 -0.70652694
-0.23436035 0.21733798 0.18936326 -0.36655942 -0.23376884 0.39889452 0.12692373 -0.3112854
-0.490758 -0.6351325 0.19049264 0.1509734 0.29998302 0.43682045 -0.5609178 -0.008566445
0.5001638 0.5203463 -0.3276839 0.4667244 0.34270644 -0.09776439 -0.2403875 0.24585834
0.0109181525 -0.2767988 -0.64559615 0.14229594 0.6174319 0.53951013 0.53136915 0.6340737
-0.32851574 -0.7016028 -0.5153427 -0.2850246 0.15536463 -0.606817 0.24723817 -0.43767697
0.016318854 -0.45239684 -0.017806517 0.102207735 -0.63909096 0.055399507 0.022347713 -0.1314978
-0.3398807 0.1789538 -0.39247397 0.41961944 0.07784291 -0.31526524 0.59174895 -0.57103324
0.15691376 -0.32685664 0.18247628 0.39974263 -0.17254883 0.5351078 0.07497926 0.5646044
0.523147 0.45573008 0.0029353136 0.49138805 -0.2971986 -0.6615646 0.5201131 0.53865844
0.54753757 0.4408443 -0.50135016 0.44976074 -0.29721233 -0.4586119 -0.29995087 -0.16272373
0.5157845 -0.47417217 -0.11480747 -0.19745237 0.48438376 0.009605035 0.061314154 -0.17154914
0.2868612 0.12814085 0.54454577 -0.22496167 -0.51802903 0.16562413 0.52967066 -0.34855387
0.08294077 0.096406564 0.06687891 -0.37169322 -0.17347139 0.08049384 -0.57196045 -0.04954147
-0.1532459 0.31601253 0.5300962 -0.14974348 0.014283521 0.1992288 0.49719974 0.55129105
-0.43290833 0.34868968 0.33872563 -0.59947103 0.5429227 0.09597685 -0.29125595 -0.5393001
00000000: 60c6 61be 31d3 093f a433 8a3e 204c 853d
00000010: 8f5a cbbe a040 0a3e 2a6f 07bf f3de 34bf
00000020: 29fc 6fbe d98d 5e3e 71e8 413e adad bbbe
00000030: 1961 6fbe e73b cc3e 4bf8 013e cd60 9fbe
00000040: a244 fbbe 0b98 22bf 8110 433e c598 1a3e
00000050: 6097 993e eea6 df3e 4f98 0fbf 465a 0cbc
00000060: bc0a 003f 6a35 053f 2fc6 a7be 80f6 ee3e
00000070: 3877 af3e b238 c8bd 2428 76be 4ac2 7b3e
00000080: 0de2 323c 93b8 8dbe ca45 25bf 07b6 113e
00000090: 0410 1e3f 561d 0a3f cf07 083f a752 223f
000000a0: 3733 a8be 3e9c 33bf 80ed 03bf bfee 91be
000000b0: e817 1f3e 5c58 1bbf 012c 7d3e 3217 e0be
000000c0: 1eaf 853c 8fa0 e7be f9de 91bc 4a52 d13d
000000d0: 779b 23bf 98ea 623d 8d12 b73c 5ca7 06be
000000e0: d804 aebe aa3f 373e 59f2 c8be 5cd8 d63e
000000f0: 1b6c 9f3d 726a a1be dc7c 173f 3c2f 12bf
00000100: 00ae 203e c159 a7be 10db 3a3e 11ab cc3e
00000110: a4b0 30be d3fc 083f ba8e 993d ea89 103f
00000120: f6ec 053f 7455 e93e 645e 403b 3797 fb3e
00000130: 6a2a 98be 4c5c 29bf 2226 053f 85e5 093f
00000140: 6c2b 0c3f 58b6 e13e 7c58 00bf 0a47 e63e
00000150: 372c 98be 2ecf eabe 2993 99be 0da1 26be
00000160: 740a 043f b2c6 f2be 2e20 ebbd f430 4abe
00000170: 2601 f83e 705e 1d3c 8d24 7b3d 94aa 2fbe
00000180: 79df 923e 5b37 033e 5a67 0b3f 5a5c 66be
00000190: 8d9d 04bf 5f99 293e 7f98 073f a775 b2be
000001a0: dadc a93d ce70 c53d cff7 883d 934e bebe
000001b0: 7ca2 31be f4d9 a43d 006c 12bf ffeb 4abd
000001c0: 7eec 1cbe 65cc a13e 62b4 073f 5b56 19be
000001d0: 6e05 6a3c a202 4c3e f790 fe3e 6921 0d3f
000001e0: 29a6 ddbe 7487 b23e 726d ad3e ef76 19bf
000001f0: fbfc 0a3f 838f c43d 801f 95be 920f 0abf

actor.preprocess.model.model.2.weight f4 [128, 128]
0.06746543 -0.013412583 -0.01422319 -0.05803465 0.002315186 -0.06586456 0.08322399 0.02905853
-0.01934281 -0.07889203 -0.021434283 0.08273523 -0.01555305 0.052602403 0.066877134 -0.033735916
0.0024006441 0.043017887 0.061280865 -0.07811837 0.02551477 0.057080384 -0.043598175 0.0293219
0.048886027 -0.051515058 0.054461397 -0.0013182154 -0.089286216 -0.055694614 0.024454989 0.047615048
-0.057839524 0.02821698 0.08296623 -0.029855162 0.034412995 -0.03800651 0.06555169 -0.034312494
0.05579848 -0.03608064 -0.022489265 0.045695253 -0.06424722 0.0066711307 -0.044020634 -0.08120039
-0.07145149 -0.044461615 -0.058013998 0.04689455 0.07971009 0.011238575 0.0074944426 -0.07703913
0.07105634 0.040931616 0.0015961975 0.051212557 -0.038161486 -0.010805659 -0.08732829 -0.044088922
0.024693608 -0.050012324 0.036868554 0.013587867 -0.04443755 0.0179496 -0.06942784 0.08082303
0.041495252 0.072605886 0.08146335 0.08232086 0.029613331 -0.055779573 -0.08304863 -0.011607479
-0.05880895 -0.03404767 0.070737295 0.016761499 -0.04222017 -0.07655574 0.03805498 -0.07536107
0.02464551 0.07505349 -0.06795072 0.049352784 -0.0688635 0.07067973 0.041157722 0.035119385
-0.07521296 0.067269914 -0.01953521 -0.020762034 -0.017520562 0.018556036 -0.028441465 0.05697126
0.070566334 -0.07879327 -0.048111875 0.025769077 0.08348135 -0.05456053 -0.08767838 0.0023653135
0.020769004 0.082148105 -0.040962134 0.02157472 -0.06811531 0.012926306 0.04843341 0.059800267
-0.024296127 0.03912421 -0.08579595 -0.050977476 -0.040898558 0.027732132 0.044391997 0.030042045
-0.08615874 0.071404524 -0.09065072 0.018093431 -0.04232848 -0.0906569 -0.013885543 -0.08492935
0.0698828 -0.033070624 -0.048320644 -0.05735798 -0.08708945 -0.0664015 0.069981895 -0.024076812
-0.05470668 -0.009089023 -0.05637719 0.060485285 0.07202285 0.0040506385 -0.044790782 -0.08131098
0.019363666 -0.050008398 0.06858512 0.06859001 0.003734733 -0.018583983 -0.011347217 -0.09341551
0.033368003 0.050574727 0.05441325 0.037095625 0.039912883 0.04563076 -0.07082314 -0.05795178
-0.032370035 0.017825902 -0.08028418 -0.07545674 -0.08839897 -0.04228212 -0.08353703 0.02086687
0.026222529 -0.06740199 -0.04600533 0.015358278 0.009066746 0.019332424 0.0828594 0.011008143
0.015500069 -0.071061656 0.083659075 0.062994696 0.051241614 0.08779039 -0.05653266 0.011496596
-0.05991269 0.059132136 0.04376441 -0.029501814 0.038370125 -0.027428158 0.07348649 0.018162312
0.05939723 0.012299197 -0.008255476 -0.05459168 0.021416828 0.07417294 -0.047034163 0.050152935
0.0066307606 -0.06741459 0.02276095 0.009565927 -0.033371378 0.040385865 -0.012020469 -0.0051873103
0.020719089 -0.023820944 -0.05149136 -0.03452699 0.06416792 0.048582185 0.019415004 0.045609094
0.029666472 -0.08752773 -0.071186386 0.057512097 0.066445924 -0.09517247 0.015320939 -0.0028994903
-0.05886091 0.06479112 -0.00080387306 0.027318574 0.08276837 -0.074792765 0.0156594 -0.08095754
0.05298913 -0.05821867 0.0039191805 -0.0821618 -0.0043322896 0.031385135 0.07213714 -0.09143498
-0.004667945 -0.0398739 0.053570963 0.08211071 -0.0046385755 -0.0054454473 -0.05973361 -0.082035534
00000000: 512b 8a3d 73c0 5bbc 6208 69bc beb5 6dbd
00000010: 60ba 173b 00e4 86bd 5771 aa3d 280c ee3c
00000020: d074 9ebc 2592 a1bd f396 afbc 1771 a93d
00000030: 38d2 7ebc 9e75 573d e1f6 883d ac2e 0abd
00000040: 2054 1d3b 8633 303d a501 7b3d 86fc 9fbd
00000050: 5a04 d13c 1fcd 693d 0094 32bd 7b34 f03c
00000060: b73c 483d 7401 53bd ea12 5f3d f8c7 acba
00000070: b1db b6bd 0920 64bd d455 c83c ff07 433d
00000080: 23e9 6cbd 4c27 e73c 33ea a93d d092 f4bc
00000090: a4f4 0c3d b7ac 1bbd f73f 863d 428b 0cbd
000000a0: f28c 643d 4bc9 13bd 683b b8bc f22a 3b3d
000000b0: 0c94 83bd 8099 da3b fb4e 34bd 644c a6bd
000000c0: 2955 92bd 621d 36bd 16a0 6dbd 8014 403d
000000d0: 0b3f a33d 0022 383c f193 f53b b1c6 9dbd
000000e0: fd85 913d e9a7 273d 8037 d13a 42c4 513d
000000f0: 384f 1cbd 380a 31bc 2dd9 b2bd 9696 34bd
00000100: 404a ca3c b9d9 4cbd 7b03 173d a59f 5e3c
00000110: 2604 36bd 0a0b 933c 2f30 8ebd 8b86 a53d
00000120: edf6 293d 65b2 943d 42d6 a63d d797 a83d
00000130: a897 f23c 1f79 64bd 6615 aabd 4c2d 3ebc
00000140: a7e1 70bd 9275 0bbd b7de 903d 694f 893c
00000150: 0fef 2cbd 41c9 9cbd 8adf 1b3d e856 9abd
00000160: 61e5 c93c a5b5 993d bf29 8bbd 2526 4a3d
00000170: 4f08 8dbd 89c0 903d 0095 283d 58d9 0f3d
00000180: 4109 9abd cfc4 893d 4e08 a0bc 2415 aabc
00000190: 4887 8fbc d402 983c 13fe e8bc b25a 693d
000001a0: 1585 903d 5e5e a1bd f510 45bd ac19 d33c
000001b0: 45f8 aa3d dd7a 5fbd b990 b3bd 6003 1b3b
000001c0: c223 aa3c 443d a83d e9c7 27bd 78bd b03c
000001d0: 0a80 8bbd dbc8 533c 1c62 463d 20f1 743d
000001e0: ac08 c7bc b540 203d c9b5 afbd c2cd 50bd
000001f0: 3f85 27bd 7f2e e33c 62d4 353d bc1a f63c
00000200: fe73 b0bd 893c 923d 16a7 b9bd ad38 943c
00000210: a160 2dbd 53aa b9bd 3080 63bc 70ef adbd
00000220: b71e 8f3d 1075 07bd deeb 45bd 34f0 6abd
00000230: f45b b2bd 82fd 87bd ab52 8f3d bc3c c5bc
00000240: 1d14 60bd 20ea 14bc c5eb 66bd 6bbf 773d
00000250: b780 933d 38bb 843b 8a76 37bd 5f86 a6bd
00000260: 8da0 9e3c 9bd5 4cbd 5b76 8c3d eb78 8c3d
00000270: 6cc2 743b 703d 98bc ade9 39bc a250 bfbd
00000280: e3ac 083d 7227 4f3d 6ee0 5e3d 95f1 173d
00000290: b17b 233d 52e7 3a3d b90b 91bd d85e 6dbd
000002a0: 7196 04bd a007 923c 086c a4bd 1089 9abd
000002b0: 850a b5bd 0430 2dbd 7615 abbd 00f1 aa3c
000002c0: a1d0 d63c 0e0a 8abd 1670 3cbd 49a1 7b3c
000002d0: b08c 143c 085f 9e3c 30b2 a93d 805b 343c
000002e0: 00f4 7d3c c688 91bd 7355 ab3d 5d03 813d
000002f0: bae2 513d 73cb b33d ca8e 67bd 385c 3c3c
00000300: 0267 75bd 8a34 723d 4f42 333d caad f1bc
00000310: fe29 1d3d 04b1 e0bc 1680 963d 21c9 943c
00000320: 834a 733d 9282 493c fa41 07bc 879b 5fbd
00000330: 5872 af3c fbe7 973d e5a6 40bd 2a6d 4d3d
00000340: da46 d93b a910 8abd 2c75 ba3c 68ba 1c3c
00000350: 6db0 08bd a66b 253d 80f1 44bc 50fa a9bb
00000360: 14bb a93c 2424 c3bc 9be8 52bd 2c6c 0dbd
00000370: 786a 833d 1dfe 463d 370c 9f3c 9ad0 3a3d
00000380: 1a07 f33c bd41 b3bd 2bca 91bd ce91 6b3d
00000390: cd14 883d c9e9 c2bd ad04 7b3c 6005 3ebb
000003a0: 2318 71bd 35b1 843d 02bb 52ba 34cb df3c
000003b0: 7782 a93d f32c 99bd 2448 803c 11cd a5bd
000003c0: 210b 593d b376 6ebd 786c 803b 7244 a8bd
000003d0: e1f5 8dbb b38d 003d a3bc 933d 4342 bbbd
000003e0: 90f5 98bb d152 23bd 3a6d 5b3d a929 a83d
000003f0: 31ff 97bb b96f b2bb 3bab 74bd 3f02 a8bd

actor.preprocess.model.model.2.bias f4 [128]
-0.06732404 0.075346075 0.045191854 -0.01993402 -0.021630341 -0.06535914 -0.07466597 0.117684945
0.08376437 -0.05200601 0.014966938 0.043186016 0.03714675 -0.027513457 -0.07518543 -0.07434555
-0.040608224 -0.059489787 -0.059357945 0.034794673 -0.080678955 0.045614433 0.08152462 -0.08645213
0.020351576 0.07095889 -0.014941181 -0.06436595 0.048582137 0.0423602 -0.03717197 0.036330964
-0.016670398 -0.065986104 0.059181396 0.048792295 -0.019523218 0.08032775 -0.06040035 0.0071169552
-0.09734925 0.07799425 -0.056671288 0.0480642 -0.018845322 -0.011290114 -0.08665391 -0.056221586
0.017313944 0.0143396435 0.054334976 0.03978435 0.068114616 0.046705265 0.048418507 -0.075440876
-0.023221133 0.074720345 0.041511018 0.05073295 0.056276876 0.03552764 0.06353094 0.08533483
0.036580462 0.040567257 0.02963481 -0.0274361 -0.06656786 0.028623706 -0.06332626 -0.046150405
0.022505965 -0.07564452 0.037304293 0.047740284 0.021353014 0.07587493 -0.07507019 -0.039361995
0.010806332 -0.039790135 0.058129705 -0.048421748 -0.0065841284 0.012681208 -0.002968251 -0.0022072718
0.06842307 0.010704775 0.036901735 0.089856446 0.014420169 -0.047379754 -0.049389645 -0.03484668
0.015664332 0.05079323 0.053147532 -0.046198543 0.0073616463 -0.03687764 0.032669872 0.076213986
0.0756672 -0.081589 -0.08197816 -0.05280685 -0.08696174 -0.0484986 -0.08652021 0.076549515
0.03000468 -0.077988215 -0.05016097 -0.014965586 -0.07100539 0.03724204 0.0705909 -0.09352448
0.075628005 -0.09887669 -0.05847581 -0.04481891 0.08605423 0.046252377 -0.026016546 -0.07999123
00000000: 30e1 89bd 0b4f 9a3d 181b 393d ab4c a3bc
00000010: 1d32 b1bc 03db 85bd 79ea 98bd ce04 f13d
00000020: a78c ab3d 4104 55bd e337 753c d2e3 303d
00000030: 3127 183d e763 e1bc d2fa 99bd 7b42 98bd
00000040: cf54 26bd 90ab 73bd 5121 73bd dc84 0e3d
00000050: 023b a5bd 33d6 3a3d 61f6 a63d d00d b1bd
00000060: 59b8 a63c e552 913d dbcb 74bc 4cd2 83bd
00000070: 10fe 463d e481 2d3d a341 18bd c7cf 143d
00000080: 5c90 88bc b923 87bd 3168 723d 6eda 473d
00000090: 28ef 9fbc e082 a43d 5b66 77bd 5935 e93b
000000a0: 0b5f c7bd 73bb 9f3d 2720 68bd f7de 443d
000000b0: 8161 9abc 2cfa 38bc 9b77 b1bd 9b48 66bd
000000c0: f9d5 8d3c d3f0 6a3c 5a8e 5e3d eaf4 223d
000000d0: ad7f 8b3d 054e 3f3d 7c52 463d bf80 9abd
000000e0: 3f3a bebc fb06 993d 7507 2a3d 5bcd 4f3d
000000f0: 9582 663d 6e85 113d 821c 823d 07c4 ae3d
00000100: 65d5 153d da29 263d b3c4 f23c acc1 e0bc
00000110: bb54 88bd 437c ea3c 33b1 81bd 3508 3dbd
00000120: 6e5e b83c 84eb 9abd 63cc 183d 518b 433d
00000130: 84ec ae3c 5164 9b3d 66be 99bd 0b3a 21bd
00000140: 0b0d 313c fbfa 22bd 6a19 6e3d e255 46bd
00000150: acbf d7bb d7c4 4f3c fd86 42bb e0a7 10bb
00000160: 6521 8c3d 1563 2f3c 4626 173d a806 b83d
00000170: 9342 6c3c 4611 42bd cc4c 4abd 64bb 0ebd
00000180: 7c52 803c 900c 503d 3ab1 593d af3a 3dbd
00000190: f739 f13b 020d 17bd d8d0 053d 1416 9c3d
000001a0: 68f7 9a3d 2218 a7bd 2ae4 a7bd ff4b 58bd
000001b0: ff18 b2bd 78a6 46bd 8231 b1bd fec5 9c3d
000001c0: 60cc f53c 49b8 9fbd 9775 4dbd 3832 75bc
000001d0: 466b 91bd 1c8b 183d f691 903d c389 bfbd
000001e0: dbe2 9a3d dd7f cabd 5584 6fbd 0994 37bd
000001f0: 333d b03d 2273 3d3d a720 d5bc 71d2 a3bd

actor.mu.model.0.weight f4 [1, 128]
0.03580117 0.00016944567 -0.32189867 -0.04808213 0.020784138 0.0788145 -0.0017953595 0.14599144
0.14906266 0.049156442 0.26779312 -0.050139956 -0.02384565 0.2742106 -0.025842933 0.033249266
-0.0033824071 -1.1595572 0.05914943 0.038892142 -0.34850487 0.1463518 0.34570464 0.005526101
-0.002649674 0.0648206 0.20583135 0.024190292 0.36679655 0.33888572 -0.06020087 -0.0021905503
-0.0637626 0.06013479 -0.007540632 0.08743768 -0.07623431 -0.00018493817 0.06286633 0.0056986744
-0.05090438 0.19135527 0.018165912 0.009965427 -0.2597305 -0.017261786 0.058354698 0.15036987
-0.035535254 0.073624566 -0.3322776 -0.03196685 -0.028038159 0.06165392 0.17174257 -0.082644135
0.3465466 0.2808098 0.08286859 0.17324409 0.12473658 0.26786324 0.171262 0.18788235
0.002762265 -0.0113184275 -0.0048564402 -0.19045731 0.018830515 0.32205606 0.06561533 0.23500277
-0.081429966 0.0017033368 0.024150345 0.029218188 -0.0028106077 0.045179963 -0.039239775 0.012393743
0.07743288 -0.019167408 0.011937967 -0.016370798 -0.067343086 0.07611602 -0.01497231 -0.05314095
0.06493292 0.082163066 0.017337598 -0.17731522 -0.00073949376 -0.079841316 -0.1455475 0.035192892
-0.05268885 0.2777647 0.03607951 -0.02766716 -0.0033664866 0.08035711 0.03204651 -0.03931714
0.29215315 -0.026571179 -0.056366563 -0.06313072 0.024552554 0.0054924344 -0.055912808 0.30061015
0.06889499 -0.01781806 0.16066715 -0.030019082 -0.019574016 -0.23665519 0.2050467 -0.033156533
0.0053498447 -0.057283316 0.016317792 -0.04431749 -0.011242591 0.13536058 -0.1517694 0.008557759
00000000: 3fa4 123d 3aad 3139 e7cf a4be c4f1 44bd
00000010: 7f43 aa3c 7f69 a13d 4552 ebba c87e 153e
00000020: e2a3 183e 4458 493d 2e1c 893e 8e5f 4dbd
00000030: f457 c3bc 5565 8c3e 8fb4 d3bc 6230 083d
00000040: 60ab 5dbb 5f6c 94bf ac46 723d 5e4d 1f3d
00000050: 3b6f b2be 3fdd 153e 3300 b13e 4c14 b53b
00000060: 27a6 2dbb aac0 843d 74c5 523e b82a c63c
00000070: c2cc bb3e 6e82 ad3e 3095 76bd 568f 0fbb
00000080: f795 82bd e64f 763d 6817 f7bb 8712 b33d
00000090: bc20 9cbd f6eb 41b9 10c0 803d f2bb ba3b
000000a0: 1c81 50bd a3f2 433e aed0 943c 0846 233c
000000b0: 65fb 84be 9768 8dbc 5605 6f3d 8ffa 193e
000000c0: 6a8d 11bd 7ac8 963d 4a20 aabe acef 02bd
000000d0: 48b0 e5bc d288 7c3d 49dd 2f3e 5441 a9bd
000000e0: 8e6e b13e 4dc6 8f3e 02b7 a93d e666 313e
000000f0: e475 ff3d 5f25 893e 4e5f 2f3e 3b64 403e
00000100: 1e07 353b ed70 39bc c622 9fbb 3e07 43be
00000110: 7442 9a3c 88e4 a43e 5561 863d 91a4 703e
00000120: c1c4 a6bd 8042 df3a f2d6 c53c fb5a ef3c
00000130: 2c32 38bb a00e 393d e3b9 20bd 200f 4b3c
00000140: 2195 9e3d f804 9dbc 7697 433c 0d1c 86bc
00000150: 2ceb 89bd b7e2 9b3d 6b4e 75bc 53aa 59bd
00000160: 8dfb 843d 1c45 a83d 9407 8e3c 1f92 35be
00000170: 96da 41ba d883 a3bd 670a 15be 6c26 103d
00000180: 43d0 57bd 2d37 8e3e 1cc8 133d 3da6 e2bc
00000190: 46a0 5cbb 4592 a43d 3443 033d 020b 21bd
000001a0: 1995 953e cdab d9bc a0e0 66bd ae4a 81bd
000001b0: 7022 c93c e1f9 b33b d404 65bd 93e9 993e
000001c0: d118 8d3d 2ef7 91bc ee85 243e 94ea f5bc
000001d0: b059 a0bc bd55 72be c3f7 513e 25cf 07bd
000001e0: c04d af3b e9a1 6abd e4ac 853c 4286 35bd
000001f0: d832 38bc f79b 0a3e 7069 1bbe d835 0c3c

critic1.preprocess.model.model.0.weight f4 [128, 3]
0.37904575 0.8138594 0.55879384 -0.35835388 -1.1615375 0.2620372 0.3969342 1.2873443
0.06623022 1.0873758 2.4554377 0.003064908 0.8259313 2.0916386 -0.030747583 -0.65018564
-0.041096516 -0.22119403 0.43150127 0.6798769 -0.38945833 -0.18974586 -0.88041276 -0.07627516
0.45504308 0.9721338 0.28361544 0.19855908 -0.75253373 -0.55858535 1.3462621 1.1160696
0.050522447 0.34370187 -0.41461927 0.06784745 0.42888564 -0.5830335 -0.14719154 -0.31816345
-0.26280305 -0.5550421 0.040881254 -0.6069214 -0.10821531 -0.37672153 -0.75211066 -0.3848282
-0.31983072 -0.54758763 0.24855776 -0.35164863 -0.37134987 -0.5592872 0.75122887 1.1747947
0.5945089 0.4662573 0.4820369 0.38970783 0.7183517 1.2218806 0.18125933 -0.70936155
-0.5002488 0.4694618 1.2069179 1.8501226 0.046279993 0.62743574 1.2709508 0.49695975
-0.6448853 -1.1458633 0.42505956 -0.01960173 0.6984176 0.4275621 0.5488323 1.4310492
0.46131152 0.11304315 0.69510543 -0.25406983 -1.2485849 -1.7150766 0.043588657 -1.1097292
0.741649 0.011287197 -0.7918449 -1.4008347 0.33828497 0.30420208 0.07939001 0.40447056
0.5224903 0.8217365 0.3944558 0.47404924 1.0604334 0.49782592 0.6155886 1.9643041
0.004376774 -0.5006485 0.007304568 0.38514605 -0.104909465 -0.4440887 0.31382778 0.19464938
-0.5037139 0.16101824 -0.3460327 -0.6290178 -0.49537668 0.5663882 1.8221831 0.1350548
-0.5491709 -0.053037643 -0.15414517 -0.65637034 -0.49923757 0.54738533 0.71576893 0.9529742
-0.43486643 0.29036087 1.1101135 0.14164712 -0.62436116 0.11415087 -0.30473724 -0.6240015
-1.1311165 0.13485101 -0.69494855 -1.6333908 0.42283735 -0.337834 0.31209686 -0.022727937
-0.15067075 -1.3430381 0.22178449 -0.03292888 -0.3886568 0.4849526 0.52181476 1.2004069
0.38161322 0.4398291 1.4631717 0.2454039 -0.4111156 -1.4486382 -0.3652973 -0.8786131
0.09927944 -0.012449675 -0.98539704 -0.20339942 -0.17256227 0.6232444 1.7350917 0.33251384
0.28857985 1.0846549 0.3156098 0.33008388 0.8910556 0.21081947 0.48884666 0.30275816
-0.42185318 0.32174456 0.29699922 0.004933119 0.8096582 1.6028806 0.29166603 0.8304639
1.7167013 0.06650795 -0.6052673 -0.19989398 -0.33099103 -0.30061704 -0.46135923 -0.16208532
0.58177316 1.4379699 -0.19330782 -0.52609694 -0.85336447 0.49941194 -0.21161187 -0.7366632
0.1675757 -0.2255541 -0.62085265 0.49077654 -0.42317033 -0.50662935 -0.3105875 0.5539203
1.1097891 0.13911909 0.24643703 0.9612422 0.36263695 0.4148696 1.4847655 0.39031452
-0.51519644 -0.020372728 -0.42377967 -0.7950603 -0.5928537 0.39438012 0.34657747 -1.0471463
-0.36978635 -1.2613469 -0.4187617 0.05785644 -1.2638922 0.9557094 0.00987664 0.46889377
1.3007562 0.44486418 -1.1224242 1.714959 0.043753278 0.7659938 1.1466197 -0.18355228
0.7156864 0.9448658 0.05844013 0.5983673 0.80466944 -0.35021833 -0.83274484 -1.3000648
0.12151095 0.4320572 0.33208302 0.41769326 0.63216865 1.9248589 0.3554615 0.72102094
00000000: 4912 c23e 1759 503f 1d0d 0f3f 297a b7be
00000010: 43ad 94bf bd29 863e f63a cb3e b3c7 a43f
00000020: b6a3 873d 212f 8b3f e425 1d40 a0dc 483b
00000030: 3c70 533f 68dd 0540 5be2 fbbc 9172 26bf
00000040: d254 28bd b080 62be bced dc3e 6a0c 2e3f
00000050: 1567 c7be bd4c 42be bb62 61bf 2736 9cbd
00000060: 68fb e83e c3dd 783f 0b36 913e 1253 4b3e
00000070: 0da6 40bf 73ff 0ebf 5152 ac3f 5edb 8e3f
00000080: a0f0 4e3d b1f9 af3e fa48 d4be 9bf3 8a3d
00000090: e696 db3e af41 15bf 61b9 16be 52e6 a2be
000000a0: 1f8e 86be 3d17 0ebf 1a73 273d 335f 1bbf
000000b0: fd9f ddbd a5e1 c0be 538a 40bf 3408 c5be
000000c0: dac0 a3be b42e 0cbf ed85 7e3e 4a0b b4be
000000d0: 9221 bebe 722d 0fbf 8950 403f ac5f 963f
000000e0: bc31 183f 47b9 ee3e 8acd f63e c987 c73e
000000f0: e6e5 373f 9566 9c3f 0c9c 393e b898 35bf
00000100: 4e10 00bf 4c5d f03e 497c 9a3f d1d0 ec3f
00000110: 1790 3d3d a19f 203f 84ae a23f 8271 fe3e
00000120: 3417 25bf a6ab 92bf 68a1 d93e cf93 a0bc
00000130: 7fcb 323f 6be9 da3e 4680 0c3f 9f2c b73f
00000140: 0631 ec3e 2b83 e73d 6ef2 313f 7115 82be
00000150: a1d1 9fbf a187 dbbf 058a 323d 9b0b 8ebf
00000160: b5dc 3d3f efed 383c 59b6 4abf 8d4e b3bf
00000170: b033 ad3e 60c0 9b3e 3b97 a23d c416 cf3e
00000180: edc1 053f 535d 523f 1cf6 c93e 95b6 f23e
00000190: 48bc 873f 0ae3 fe3e 3797 1d3f 516e fb3f
000001a0: 0b6b 8f3b 802a 00bf 285b ef3b dd31 c53e
000001b0: c6da d6bd 985f e3be 09ae a03e 2b52 473e
000001c0: 65f3 00bf f7e1 243e 332b b1be 4f07 21bf
000001d0: 03a2 fdbe d1fe 103f 4c3d e93f ce4b 0a3e
000001e0: 7796 0cbf 003e 59bd 3bd8 1dbe e307 28bf
000001f0: 119c ffbe 7221 0c3f a23c 373f 1ef6 733f
00000200: d0a6 debe 2eaa 943e 3318 8e3f f10b 113e
00000210: 22d6 1fbf eec7 e93d 8506 9cbe 90be 1fbf
00000220: 6dc8 90bf 6216 0a3e 26e8 31bf f312 d1bf
00000230: 237e d83e 94f8 acbe 29cb 9f3e f02f babc
00000240: 6f49 1abe ace8 abbf 791b 633e 6fe0 06bd
00000250: 06fe c6be b54b f83e a795 053f efa6 993f
00000260: cf62 c33e 4831 e13e 3649 bb3f 294b 7b3e
00000270: be7d d2be fa6c b9bf 3f08 bbbe caec 60bf
00000280: 0553 cb3d b9f9 4bbc fb42 7cbf f047 50be
00000290: 2ab4 30be f28c 1f3f 7c17 de3f 413f aa3e
000002a0: bdc0 933e f9d5 8a3f 9c97 a13e c100 a93e
000002b0: 381c 643f 0fe1 573e 1c4a fa3e 1e03 9b3e
000002c0: 24fd d7be b4bb a43e 4810 983e 00a6 a13b
000002d0: c345 4f3f 312b cd3f 4055 953e 4899 543f
000002e0: debc db3f 5235 883d ccf2 1abf 02b1 4cbe
000002f0: a877 a9be 7aea 99be 4737 ecbe b2f9 25be
00000300: 16ef 143f 660f b83f 7cf2 45be 4aae 06bf
00000310: 1876 5abf ecb2 ff3e c8b0 58be f695 3cbf
00000320: f798 2b3e a7f7 66be 33f0 1ebf 1047 fb3e
00000330: c8a9 d8be 76b2 01bf 5305 9fbe b9cd 0d3f
00000340: 920d 8e3f 3c75 0e3e fd59 7c3e f813 763f
00000350: 8dab b93e ca69 d43e cc0c be3f 4ed7 c73e
00000360: eae3 03bf b5e4 a6bc a6f9 d8be 1289 4bbf
00000370: 43c5 17bf 31ec c93e 9a72 b13e e408 86bf
00000380: a354 bdbe d173 a1bf ef67 d6be e0fa 6c3d
00000390: 38c7 a1bf 5fa9 743f a1d1 213c d812 f03e
000003a0: 2e7f a63f 3dc5 e33e 99ab 8fbf c783 db3f
000003b0: a336 333d 2b18 443f 6fc4 923f 21f5 3bbe
000003c0: 3937 373f bae2 713f eb5e 6f3d 992e 193f
000003d0: d1fe 4d3f d14f b3be c42e 55bf 8668 a6bf
000003e0: bcda f83d 9a36 dd3e c906 aa3e e4db d53e
000003f0: ced5 213f c761 f63f 0dff b53e d494 383f

critic1.preprocess.model.model.0.bias f4 [128]
0.6748279 0.06211386 0.27193573 0.13456793 0.29669708 -0.3210673 -0.5063699 0.4900347
0.22631605 -0.1395163 -0.17205894 -0.3788097 -0.22659916 -0.17726876 -0.49422437 -0.443255
-0.35073733 -0.43269902 -0.31101504 0.3813891 -0.100735806 -0.4450399 -0.006596587 0.18204498
-0.18984526 -0.4693807 0.13156204 -0.65102696 -0.19849654 0.064899236 0.30075777 0.64676845
0.5101987 0.3123935 0.09767506 -0.53818214 -0.13571246 0.2732459 0.03368553 0.002478912
-0.20603211 -0.118498266 0.44202545 0.6185481 -0.5351616 0.2997052 0.0844335 -0.5363333
-0.05242512 -0.15338212 -0.050488275 0.4547704 0.37581012 0.078239575 0.077951856 -0.16789153
0.63581383 0.6221291 0.69753194 -0.28842613 0.4102463 0.36676416 -0.47022247 -0.6773245
0.38153931 0.5023143 -0.14121284 0.18160918 -0.124504454 -0.13243033 -0.5306332 0.40645665
-0.4419671 0.2190221 -0.083031565 -0.0861341 0.08170262 0.5716264 0.0720184 0.16506088
0.41646922 0.56218576 0.33881602 -0.51066095 0.18995836 0.65431184 0.37440678 0.54614633
-0.4575502 -0.12577267 0.6056225 -0.22715595 -0.44853058 0.55284977 0.7028018 0.2836179
0.047753047 0.41214374 0.29194945 0.61695945 -0.45722935 -0.22753501 -0.26924187 0.49608797
-0.41575533 -0.3691515 -0.10745071 0.48773018 0.68568003 -0.44760787 0.09000208 -0.35560274
-0.48871803 -0.35211155 -0.49828094 0.63880575 0.08056654 -0.048337054 -0.24177876 -0.12031851
0.25804836 0.40863374 0.78717893 0.3448809 0.11482877 0.6283659 0.26446477 0.58868754
00000000: 85c1 2c3f 1a6b 7e3d 293b 8b3e 2dcc 093e
00000010: aee8 973e ef62 a4be 75a1 01bf d4e5 fa3e
00000020: 65bf 673e 5cdd 0ebe 3830 30be 58f3 c1be
00000030: 9c09 68be f185 35be fa0a fdbe 52f2 e2be
00000040: d893 b3be ba8a ddbe 5d3d 9fbe 6f45 c33e
00000050: 934e cebd 45dc e3be 2f28 d8bb 006a 3a3e
00000060: cc66 42be ab52 f0be 33b8 063e b4a9 26bf
00000070: ad42 4bbe e4e9 843d ecfc 993e 9e92 253f
00000080: 629c 023f 0af2 9f3e dd09 c83d 4ec6 09bf
00000090: 35f8 0abe e3e6 8b3e d7f9 093d 3e75 223b
000000a0: 15fa 52be 38af f2bd 2951 e23e 2b59 1e3f
000000b0: 5a00 09bf f672 993e 79eb ac3d 244d 09bf
000000c0: b9bb 56bd 3410 1dbe cbcc 4ebd aad7 e83e
000000d0: 2f6a c03e 123c a03d 39a5 9f3d c2eb 2bbe
000000e0: b2c4 223f da43 1f3f 7491 323f 97ac 93be
000000f0: ce0b d23e 83c8 bb3e 00c1 f0be 2365 2dbf
00000100: 1f59 c33e ac97 003f 199a 10be c2f7 393e
00000110: 31fc febd d19b 07be 94d7 07bf 161b d03e
00000120: 8349 e2be 5447 603e 740c aabd 1367 b0bd
00000130: b453 a73d 1c56 123f 627e 933d b805 293e
00000140: 743b d53e 68eb 0f3f 4b79 ad3e adba 02bf
00000150: 7284 423e fb80 273f 3fb2 bf3e 3fd0 0b3f
00000160: 0544 eabe 8dca 00be 130a 1b3f 929b 68be
00000170: cda5 e5be 9087 0d3f d2ea 333f 5e36 913e
00000180: b398 433d 8104 d33e 667a 953e 0ef1 1d3f
00000190: f719 eabe f0fe 68be 12da 89be 3eff fd3e
000001a0: e2dd d4be 6d01 bdbe 1e0f dcbd c5b7 f93e
000001b0: ba88 2f3f dc2c e5be 0353 b83d 9011 b6be
000001c0: 4039 fabe f747 b4be ae1e ffbe c688 233f
000001d0: 1200 a53d 13fd 45bd da94 77be 8d69 f6bd
000001e0: ea1e 843e 7138 d13e 8f84 493f 3b94 b03e
000001f0: 592b eb3d 96dc 203f ed67 873e 3ab4 163f

critic1.preprocess.model.model.2.weight f4 [128, 128]
-0.030206036 0.048772637 -0.02940236 0.053268425 -0.08818875 -0.0043709427 0.035388842 0.014850888
-0.04785943 -0.068316534 0.074896045 -0.012143478 0.088155754 0.010656598 0.037163384 0.041475058
-0.041873198 -0.09508819 -0.009581253 0.08261032 0.055028357 0.064651705 -0.0030427724 0.021313436
-0.034115914 0.049134992 -0.07496537 0.011253275 -0.012573462 -0.0150117455 -0.032383703 -0.08781098
0.08266916 -0.08772905 0.0056363493 0.056671835 -0.005814433 -0.066372424 -0.070228584 -0.025524803
-0.055467755 -0.060472235 0.05343866 -0.058852203 0.00037695552 -0.06173334 -0.0013874281 -0.051531192
-0.015241794 -0.012467511 -0.023897797 -0.04614567 0.023235017 0.028399456 -0.048933648 -0.07760337
-0.0799006 -0.034488406 -0.047580454 -0.018960938 0.0032912344 -0.06719112 -0.030396026 -0.07228135
-0.0117273955 -0.06660018 -0.08152582 -0.0667882 -0.07044789 -0.033928096 0.06415153 -0.07039674
0.07512249 -0.024348594 0.038549863 -0.06415293 -0.013649287 -0.026421942 0.0643211 -0.078260295
0.034587197 0.06958469 0.061927333 -0.029502403 -0.013116449 -0.08096134 0.06361809 0.018937148
0.06868174 -0.089191295 -0.01640032 0.02746352 -0.037259616 0.003640739 -0.075903766 -0.043097984
-0.004827246 -0.039489217 0.0725955 -0.09350842 0.055354096 -0.005649058 -0.06305558 -0.0029640233
0.071158625 0.016254276 0.058588404 -0.07695916 -0.044294465 0.00902319 0.033165447 0.031767406
-0.039073877 0.040196687 -0.009596184 -0.04018267 0.017104417 0.030308314 -0.07530856 0.033175737
0.052590735 0.07464143 -0.035640556 0.04363696 -0.07983791 -0.034236472 0.04842914 0.051874027
0.08489122 -0.121551044 0.120337464 0.6063239 0.44695312 0.027904324 0.12773357 -0.0669773
0.08496367 -0.03128516 0.50168794 -0.2906239 -0.015769666 0.013834893 0.15894338 -0.105916254
-0.16963391 0.015603861 0.058952432 0.14306813 0.2660877 -0.07209161 0.45181474 0.07775851
-0.11740381 -0.017003395 0.020863697 0.066443875 0.5687328 0.30697682 -0.11970456 0.11520426
0.18385011 0.09316907 0.6317247 -0.15290631 -0.072157696 -0.039675772 0.022142416 0.24823247
0.00058205036 -0.042315654 0.20367081 0.046976417 -0.03756955 -0.07967986 -0.053765364 -0.18634889
-0.0003644987 0.030989664 0.02295297 0.18127114 -0.015424034 0.053006355 0.045074046 0.040054057
0.12973887 0.041742213 0.15976776 0.0052599907 0.19436313 0.22255659 -0.0082265325 -0.030577311
0.18682134 -0.037694197 -0.20033568 -0.06297905 -0.08435417 0.074198306 -0.011307354 0.06278668
0.011031398 -0.07630682 -0.07174808 0.4233828 0.19665384 0.042618927 0.30686894 0.3503674
0.3022899 0.11303658 -0.29010692 0.101032265 0.110748425 0.15451153 0.3252816 0.05118317
-0.0028310341 -0.042507105 0.0076762796 -0.026317101 -0.15366167 -0.033452526 -0.049067054 0.38358694
0.6484885 0.3707517 -0.051867917 0.08705039 -0.121989615 -0.1341836 -0.074127324 0.00542375
-0.10742424 -0.027799029 0.15704095 0.20895246 0.061544742 -0.22390044 0.49014065 0.2850716
0.060372066 -0.15402125 -0.030426964 -0.019850856 -0.120785914 -0.109445415 -0.09798894 -0.033194732
0.031098405 -0.23447032 0.08964203 -0.046397418 0.11735352 0.11289526 0.60362965 0.012088598
00000000: a672 f7bc d1c5 473d 38dd f0bc fe2f 5a3d
00000010: 4e9c b4bd 203a 8fbb e4f3 103d 2451 733c
00000020: 4008 44bd 8ae9 8bbd 1963 993d 70f5 46bc
00000030: 018b b43d 0399 2e3c a238 183d c0e1 293d
00000040: 3b83 2bbd 99bd c2bd b0fa 1cbc 992f a93d
00000050: 6a65 613d 1d68 843d 4069 47bb 8499 ae3c
00000060: 21bd 0bbd c641 493d 7287 99bd a85f 383c
00000070: ec00 4ebc d3f3 75bc c6a4 04bd 3ed6 b3bd
00000080: 734e a93d 4aab b3bd 20b1 b83b ba20 683d
00000090: 0087 bebb 44ee 87bd 01d4 8fbd 6419 d1bc
000000a0: 2832 63bd bcb1 77bd 7fe2 5a3d 020f 71bd
000000b0: 1da2 c539 19dc 7cbd 5dda b5ba 5f12 53bd
000000c0: b8b8 79bc 8844 4cbc 50c5 c3bc 3e03 3dbd
000000d0: 5d57 be3c faa5 e83c a66e 48bd 84ee 9ebd
000000e0: eda2 a3bd b743 0dbd b9e3 42bd f853 9bbc
000000f0: c0b1 573b 7f9b 89bd 1601 f9bc 3f08 94bd
00000100: 4324 40bc ad65 88bd 02f7 a6bd 40c8 88bd
00000110: fc46 90bd 30f8 0abd e161 833d 2b2c 90bd
00000120: d2d9 993d b476 c7bc 76e6 1d3d 9d62 83bd
00000130: 42a1 5fbc d472 d8bc c8ba 833d ef46 a0bd
00000140: 4eab 0d3d 6b82 8e3d 84a7 7d3d 06af f1bc
00000150: 60e6 56bc 0fcf a5bd 334a 823d 1422 9b3c
00000160: 03a9 8c3d eda9 b6bd f759 86bc 2dfb e03c
00000170: 8a9d 18bd 7799 6e3b 6f73 9bbd 8387 30bd
00000180: e02d 9ebb 72bf 21bd f3ac 943d 5881 bfbd
00000190: faba 623d bc1b b9bb 4923 81bd 0f40 42bb
000001a0: 9dbb 913d b027 853c 65fa 6f3d c49c 9dbd
000001b0: 1d6e 35bd 00d6 133c 7ed8 073d 8a1e 023d
000001c0: ee0b 20bd 48a5 243d 5039 1dbc 9596 24bd
000001d0: 901e 8c3c 2449 f83c 603b 9abd 48e3 073d
000001e0: 6269 573d 9bdd 983d d5fb 11bd abbc 323d
000001f0: 0f82 a3bd 8b3b 0cbd a25d 463d dc79 543d
00000200: 73db ad3d c1ef f8bd 7d73 f63d 0b38 1b3f
00000210: 0ad7 e43e 9c97 e43c 97cc 023e 652b 89bd
00000220: 6f01 ae3d de24 00bd 9f6e 003f a8cc 94be
00000230: 632f 81bc bfab 623c 0ec2 223e 9fea d8bd
00000240: 83b4 2dbe 56a7 7f3c 1b78 713d 7480 123e
00000250: a63c 883e c4a4 93bd 4354 e73e db3f 9f3d
00000260: 6971 f0bd b44a 8bbc 58ea aa3c ba13 883d
00000270: 7998 113f 112c 9d3e aa27 f5bd 36f0 eb3d
00000280: 3443 3c3e 6dcf be3d b6b8 213f 7993 1cbe
00000290: 6ac7 93bd 1083 22bd 0364 b53c a730 7e3e
000002a0: bd94 183a 2e53 2dbd 158f 503e 586a 403d
000002b0: 87e2 19bd 322f a3bd 1239 5cbd 3ed2 3ebe
000002c0: 301a bfb9 09de fd3c de07 bc3c 249f 393e
000002d0: 16b5 7cbc 311d 593d 909f 383d b90f 243d
000002e0: 44da 043e e2f9 2a3d 299a 233e 005c ac3b
000002f0: 2107 473e e0e5 633e 94c8 06bc 457d fabc
00000300: 184e 3f3e 3b65 1abd cc24 4dbe 29fb 80bd
00000310: e1c1 acbd 48f5 973d 7b42 39bc 4e96 803d
00000320: 09bd 343c c046 9cbd a8f0 92bd a1c5 d83e
00000330: a05f 493e 2f91 2e3d ed1d 9d3e 5b63 b33e
00000340: bec5 9a3e b97f e73d e588 94be 01ea ce3d
00000350: 12d0 e23d 4538 1e3e 4f8b a63e 72a5 513d
00000360: df88 39bb ee1b 2ebd 4d89 fb3b f696 d7bc
00000370: 7c59 1dbe 8405 09bd 89fa 48bd 8265 c43e
00000380: 5803 263f 2bd3 bd3e 7473 54bd 7a47 b23d
00000390: b1d5 f9bd 6d67 09be 11d0 97bd b6b9 b13b
000003a0: 3d01 dcbd caba e3bc 58cf 203e a2f7 553e
000003b0: 5716 7c3d 2846 65be b7f3 fa3e e8f4 913e
000003c0: b348 773d bfb7 1dbe f841 f9bc 439e a2bc
000003d0: 9b5e f7bd eb24 e0bd 6dae c8bd 33f7 07bd
000003e0: 15c2 fe3c fd18 70be 3e96 b73d 380b 3ebd
000003f0: 0b57 f03d a135 e73d 7987 1a3f 410f 463c

critic1.preprocess.model.model.2.bias f4 [128]
0.035308924 0.12970586 0.053177603 0.13101271 0.1403096 0.14254099 0.032690093 0.16898878
0.09828901 0.10339603 -0.08874603 0.018461315 -0.05155788 0.119959824 -0.02686037 0.12979196
0.14202765 -0.08604516 0.04943744 0.09106477 0.16466141 0.12857787 0.06356257 0.06810486
0.004494178 -0.08205207 0.06660707 0.12298514 0.08326626 0.023935977 0.03125944 0.0987695
-0.015365273 0.068444364 -0.019321667 0.05693432 0.03299625 0.013023511 0.080056705 0.1581621
0.1643599 0.049765997 0.14564559 0.12074675 -0.0033036703 -0.027392043 -0.0025634752 -0.07402725
0.10577843 0.13053232 0.08406275 0.005595293 -0.02378314 0.0057669133 0.039158933 0.028287541
0.10021099 0.12256676 0.041150857 0.002223511 -0.09817636 0.039240345 -0.021309234 0.001070537
-0.060508527 0.010649612 0.06341861 0.12897456 -0.012491165 0.14084533 0.06486595 -0.05574157
0.022672072 0.15380713 0.08086508 -0.009325119 -0.045803472 0.050678413 -0.02777281 0.08067515
-0.06628409 -0.04365229 0.106246635 0.06037809 0.029354993 0.08075306 0.034615394 0.12613834
-0.0008248737 0.13845715 -0.039315138 -0.007851755 0.10546932 0.11849624 -0.05805789 -0.016563972
0.05622351 0.03301116 -0.019626547 -0.011067794 -0.037592616 0.09778056 0.09347712 0.12945478
0.074080884 -0.06073012 0.11963853 0.12619047 0.053283703 -0.010000158 -0.02341179 -0.00918439
-0.07099987 0.097134404 0.030281167 -0.07501964 0.008252598 -0.009007512 -0.07227306 0.03982603
0.11584749 0.076366544 0.012391707 0.027067374 0.08505023 0.085439205 -0.041395802 0.029171139
00000000: 17a0 103d 9dd1 043e c2d0 593d 3228 063e
00000010: 52ad 0f3e 44f6 113e 0ce6 053d 650b 2d3e
00000020: c04b c93d 4cc1 d33d 7bc0 b5bd 2f3c 973c
00000030: 5b2e 53bd 7fad f53d 470a dcbc 2fe8 043e
00000040: b26f 113e 7238 b0bd ea7e 4a3d 2b80 ba3d
00000050: 009d 283e eba9 033e 182d 823d 907a 8b3d
00000060: e643 933b ea0a a8bd 4a69 883d a2df fb3d
00000070: 8087 aa3d 6215 c43c e609 003d aa47 ca3d
00000080: a0be 7bbc 8f2c 8c3d 7948 9ebc f633 693d
00000090: 1327 073d 9060 553c c5f4 a33d 3ff5 213e
000000a0: f64d 283e 6ed7 4b3d 1e24 153e 124a f73d
000000b0: 6482 58bb 4765 e0bc faff 27bb 999b 97bd
000000c0: 5da2 d83d 44aa 053e 1729 ac3d b858 b73b
000000d0: dcd4 c2bc 60f8 bc3b 1e65 203d 46bb e73c
000000e0: 6b3b cd3d 4804 fb3d cd8d 283d 53b8 113b
000000f0: b010 c9bd 7cba 203d b490 aebc 4351 8c3a
00000100: cad7 77bd b67b 2e3c 9ee1 813d e811 043e
00000110: bea7 4cbc c239 103e 70d8 843d 4651 64bd
00000120: c8ba b93c 9e7f 1d3e 979c a53d 62c8 18bc
00000130: 6c9c 3bbd 2b94 4f3d ce83 e3bc 0339 a53d
00000140: f4bf 87bd becc 32bd d697 d93d 044f 773d
00000150: e279 f03c dc61 a53d dfc8 0d3d 692a 013e
00000160: 563c 58ba b6c7 0d3e e908 21bd a6a4 00bc
00000170: 4d00 d83d 28ae f23d 1cce 6dbd 2bb1 87bc
00000180: a04a 663d b636 073d dac7 a0bc b155 35bc
00000190: b7fa 19bd 2d41 c83d ef70 bf3d cb8f 043e
000001a0: b8b7 973d 25c0 78bd 0c05 f53d 1338 013e
000001b0: 0340 5a3d b4d7 23bc 15ca bfbc 207a 16bc
000001c0: 6168 91bd 67ee c63d 3610 f83c e6a3 99bd
000001d0: e835 073c 3e94 13bc e603 94bd 9f20 233d
000001e0: 7341 ed3d 1066 9c3d 9606 4b3c 66bc dd3c
000001f0: d12e ae3d c0fa ae3d a58e 29bd 50f8 ee3c

critic1.last.model.0.weight f4 [1, 128]
0.04245906 0.36991793 0.0062597636 0.32495788 -0.4204159 0.26861352 0.283876 -0.5195249
-0.442067 0.27240944 0.007771091 -0.058474384 0.05621788 -0.5590975 0.30283585 0.3631713
-0.51212126 -0.0049772244 0.29713464 0.23785876 -0.49625158 -0.48642644 -0.03794609 0.28910032
0.38160816 0.04476092 -0.6008876 0.31651464 0.2967983 0.0021329923 0.27747136 0.26977086
0.06416225 -0.5025684 -0.29550606 0.2748742 -0.45082995 -0.3795271 -0.41218457 -0.7936124
-0.4670081 0.3541935 -0.45605147 -0.37728995 0.30211833 0.051641457 -0.5376885 0.02569063
0.37920696 0.29308364 0.3837415 -0.029486889 0.07791495 -0.060577717 -0.5951054 -0.55236316
0.3001564 -0.13481775 -0.038193222 0.07431478 0.07054684 0.34970874 0.6747024 0.2903047
0.06324748 0.3667664 0.3236594 0.34657535 0.0014900595 0.3471765 0.279648 -0.028750302
-0.025864035 -0.39614117 0.022225522 0.26881418 0.052160956 -0.06278467 0.20097753 -0.48283297
0.04769086 -0.06091761 -0.4397531 -0.025926737 0.0094287265 -0.33216786 -0.43106228 -0.35061273
-0.01751738 -0.24683936 0.07527395 0.3378597 0.28167385 0.33550525 0.3877792 -0.064852744
-0.02586307 0.042233042 0.055080697 -0.030529743 0.00021213877 -0.73357016 0.26893398 0.35426283
0.32513484 0.027816463 0.30988765 0.34713385 0.004396541 0.048720714 0.28495014 0.36778983
-0.015629249 0.3262377 -0.049910005 0.08232505 0.06173993 -0.028638918 0.0014266093 -0.2792111
0.32214072 0.039471377 0.31772614 0.35271448 -0.585317 -0.58421457 0.63823295 0.07154495
00000000: 8de9 2d3d e265 bd3e b41e cd3b e160 a63e
00000010: c140 d7be b687 893e 3258 913e 95ff 04bf
00000020: 9b56 e2be 4079 8b3e a3a4 fe3b d682 6fbd
00000030: b844 663d 0421 0fbf 4d0d 9b3e 97f1 b93e
00000040: 611a 03bf fc17 a3bb 0822 983e 3f91 733e
00000050: b014 febe e30c f9be 5c6d 1bbd f504 943e
00000060: 2562 c33e 3a57 373d c5d3 19bf 350e a23e
00000070: f2f5 973e acc9 0b3b ba10 8e3e 681f 8a3e
00000080: 7f67 833d 53a8 00bf 924c 97be 50bc 8c3e
00000090: 2fd3 e6be 6051 c2be db09 d3be 2f2a 4bbf
000000a0: b01b efbe da58 b53e 947f e9be 262c c1be
000000b0: 41af 9a3e fe85 533d f4a5 09bf 2875 d23c
000000c0: 6a27 c23e 0f0f 963e c479 c43e 7d8e f1bc
000000d0: e091 9f3d 5720 78bd d458 18bf ac67 0dbf
000000e0: 1aae 993e aa0d 0abe 7f70 1cbd 5932 983d
000000f0: dd7a 903d 060d b33e 4cb9 2c3f d1a2 943e
00000100: e587 813d cec8 bb3e afb6 a53e 5372 b13e
00000110: 1a4e c33a 1ec1 b13e 062e 8f3e c185 ebbc
00000120: d0e0 d3bc 04d3 cabe 4c12 b63c 03a2 893e
00000130: baa6 553d 4095 80bd 0ecd 4d3e e235 f7be
00000140: 7e57 433d be84 79bd 5127 e1be 4f64 d4bc
00000150: f27a 1a3c e811 aabe 32b4 dcbe 8383 b3be
00000160: 9c80 8fbc 75c3 7cbe 3b29 9a3d f2fb ac3e
00000170: 8e37 903e 58c7 ab3e ff8a c63e 84d1 84bd
00000180: cade d3bc 8efc 2c3d 4c9c 613d 8319 fabc
00000190: 9171 5e39 41cb 3bbf b7b1 893e f061 b53e
000001a0: 1378 a63e 5adf e33c 98a9 9e3e 87bb b13e
000001b0: dc10 903b 5f8f 473d fce4 913e f34e bc3e
000001c0: e908 80bc a108 a73e 6f6e 4cbd 099a a83d
000001d0: 02e3 7c3d 2a9c eabc 11fd ba3a c2f4 8ebe
000001e0: a1ef a43e bdac 213d 00ad a23e fe96 b43e
000001f0: 56d7 15bf 168f 15bf 3c63 233f 2986 923d

critic1_old.preprocess.model.model.0.weight f4 [128, 3]
0.38043243 0.7962537 0.5599645 -0.36100394 -1.1360244 0.26157814 0.39673835 1.2591292
0.06661872 1.0937921 2.3958545 0.0033406464 0.8243719 2.0350034 -0.031360745 -0.646497
-0.10358362 -0.22080255 0.43182746 0.70568424 -0.38867489 -0.19132575 -0.8526494 -0.07626609
0.45660755 0.94203967 0.28425726 0.199084 -0.7985101 -0.55772 1.3432354 1.0761199
0.0517865 0.34174508 -0.39908105 0.067702614 0.4267115 -0.59137446 -0.1486737 -0.3154504
-0.31844556 -0.55453175 0.03916695 -0.59718573 -0.10721505 -0.3744821 -0.79508275 -0.38512114
-0.32114276 -0.54972005 0.24872349 -0.34889153 -0.41752678 -0.5590221 0.75050837 1.1391828
0.5955761 0.46554795 0.47158423 0.39214227 0.7181919 1.1799349 0.1820816 -0.7114573
-0.48185113 0.4696076 1.2096006 1.7942374 0.04698276 0.6286858 1.2373472 0.4975081
-0.6487727 -1.1252102 0.42418256 -0.014912941 0.6651753 0.42917126 0.54937965 1.3965335
0.46202663 0.112752914 0.71440554 -0.2536303 -1.2481573 -1.6448333 0.043871284 -1.108037
0.74501866 0.010382317 -0.7929125 -1.3770759 0.33821663 0.30383795 0.09368013 0.4080438
0.52374 0.79471296 0.3950016 0.47472408 1.0321112 0.49828827 0.6233049 1.9026821
0.0045554363 -0.50059634 0.008657769 0.38588277 -0.11008687 -0.41442734 0.31372958 0.19137086
-0.45976967 0.1625755 -0.3437749 -0.68320864 -0.49420264 0.5647869 1.7763137 0.13671532
-0.54474986 -0.111476846 -0.1529779 -0.6594017 -0.47634062 0.54697144 0.7156002 0.9316381
-0.43268117 0.28866413 1.0993339 0.14276841 -0.6223053 0.07218639 -0.3048173 -0.6247955
-1.1062248 0.13496801 -0.6987242 -1.6074288 0.4221993 -0.34058014 0.31090704 -0.025540106
-0.15643786 -1.3171337 0.2209103 -0.036759395 -0.36191487 0.4852103 0.5226309 1.1614245
0.38237455 0.44166476 1.4375235 0.24572782 -0.41132173 -1.435877 -0.36583388 -0.87382734
0.091690175 -0.013102687 -0.9747808 -0.1860016 -0.17482272 0.6221294 1.6952647 0.3334682
0.28902742 1.0837028 0.3175222 0.3309779 0.8808369 0.21208078 0.48751602 0.32342187
-0.42058605 0.32174456 0.29699922 0.004933119 0.8105813 1.5719281 0.2920379 0.82959765
1.6830719 0.06695164 -0.6029949 -0.25080413 -0.33092242 -0.30132776 -0.48324263 -0.16313334
0.5827477 1.3952042 -0.1946563 -0.527604 -0.8251564 0.49970788 -0.21545404 -0.7243387
0.16651464 -0.22775562 -0.5959018 0.49086156 -0.41898543 -0.55479753 -0.3102102 0.553012
1.066924 0.13964769 0.24885626 0.94151765 0.36262554 0.4159145 1.4578948 0.39091554
-0.5126869 -0.06735516 -0.4236825 -0.7959087 -0.56820637 0.39441025 0.3446106 -1.0781436
-0.36939088 -1.2597398 -0.37331325 0.059043642 -1.2622806 0.9584968 0.008928336 0.47021046
1.2805161 0.4456589 -1.1222173 1.7004716 0.041938387 0.768493 1.1057154 -0.18371305
0.7165395 0.91780347 0.058752183 0.59889764 0.7866848 -0.34732717 -0.8336277 -1.2760006
0.12146984 0.43598643 0.3095893 0.41812962 0.6313325 1.8882395 0.356334 0.7246687
00000000: 0ac8 c23e 48d7 4b3f d559 0f3f 82d5 b8be
00000010: 3f69 91bf 92ed 853e 4a21 cb3e 252b a13f
00000020: 656f 883d 6101 8c3f ae55 1940 bfee 5a3b
00000030: 090a 533f 7f3d 0240 2074 00bd d480 25bf
00000040: a623 d4bd 101a 62be 7d18 dd3e b9a7 343f
00000050: 6500 c7be e6ea 43be 3b47 5abf 6531 9cbd
00000060: 77c8 e93e 8329 713f 2b8a 913e addc 4b3e
00000070: 286b 4cbf bdc6 0ebf 23ef ab3f 4cbe 893f
00000080: 151e 543d 36f9 ae3e 5a54 ccbe aba7 8a3d
00000090: ee79 da3e 5164 17bf eb3d 18be b782 a1be
000000a0: 4c0b a3be cbf5 0dbf 866d 203d 2ae1 18bf
000000b0: 9093 dbbd 1ebc bfbe 8b8a 4bbf 992e c5be
000000c0: d36c a4be 74ba 0cbf 5fb1 7e3e e9a1 b2be
000000d0: 12c6 d5be 131c 0fbf 5121 403f bed0 913f
000000e0: ad77 183f 4d5c ee3e 7d73 f13e dfc6 c83e
000000f0: 6ddb 373f 1b08 973f 9973 3a3e 1122 36bf
00000100: 31b5 f6be 6870 f03e 31d4 9a3f 92a9 e53f
00000110: ff70 403d 8df1 203f 6561 9e3f 62b9 fe3e
00000120: f815 26bf e306 90bf 752e d93e 6855 74bc
00000130: ee48 2a3f 56bc db3e 25a4 0c3f 9cc1 b23f
00000140: c18e ec3e 00eb e63d 48e3 363f d5db 81be
00000150: 9ec3 9fbf e689 d2bf 60b2 333d 28d4 8dbf
00000160: 8bb9 3e3f 981a 2a3c 50fc 4abf 0644 b0bf
00000170: bb2a ad3e a690 9b3e 5edb bf3d 1eeb d03e
00000180: d313 063f 4f72 4b3f a63d ca3e 090f f33e
00000190: 381c 843f a41f ff3e e990 1f3f 168b f33f
000001a0: c545 953b 1527 00bf 51d9 0d3c 6d92 c53e
000001b0: 3a75 e1bd d22f d4be 2aa1 a03e b9f6 433e
000001c0: ee66 ebbe 317a 263e 4403 b0be c3e6 2ebf
000001d0: 2108 fdbe e095 103f 3f5e e33f 1aff 0b3e
000001e0: ba74 0bbf f94d e4bd 3da6 1cbe 8dce 28bf
000001f0: ebe2 f3be 5206 0c3f 9331 373f d67f 6e3f
00000200: 6388 ddbe c9cb 933e f9b6 8c3f e231 123e
00000210: 664f 1fbf 75d6 933d 0311 9cbe 99f2 1fbf
00000220: c698 8dbf 0e35 0a3e 97df 32bf 3ac0 cdbf
00000230: 822a d83e 8560 aebe 352f 9f3e 7c39 d1bc
00000240: 3f31 20be d697 a8bf 4f36 623e 0591 16bd
00000250: e84c b9be 7c6d f83e 23cb 053f 8fa9 943f
00000260: 99c6 c33e e221 e23e c500 b83f 13a0 7b3e
00000270: c398 d2be d1ca b7bf 944e bbbe 26b3 5fbf
00000280: 0fc8 bb3d a7ac 56bc 3c8b 79bf 3477 3ebe
00000290: ba04 33be df43 1f3f 6ffe d83f 58bc aa3e
000002a0: 67fb 933e c6b6 8a3f 4592 a23e ef75 a93e
000002b0: 877e 613f b42b 593e b39b f93e 8d97 a53e
000002c0: 0e57 d7be b4bb a43e 4810 983e 00a6 a13b
000002d0: 4282 4f3f f134 c93f fe85 953e 8360 543f
000002e0: e66e d73f f11d 893d e05d 1abf 6669 80be
000002f0: aa6e a9be a247 9abe 946b f7be 6d0c 27be
00000300: f42e 153f 0d96 b23f fb53 47be 0e11 07bf
00000310: 733d 53bf b6d9 ff3e fc9f 5cbe 436e 39bf
00000320: d082 2a3e c538 69be 058d 18bf 3552 fb3e
00000330: 4285 d6be 3607 0ebf dfd3 9ebe 3292 0d3f
00000340: f790 883f ceff 0e3e 2dd4 7e3e 4d07 713f
00000350: 0eaa b93e bff2 d43e 4c9c ba3f 1526 c83e
00000360: 733f 03bf 81f1 89bd eaec d8be acc0 4bbf
00000370: f975 11bf 24f0 c93e cd70 b03e 9c00 8abf
00000380: cd20 bdbe 273f a1bf ea22 bfbe bfd7 713d
00000390: 6992 a1bf 0c60 753f 2848 123c 6dbf f03e
000003a0: f4e7 a33f 672d e43e d1a4 8fbf 0ea9 d93f
000003b0: 96c7 2b3d f5bb 443f 1588 8d3f 461f 3cbe
000003c0: 226f 373f 2bf5 6a3f 21a6 703d 5b51 193f
000003d0: 2d64 493f ded4 b1be a068 55bf fd53 a3bf
000003e0: 2ec5 f83d 9d39 df3e 7d82 9e3e 1615 d63e
000003f0: 029f 213f d5b1 f13f 6971 b63e e383 393f
