log/CircuitEnvTest-v2/ppo/policy.pth (torch, 475875 bytes, 54 tensors)

actor.preprocess.model.model.0.weight f4 [16, 9]
0.17925927 0.19833134 -0.31487954 7.920105e-05 -0.016755538 0.36151898 -0.084196076 -0.22737676
-0.27515674 0.18336223 -0.10186754 0.17226109 -0.37520906 -0.0653531 -0.21841826 -0.12382664
0.23148063 0.37357244 0.33189425 -0.0058154035 0.4408704 -0.0401468 0.046353664 -0.33685988
0.39371955 -0.12509444 -0.094226174 0.35500512 0.08076195 -0.21710518 0.10298296 -0.536909
-0.19427006 -0.39248508 0.24401394 -0.18433522 0.50996345 -0.12917338 -0.35806575 0.06748082
0.083535776 0.21626449 0.40193045 0.2353493 0.113416664 0.07587183 0.031708412 -0.12290999
-0.38618532 0.17778194 -0.33577502 -0.07359533 -0.35834095 -0.4309984 0.62711287 -0.097954676
0.18611747 -0.043827552 0.40704656 0.040567085 0.022114966 0.12870015 0.09469035 -0.055481337
-0.49354604 -0.36557782 -0.016769048 -0.108128555 0.04171253 0.42228684 -0.21101983 0.10163366
-0.20535111 0.3417023 -0.25346366 0.38092938 0.06046677 -0.5038266 0.24310733 -0.18266244
0.21680498 0.06737783 -0.23285718 -0.22806564 -0.061412334 -0.103120744 -0.31505692 -0.22958425
-0.026838575 0.40302762 -0.010227465 -0.22391994 0.29981863 -0.2607973 -0.5574396 0.11368361
0.16059425 -0.31146404 -0.030515516 0.08684264 -0.10543707 0.31054243 0.5508389 -0.040573474
0.23838799 -0.13903134 -0.21457611 0.17086743 -0.07538394 -0.050133903 -0.08609148 -0.36467907
0.29064128 0.06713997 -0.32628736 -0.28746572 0.14990316 0.264645 0.12109716 -0.053182557
0.017251348 -0.0025913946 0.16283366 -0.15857989 -0.46462068 0.44346812 -0.40397713 -0.21796857
-0.060763992 -0.10389552 0.12822013 0.17958957 0.08404964 0.34279263 0.1321411 -0.019592749
0.7389384 -0.03962571 -0.3452931 -0.2492103 0.1974462 0.2891268 0.08025426 0.27258077
00000000: be8f 373e 5f17 4b3e e437 a1be bd18 a638
00000010: e942 89bc 0419 b93e fe6e acbd 74d5 68be
00000020: 58e1 8cbe 4fc3 3b3e ee9f d0bd 3665 303e
00000030: 671b c0be d9d7 85bd 09a9 5fbe d298 fdbd
00000040: 4209 6d3e e344 bf3e 0bee a93e 248f bebb
00000050: c4b9 e13e f970 24bd 57dd 3d3d e678 acbe
00000060: 9c95 c93e c218 00be a7f9 c0bd 3bc3 b53e
00000070: 8566 a53d d250 5ebe bbe8 d23d de72 09bf
00000080: bbee 46be cef3 c8be cade 793e 5fc2 3cbe
00000090: f78c 023f 0746 04be 6554 b7be 6233 8a3d
000000a0: ce14 ab3d 7074 5d3e d4c9 cd3e 68ff 703e
000000b0: ff46 e83d b162 9b3d aee0 013d 3cb8 fbbd
000000c0: 15ba c5be 780c 363e b4ea abbe 26b9 96bd
000000d0: 7778 b7be d3ab dcbe 788a 203f 769c c8bd
000000e0: 9495 3e3e 8584 33bd 6868 d03e ac29 263d
000000f0: 722a b53c f9c9 033e 04ed c13d 6640 63bd
00000100: 11b2 fcbe 042d bbbe 3e5f 89bc 8172 ddbd
00000110: c2da 2a3d fb35 d83e 9515 58be 4f25 d03d
00000120: 9047 52be 9bf3 ae3e fdc5 81be 2d09 c33e
00000130: 01ac 773d c8fa 00bf 21f1 783e dd0b 3bbe
00000140: 2002 5e3e 63fd 893d 1d72 6ebe 0a8a 69be
00000150: 808b 7bbd f830 d3bd 244f a1be 2218 6bbe
00000160: 92dc dbbc a359 ce3e 1991 27bc 454b 65be
00000170: d481 993e 3987 85be 5db4 0ebf f4d2 e83d
00000180: d272 243e 3778 9fbe adfb f9bc 8eda b13d
00000190: 64ef d7bd 6bff 9e3e c703 0d3f 5f30 26bd
000001a0: fb1b 743e 3b5e 0ebe d7b9 5bbe dff7 2e3e
000001b0: e562 9abd 3559 4dbd bb50 b0bd 37b7 babe
000001c0: efce 943e ae80 893d 230f a7be b52e 93be
000001d0: 3780 193e 8d7f 873e ca01 f83d f4d5 59bd
000001e0: b352 8d3c 63d4 29bb debd 263e c462 22be
000001f0: c3e2 edbe 410e e33e 17d6 cebe 2733 5fbe
00000200: aae3 78bd 2dc7 d4bd 234c 033e 54e6 373e
00000210: 3822 ac3d 8482 af3e ff4f 073e f980 a0bc
00000220: 112b 3d3f 924e 22bd 42ca b0be fc30 7fbe
00000230: 562f 4a3e 6e08 943e 585c a43d b58f 8b3e

actor.preprocess.model.model.0.bias f4 [16]
0.017848331 0.015168494 0.009240041 0.024272172 0.040868785 0.0 0.027586695 0.026686307
0.014736222 0.0030767121 0.0017541703 0.038091395 -0.0065139 -0.011183956 0.02609042 0.0034861718
00000000: aa36 923c 4685 783c 8a63 173c 6fd6 c63c
00000010: 0766 273d 0000 0000 7efd e13c 3e9d da3c
00000020: 3270 713c aaa2 493b 30ec e53a b905 1c3d
00000030: 8e72 d5bb e93c 37bc 94bb d53c 4278 643b

actor.preprocess.model.model.2.weight f4 [32, 16]
-0.14425507 -0.3438882 -0.0919651 -0.06171779 0.008151504 0.01236868 -0.07153364 -0.10918756
0.32375506 -0.20504624 0.096836075 -0.047335364 0.029685624 -0.27503467 0.054940715 0.043407273
0.054748382 -0.30996925 -0.09264518 0.0053287726 -0.03754751 -0.0823089 -0.003435325 -0.1129433
-0.36270607 -0.0046453094 0.037902158 0.13467845 -0.025992427 -0.45511612 0.1632623 -0.037512384
0.2916633 -0.18106517 -0.118113585 0.19466378 -0.03294114 0.09649564 0.21439068 -0.00016113212
0.07767638 -0.08232756 -0.23723152 0.11673448 0.040329866 0.094675355 0.22248483 -0.11290083
-0.052047037 -0.26251346 -0.1975955 -0.26986632 -0.22588834 -0.18660071 0.12106152 -0.009122011
0.123334356 -0.1220515 -0.10547517 -0.122847594 0.14150578 -0.27742642 -0.11629409 -0.30669618
-0.11976328 -0.020448431 -0.08032497 0.13838613 -0.016004667 -0.014904496 0.050472494 -0.2045187
-0.3886882 -0.22332777 -0.0056295595 -0.2021208 -0.30406195 0.04373743 -0.17130044 -0.3177118
0.20384693 -0.021128455 0.06557229 0.08529498 0.1644068 -0.15982135 -0.19304763 -0.027113708
0.23421769 -0.2655052 -0.04367689 0.32671192 0.17065756 0.2418976 -0.23264314 -0.15451756
0.18090416 -0.0707927 0.19447789 -0.002815826 0.2990779 0.022599386 -0.14696717 0.015293145
0.3202397 0.023901662 -0.009828239 0.094894424 -0.20644927 -0.029180368 -0.038688775 -0.31230292
-0.016415175 0.22466053 -0.14392771 -0.41907924 0.21518038 -0.21031699 -0.092925355 0.012757916
-0.2803154 0.18230857 -0.011516995 0.053619705 -0.07476757 -0.01922722 0.26327732 -0.15078646
-0.24901567 -0.070309766 0.015795542 0.074191846 -0.007823296 -0.17640784 0.21494018 0.17201772
-0.05916819 0.06753044 0.030461857 0.15681645 0.011036449 -0.20689785 -0.17168199 0.07852598
0.10700109 -0.12631989 -0.10989007 0.046854362 -0.12573294 -0.105114 -0.01506518 0.23372519
-0.078476384 -0.001161796 0.21299501 0.18448375 0.20530725 -0.08754348 0.23050138 0.012415422
0.1065905 0.23851533 0.15843655 0.0032934323 0.13919435 0.39404872 0.27519166 0.18961495
0.14016896 0.19115543 -0.038127266 -0.24468945 0.3733795 -0.29933944 0.037937228 -0.34755903
0.032656353 0.11568637 0.26890588 0.21139307 -0.15967356 -0.090190984 -0.3269834 -0.24768841
-0.0014787603 0.16135141 0.03310474 0.040494543 0.001138051 -0.16168372 0.19546477 -0.24147543
0.015802376 -0.1192962 0.120575845 -0.10252669 0.21397194 0.13655925 0.08547601 0.29057658
0.109246716 -0.21211256 -0.082972296 0.21183223 -0.29194227 -0.30845156 0.19900791 0.19371478
-0.19921456 0.155996 -0.027390188 -0.088308595 -0.09905238 0.24447246 0.32020804 0.2611149
0.2687613 0.14328314 0.23019381 0.2831158 -0.29891434 0.096440844 -0.19815941 -0.17866866
0.34932724 -0.2814482 -0.39422476 -0.2763316 0.2800691 0.13093066 0.031368814 -0.14215271
-0.104277276 0.20511444 0.24179891 -0.0069850753 0.090638295 0.18142328 -0.17323992 -0.001346983
0.14888676 0.072497286 0.001641496 -0.4397318 -0.4048011 0.15488686 -0.36825436 0.30810878
0.0587682 -0.05306627 0.06538525 0.003378828 -0.03242285 0.09305995 0.0029987777 -0.08513144
00000000: 9ab7 13be 1d12 b0be 3358 bcbd cbcb 7cbd
00000010: e38d 053c 01a6 4a3c 3b80 92bd ba9d dfbd
00000020: 39c3 a53e a4f7 51be fe51 c63d bae2 41bd
00000030: 442f f33c 58d1 8cbe 8409 613d d3cb 313d
00000040: d73f 603d 4ab4 9ebe c2bc bdbd fc9c ae3b
00000050: 6bcb 19bd 9291 a8bd 3123 61bb d14e e7bd
00000060: 9cb4 b9be ae37 98bb 4b3f 1b3d 26e9 093e
00000070: 12ee d4bc fb04 e9be 3b2e 273e 96a6 19bd
00000080: e454 953e 2669 39be 89e5 f1bd f155 473e
00000090: 4aed 06bd 829f c53d 3b89 5b3e 93f5 28b9
000000a0: cb14 9f3d 5a9b a8bd d2ec 72be 7d12 ef3d
000000b0: ee30 253d 27e5 c13d 10d3 633e 8d38 e7bd
000000c0: 462f 55bd 2a68 86be 7a56 4abe eb2b 8abe
000000d0: 464f 67be 4214 3fbe 1aef f73d 7d74 15bc
000000e0: b996 fc3d 23f6 f9bd 5e03 d8bd 8597 fbbd
000000f0: e4e6 103e d60a 8ebe 992b eebd 4807 9dbe
00000100: 7346 f5bd 7883 a7bc 6b81 a4bd 18b5 0d3e
00000110: 381c 83bc fd31 74bc 3fbc 4e3d 5a6d 51be
00000120: 2402 c7be 09b0 64be 2b78 b8bb c1f8 4ebe
00000130: 02ae 9bbe 0526 333d 6269 2fbe 1fab a2be
00000140: 40bd 503e 9515 adbc c44a 863d 22af ae3d
00000150: 425a 283e 35a8 23be 47ae 45be 911d debc
00000160: c3d6 6f3e 4cf0 87be 8ae6 32bd c946 a73e
00000170: dbc0 2e3e 01b4 773e 013a 6ebe da39 1ebe
00000180: f13e 393e c3fb 90bd 3625 473e b989 38bb
00000190: bd20 993e 5922 b93c 907e 16be 1990 7a3c
000001a0: 75f6 a33e 6bcd c33c 9f06 21bc 0258 c23d
000001b0: 7067 53be ab0b efbc 1f78 1ebd 2be6 9fbe
000001c0: 1e79 86bc 690d 663e c961 13be 8e91 d6be
000001d0: 3f58 5c3e 565d 57be a64f bebd 9406 513c
000001e0: 8085 8fbe 19af 3a3e c7b1 3cbc 56a0 5b3d
000001f0: bd1f 99bd 6782 9dbc 49cc 863e c467 1abe
00000200: f7fd 7ebe 91fe 8fbd a765 813c e5f1 973d
00000210: 482d 00bc 42a4 34be 4719 5c3e 6a25 303e
00000220: 585a 72bd 664d 8a3d 258b f93c 7e94 203e
00000230: 39d2 343c 08dd 53be 67cd 2fbe 3bd2 a03d
00000240: 6323 db3d 005a 01be 0c0e e1bd 5cea 3f3d
00000250: 23c0 00be 0246 d7bd f2d3 76bc a855 6f3e
00000260: 3ab8 a0bd 6847 98ba 5d1b 5a3e 4fe9 3c3e
00000270: 103c 523e ff49 b3bd 8e08 6c3e 0e6a 4b3c
00000280: 1f4c da3d 5d3d 743e 313d 223e a0d6 573b
00000290: f788 0e3e c1c0 c93e ece5 8c3e 6c2a 423e
000002a0: 7488 0f3e 40be 433e 562b 1cbd df8f 7abe
000002b0: 992b bf3e 0543 99be 1164 1b3d 42f3 b1be
000002c0: abc2 053d faec ec3d 08ae 893e 6d77 583e
000002d0: 7781 23be 0db6 b8bd 5e6a a7be 08a2 7dbe
000002e0: f6d2 c1ba 4e39 253e d698 073d 9bdd 253d
000002f0: a82a 953a 6b90 25be eb27 483e 5645 77be
00000300: fc73 813c 9151 f4bd 78f0 f63d 83f9 d1bd
00000310: 761b 5b3e 30d6 0b3e 0c0e af3d 74c6 943e
00000320: bebc df3d 0934 59be 61ed a9bd 8cea 583e
00000330: 7579 95be 5ded 9dbe bbc8 4b3e 2b5d 463e
00000340: e7fe 4bbe 6abd 1f3e 6361 e0bc 23db b4bd
00000350: f9db cabd fd56 7a3e 4ff2 a33e dab0 853e
00000360: 159b 893e d1b8 123e edb7 6b3e 8ef4 903e
00000370: 4d0b 99be c782 c53d 4dea 4abe ebf4 36be
00000380: 05db b23e fa19 90be d4d7 c9be 567b 8dbe
00000390: 3865 8f3e b012 063e 967c 003d 7b90 11be
000003a0: 538f d5bd 8509 523e 229a 773e 0fe3 e4bb
000003b0: 92a0 b93d 06c7 393e ce65 31be 408d b0ba
000003c0: c575 183e 7579 943d 7727 d73a 8724 e1be
000003d0: 1742 cfbe a99a 1e3e d68b bcbe 6fc0 9d3e
000003e0: edb6 703d 045c 59bd b4e8 853d 546f 5d3b
000003f0: d3cd 04bd 3796 be3d 2487 443b 6459 aebd

actor.preprocess.model.model.2.bias f4 [32]
0.036374286 0.0037167068 0.030753637 0.0 0.0 0.018673822 0.027525019 0.002058517
-0.009301714 -0.0022671495 0.0127765 0.0 0.03286871 0.047772165 0.0016750396 0.0
0.0031950795 -0.005838996 0.01195111 0.0 0.0066591706 0.02674993 0.0057061026 0.036874525
-0.0023532566 0.017854303 0.015909221 0.0026886263 0.04533992 0.014812386 0.03119432 0.02109932
00000000: 34fd 143d fe93 733b 0def fb3c 0000 0000
00000010: 0000 0000 d8f9 983c 267c e13c 2fe8 063b
00000020: 3766 18bc 7594 14bb 8654 513c 0000 0000
00000030: 57a1 063d bfac 433d 018d db3a 0000 0000
00000040: 8a64 513b 0c55 bfbb 97ce 433c 0000 0000
00000050: 2c35 da3b ab22 db3c 42fa ba3b be09 173d
00000060: 1839 1abb 3043 923c 0e54 823c aa33 303b
00000070: 5ab6 393d a6af 723c 3b8b ff3c 7bd8 ac3c

actor.preprocess.model.model.4.weight f4 [64, 32]
0.08881283 0.09761078 0.076959215 0.0991904 -0.06531501 -0.13272582 0.031371582 0.015241364
-0.16109326 -0.1541804 0.14743984 -0.12652478 -0.06472956 0.038111646 0.024058003 0.2192745
0.072293445 0.12194065 -0.029654687 -0.25091776 -0.058779202 -0.04805016 0.13142808 -0.012191225
-0.21416105 -0.17063445 -0.12940909 -0.05691826 0.0032224157 0.07688239 -0.013019256 -0.047119092
-0.22892414 -0.01737882 0.2276637 0.095912375 -0.009073836 0.2812635 0.053002145 -0.035698213
-0.00793767 -0.0055172667 0.37712058 0.24767439 0.17881526 -0.016297542 -0.10266308 -0.16461211
0.07979077 0.13750859 0.030271769 -0.14335768 -0.059855975 0.0828539 0.13755962 0.031553403
0.060060494 0.041151863 -0.047661636 0.17015338 -0.06407648 8.078868e-06 0.1700347 -0.013188454
-0.18647982 -0.09104702 0.20596278 -0.13637258 -0.04482253 -0.039892286 -0.26133606 0.17147335
-0.118706994 0.08467876 0.056218974 -0.034360874 0.09685175 0.14995262 -0.01708789 0.047581844
0.025889376 -0.08412145 -0.118406184 0.18079546 0.096945085 -0.06434744 -0.07086629 -0.2116074
-0.05078819 0.22640234 0.026701717 0.10153511 -0.03562313 -0.13500346 0.15052615 0.14598903
0.09529897 0.121416815 0.09585243 -0.1275461 0.09904226 -0.08712557 0.043712325 0.07033592
0.019903844 -0.15509245 -0.22745498 -0.0019561993 0.12741162 0.16850762 0.039173815 0.11003702
-0.17852688 0.03124568 0.051150054 -0.035491195 -0.29271063 0.09485853 0.054444473 0.005849691
-0.14081268 0.019367138 -0.04105849 -0.06038142 -0.28150785 -0.04013201 -0.2113946 0.16772003
-0.02732073 0.14824167 0.11629024 0.15182482 -0.02185134 0.12674229 0.0049596094 -0.13067335
-0.0076164245 -0.23632094 -0.045673206 0.026096378 -0.024660842 -0.16095342 0.12149333 -0.061618045
0.031954955 -0.06166586 -0.094786964 0.14053795 -0.11552175 0.10846392 0.17578858 -0.27639952
0.08067693 0.037147075 0.2082499 -0.122164056 0.034947187 0.016481418 0.09152265 0.16742475
0.22433221 -0.2703677 0.0719558 -0.048766635 0.11285823 0.024385499 -0.043025624 -0.10889444
0.12395726 -0.017037833 -0.22325924 0.10815522 0.21705851 0.03213793 -0.056326818 -0.045082834
0.07524981 -0.07509399 0.067997806 -0.23063031 -0.1480492 0.23284727 0.071065545 -0.09199753
0.10321634 0.16137113 -0.085344456 -0.18317552 0.062935084 -0.11692222 0.20943244 0.08299475
0.335556 0.22631977 -0.09125913 0.13650465 -0.042732123 -0.25582394 -0.0077604214 -0.12402727
0.041863937 0.044548724 -0.014732032 0.109532416 0.2108329 0.049215466 0.122258656 -0.2664018
-0.10455513 0.10520103 -0.009370125 -0.0013868872 0.06794844 -0.020624205 0.044763356 0.002972509
0.027844336 -0.0008829045 0.007470352 0.045100786 0.3492223 0.05116466 0.017363349 0.0862152
0.1473776 -0.038896304 0.071067326 -0.09296095 -0.15780649 -0.14256865 0.035256684 -0.06824302
0.13121545 0.23881984 -0.18091229 -0.053515855 -0.034052763 0.17069426 0.21707167 0.11638579
-0.08171377 0.031186149 0.093742155 -0.046479415 -0.2955663 0.097819895 0.18289343 -0.10342092
-0.11627328 0.087842844 0.08395727 0.07113024 0.19270523 -0.051924933 -0.009229285 0.07276398
00000000: 80e3 b53d 29e8 c73d cb9c 9d3d 5624 cb3d
00000010: e0c3 85bd 47e9 07be 7d7f 003d eab6 793c
00000020: a2f5 24be 77e1 1dbe 78fa 163e b68f 01be
00000030: ee90 84bd f51a 1c3d 4a15 c53c 7f89 603e
00000040: 960e 943d 05bc f93d 63ee f2bc 4b78 80be
00000050: 76c2 70bd 3fd0 44bd 1595 063e b4bd 47bc
00000060: 094d 5bbe ccba 2ebe d183 04be 1f23 69bd
00000070: 2a2f 533b 8474 9d3d b84e 55bc f3ff 40bd
00000080: 176b 6abe 075e 8ebc ac20 693e b56d c43d
00000090: 6daa 14bc c501 903e c718 593d 4a38 12bd
000000a0: 000d 02bc 30ca b4bb f315 c13e 5b9e 7d3e
000000b0: 591b 373e 6c82 85bc 0541 d2bd 1490 28be
000000c0: 5869 a33d 0dcf 0c3e 80fc f73c 5bcc 12be
000000d0: 8a2b 75bd 4eaf a93d 6edc 0c3e 243e 013d
000000e0: fe01 763d db8e 283d d938 43bd b03c 2e3e
000000f0: 883a 83bd 798a 0737 941d 2e3e 6314 58bc
00000100: 91f4 3ebe dc76 babd e8e7 523e 41a5 0bbe
00000110: d497 37bd 1866 23bd d7cd 85be b696 2f3e
00000120: a71c f3bd 0f6c ad3d de45 663d fdbd 0cbd
00000130: 365a c63d 2e8d 193e e7fb 8bbc 2ee5 423d
00000140: f515 d43c de47 acbd f17e f2bd 7222 393e
00000150: 258b c63d 97c8 83bd 5822 91bd 9caf 58be
00000160: 4707 50bd 04d6 673e 8fbd da3c a4f1 cf3d
00000170: 8fe9 11bd 593e 0abe 8723 1a3e 267e 153e
00000180: 1b2c c33d 61a9 f83d 474e c43d 729b 02be
00000190: abd6 ca3d e46e b2bd b20b 333d 470c 903d
000001a0: 630d a33c 8ed0 1ebe f5e9 68be 9433 00bb
000001b0: 3178 023e 438d 2c3e b974 203d 175b e13d
000001c0: c0cf 36be f1f6 ff3c b882 513d 375f 11bd
000001d0: 2bde 95be 3045 c23d 2b01 5f3d c4ae bf3b
000001e0: 3331 10be d5a7 9e3c f22c 28bd 8252 77bd
000001f0: cc21 90be 7661 24bd d377 58be cdbe 2b3e
00000200: b9cf dfbc aacc 173e 9429 ee3d f777 1b3e
00000210: 9501 b3bc bbc8 013e 3884 a23b 3ccf 05be
00000220: 3393 f9bb 1efe 71be d413 3bbd 12c8 d53c
00000230: 8905 cabc f9d0 24be 7fd1 f83d 3463 7cbd
00000240: 33e3 023d 5795 7cbd ab1f c2bd 2ee9 0f3e
00000250: ab96 ecbd 5522 de3d ec01 343e 3d84 8dbe
00000260: f239 a53d 8827 183d 763f 553e 2631 fabd
00000270: c824 0f3d 0a04 873c 3a70 bb3d 6571 2b3e
00000280: 58b7 653e a36d 8abe 905d 933d 86bf 47bd
00000290: 3722 e73d 19c4 c73c a33b 30bd 0c04 dfbd
000002a0: 4edd fd3d ed92 8bbc 129e 64be 7c80 dd3d
000002b0: 9644 5e3e 10a3 033d f3b6 66bd c7a8 38bd
000002c0: 931c 9a3d e1ca 99bd 6f42 8b3d 5a2a 6cbe
000002d0: 369a 17be 846f 6e3e d08a 913d 3369 bcbd
000002e0: 1763 d33d 793e 253e 13c9 aebd 5d92 3bbe
000002f0: 1ce4 803d eb74 efbd 7575 563e 27f9 a93d
00000300: ffcd ab3e 5fc0 673e 11e6 babd e0c7 0b3e
00000310: e107 2fbd 5bfb 82be 224b febb 0202 febd
00000320: 8579 2b3d b978 363d 9f5e 71bc 8852 e03d
00000330: 94e4 573e 2896 493d bf62 fa3d d165 88be
00000340: 0021 d6bd a373 d73d 2785 19bc 36c8 b5ba
00000350: 8d28 8b3d 18f4 a8bc c859 373d 6dce 423b
00000360: ce19 e43c b872 67ba dbc9 f43b 9abb 383d
00000370: 44cd b23e 0992 513d 953d 8e3c 9891 b03d
00000380: 27ea 163e bb51 1fbd bf8b 913d 5062 bebd
00000390: 0698 21be 84fd 11be 5069 103d ffc2 8bbd
000003a0: 585d 063e 308d 743e 1241 39be 7133 5bbd
000003b0: e97a 0bbd 7aca 2e3e 0948 5e3e ac5b ee3d
000003c0: 8d59 a7bd 187a ff3c e3fb bf3d 3361 3ebd
000003d0: 7754 97be cc55 c83d 6a48 3b3e 59ce d3bd
000003e0: af20 eebd f3e6 b33d caf1 ab3d bbac 913d
000003f0: 8554 453e 3daf 54bd 6d36 17bc 4805 953d

actor.preprocess.model.model.4.bias f4 [64]
0.0 0.023935748 0.018848455 0.0047484613 0.008119821 0.013414139 0.022640916 -0.0028163593
-0.0026685449 0.012002133 -0.004353022 0.0 -0.0022222186 0.011175825 -0.002379783 0.015220591
0.021836525 0.00069192704 0.008916997 -0.00033049606 0.019281715 -0.004014237 0.0 0.0
0.033967406 0.0069988654 0.02598489 0.013220268 0.0 -0.0014049923 0.015073386 0.023372337
0.0145827355 0.035115197 0.0025790303 -0.00852281 0.0042843656 0.027418314 0.0 -0.0016043024
0.0025914512 0.022337731 0.0 0.023457939 0.011710562 0.0038690278 0.017883327 0.025313845
0.0 0.014119046 0.024692196 0.0 0.024836268 0.0 0.009621141 0.0022620168
0.018409707 0.020229692 0.0 0.010483032 0.0036149193 0.021844257 0.005777436 0.03808861
00000000: 0000 0000 e714 c43c 1368 9a3c fb98 9b3b
00000010: ff08 053c fac6 5b3c 7179 b93c ab92 38bb
00000020: c1e2 2ebb 98a4 443c cca3 8ebb 0000 0000
00000030: a4a2 11bb cf1a 373c 22f6 1bbb c95f 793c
00000040: 83e2 b23c 7062 353a 9918 123c 6e46 adb9
00000050: b0f4 9d3c dc89 83bb 0000 0000 0000 0000
00000060: 6821 0b3d bd56 e53b 44de d43c d399 583c
00000070: 0000 0000 b827 b8ba 5df6 763c 5877 bf3c
00000080: 6dec 6e3c f4d4 0f3d f304 293b 42a3 0bbc
00000090: dd63 8c3b 5f9c e03c 0000 0000 7547 d2ba
000000a0: 56d5 293b 9efd b63c 0000 0000 dd2a c03c
000000b0: a8dd 3f3c 848f 7d3b 0e80 923c fb5e cf3c
000000c0: 0000 0000 9253 673c 4a47 ca3c 0000 0000
000000d0: 6e75 cb3c 0000 0000 fda1 1d3c 583e 143b
000000e0: f4cf 963c bdb8 a53c 0000 0000 06c1 2b3c
000000f0: 48e8 6c3b baf2 b23c a550 bd3b cd02 1c3d

actor.preprocess.model.model.6.weight f4 [128, 64]
0.10452306 -0.05262583 -0.094293624 -0.09954431 -0.042499263 -0.0194596 -0.030849705 0.064658865
0.13349476 0.23261972 -0.022015477 0.04725561 -0.032930784 -0.02448039 0.2226801 0.09437641
0.10168512 -0.106411 0.14428121 0.092925385 0.089103565 -0.21789898 0.006097094 0.03176614
-0.028833551 0.0909807 0.13443345 0.019542567 -0.010074633 -0.015503616 0.007057148 0.030596947
0.0704599 0.20676352 0.026592398 -0.19241458 -0.052491937 0.14967567 -0.083696455 -0.058847275
0.10021532 0.015258284 -0.025149211 0.08033364 0.0005627795 0.118211254 0.050321836 0.18852974
0.033078734 -0.067530714 -0.056272894 0.058835074 0.16100895 0.0018436252 -0.11179348 0.13998024
0.041398954 0.0406655 0.10639391 -0.21245919 -0.01199256 0.08993808 0.09739835 0.24856685
0.20494398 0.011874318 0.092545934 -0.12742376 -0.01250026 -0.034396794 -0.122603506 -0.05947855
-0.045479413 -0.012689799 -0.017074535 -0.10163041 -0.06002003 -0.055403374 0.00886238 0.053270537
-0.079266794 0.02826323 -0.14782478 -0.009124735 -0.047816206 0.11717889 0.1642552 -0.025183983
-0.010826672 -0.09793093 0.04734132 -0.035906468 0.032838713 -0.008359343 0.1597062 0.06825479
0.050560694 -0.1547947 0.013694795 -0.1321823 -0.0530455 0.047705837 -0.060734004 -0.0060361745
-0.14317542 0.026740905 -0.06098924 -0.18367869 -0.01572004 0.0047479626 -0.06906818 0.14599293
0.16017583 0.103628 0.084412254 0.030373894 -0.14710766 -0.1736839 -0.22111142 -0.0855874
-0.02360814 -0.030040983 0.12984663 0.05863506 -0.027636949 -0.049679957 -0.032138184 0.018133529
-0.03489465 -0.14499258 -0.03550586 -0.0069886097 0.011249065 0.06037194 0.06308735 0.0047659026
0.04757444 -0.17862764 0.07984853 0.08930197 0.07045147 -0.13979134 -0.016381541 0.15491958
0.052174333 -0.053070355 -0.074359715 0.048023097 0.09772565 -0.0858559 -0.07994851 -0.05432097
0.010350494 0.054392133 0.17867087 0.17039464 -0.06692138 -0.09219447 -0.028017078 -0.08810146
0.12907894 0.09481024 -0.13124636 -0.034594074 0.17673816 0.03459609 -0.07638629 -0.16802491
-0.012695813 -0.030518556 -0.12514064 0.10629928 0.11747623 0.16671304 0.031646226 -0.13797505
0.15941173 0.070619136 0.16768481 -0.1683328 -0.15741722 0.041523825 -0.059112344 -0.053689335
0.010542868 -0.0614302 -0.16438715 -0.062298175 -0.09925202 0.055818997 -0.086520806 0.13527504
-0.033413872 -0.030952124 -0.045390256 0.1855325 0.112206705 -0.0035632013 -0.10911184 -0.032554395
0.027189586 0.006690029 0.1270218 -0.045446467 0.00068003195 0.18671267 0.0008051787 0.013710275
-0.0035012732 0.015194688 0.042539254 0.02998132 -0.16568537 0.1095654 0.025321689 0.064107314
-0.05466319 0.00033175258 -0.03245562 -0.035789747 0.13388892 -0.08810927 -0.042588443 0.058757596
-0.002831103 -0.13790672 -0.009981902 -0.14961517 -0.07058384 -0.0075452775 0.18500099 -0.06754688
-0.035626095 0.04720093 0.20254868 -0.066909604 0.036859773 0.0054234564 -0.026393786 0.040918462
0.06154626 0.053300094 -0.00041056468 0.027528826 -0.056218572 -0.0145404115 -0.017197207 0.13548753
0.14028773 0.13460754 -0.12987466 -0.055972792 -0.06387175 0.097156584 0.023850871 0.009741483
00000000: 3010 d63d 2f8e 57bd 041d c1bd e3dd cbbd
00000010: b513 2ebd bd69 9fbc 85b8 fcbc de6b 843d
00000020: dab2 083e dd33 6e3e cd59 b4bc 198f 413d
00000030: 6ee2 06bd 198b c8bc 4106 643e 6b48 c13d
00000040: 4a40 d03d 03ee d9bd 74be 133e aa4f be3d
00000050: ee7b b63d e920 5fbe 22ca c73b 361d 023d
00000060: 5734 ecbc 1754 ba3d eca8 093e bc17 a03c
00000070: 1310 25bc e102 7ebc a63f e73b 73a6 fa3c
00000080: 484d 903d d1b9 533e 4dd8 d93c 5408 45be
00000090: c901 57bd 9444 193e 0c69 abbd d709 71bd
000000a0: b13d cd3d e2fd 793c b805 cebc f785 a43d
000000b0: 7e87 133a be18 f23d 451e 4e3d f10d 413e
000000c0: 917d 073d 8b4d 8abd 687e 66bd 0cfd 703d
000000d0: 88df 243e cca5 f13a fbf3 e4bd fb56 0f3e
000000e0: f391 293d de90 263d 0de5 d93d e78e 59be
000000f0: 717c 44bc 7531 b83d c978 c73d 4f88 7e3e
00000100: d6dc 513e 808c 423c b988 bd3d 607b 02be
00000110: e4cd 4cbc a7e3 0cbd 8c17 fbbd c89f 73bd
00000120: 9f48 3abd e0e8 4fbc e5df 8bbc 9b23 d0bd
00000130: 90d7 75bd a6ee 62bd 8433 113c 3532 5a3d
00000140: a156 a2bd 4a88 e73c 615f 17be ea7f 15bc
00000150: edda 43bd 7cfb ef3d 8432 283e a44e cebc
00000160: 5b62 31bc 0390 c8bd f9e8 413d a912 13bd
00000170: e381 063d a0f5 08bc 068a 233e 2bc9 8b3d
00000180: bb18 4f3d 8082 1ebe 2260 603c cc5a 07be
00000190: 3d46 59bd 3267 433d 38c4 78bd 1acb c5bb
000001a0: 949c 12be be0f db3c dacf 79bd 4416 3cbe
000001b0: 50c7 80bc cc94 9b3b 9e73 8dbd 2c7f 153e
000001c0: 2205 243e eb3a d43d 55e0 ac3d acd2 f83c
000001d0: 64a3 16be 31da 31be 086b 62be 7248 afbd
000001e0: dc65 c1bc 8218 f6bc 84f6 043e 512b 703d
000001f0: e266 e2bc 367d 4bbd 54a3 03bd c48c 943c
00000200: b1ed 0ebd ef78 14be 986e 11bd b500 e5bb
00000210: 004e 383c 9148 773d f133 813d 4a2b 9c3b
00000220: 6add 423d 2aea 36be a087 a33d f4e3 b63d
00000230: dc48 903d 7625 0fbe 9532 86bc 3da3 1e3e
00000240: c1b4 553d 4d60 59bd e849 98bd deb3 443d
00000250: 6324 c83d 38d5 afbd 0bbc a3bd aa7f 5ebd
00000260: 1e95 293c 49ca 5e3d 7ff5 363e ef7b 2e3e
00000270: 140e 89bd 74d0 bcbd 1284 e5bc 8a6e b4bd
00000280: 452d 043e df2b c23d 7265 06be 84b2 0dbd
00000290: d9fa 343e a1b4 0d3d 6a70 9cbd b90e 2cbe
000002a0: 1902 50bc 0d02 fabc de24 00be 70b3 d93d
000002b0: 6197 f03d d3b6 2a3e 799f 013d 5549 0dbe
000002c0: d43c 233e c4a0 903d 91b5 2b3e 6f5f 2cbe
000002d0: fb31 21be e314 2a3d c91f 72bd 59e9 5bbd
000002e0: febb 2c3c 3c9e 7bbd 1b55 28be 5f2c 7fbd
000002f0: a544 cbbd 76a2 643d d231 b1bd 8a85 0a3e
00000300: fcdc 08bd 4f8f fdbc 22eb 39bd 3bfc 3d3e
00000310: a1cc e53d 9984 69bb 0776 dfbd c257 05bd
00000320: b2bc de3c 0838 db3b 0112 023e 1326 3abd
00000330: 2c44 323a 9b31 3f3e a112 533a 10a1 603c
00000340: 9e75 65bb 24f3 783c a43d 2e3d 639b f53c
00000350: 6da9 29be d363 e03d 6e6f cf3c b24a 833d
00000360: 82e6 5fbd 14ef ad39 2ff0 04bd 4598 12bd
00000370: 2d1a 093e a272 b4bd 3871 2ebd ceab 703d
00000380: 078a 39bb 6b37 0dbe 228b 23bc b834 19be
00000390: 438e 90bd 603e f7bb e670 3d3e 0556 8abd
000003a0: abec 11bd c355 413d ec68 4f3e e707 89bd
000003b0: 46fa 163d 40b7 b13b c837 d8bc 1e9a 273d
000003c0: ee17 7c3d 3351 5a3d 0f41 d7b9 2284 e13c
000003d0: 7245 66bd e83a 6ebc 28e1 8cbc 3ebd 0a3e
000003e0: 96a7 0f3e 8fd6 093e ddfd 04be ba43 65bd
000003f0: 31cf 82bd 08fa c63d e762 c33c be9a 1f3c

actor.preprocess.model.model.6.bias f4 [128]
0.020505596 0.0 0.021909224 0.00041711924 0.0068487613 0.0013855866 0.0172405 0.0
0.02180893 0.010967843 0.012039015 0.024816323 0.00027764268 0.018322892 0.006096705 0.019448416
0.023164283 0.0010426287 0.007586652 0.0013829357 0.007856277 -0.004558102 0.0 0.032706957
0.0087973885 0.015805675 0.00726109 0.020818902 0.014881914 0.02101598 -0.0005776536 0.019110605
0.0 0.009746485 0.017360331 0.0 0.0018670751 0.011302118 -5.8917005e-05 -0.0029039981
0.011825609 0.024419757 0.028438104 0.0072565577 0.013641702 0.032731786 0.0 0.0
0.00682441 0.021077273 0.020748416 0.018322034 0.011979944 0.022967985 0.009712575 -0.0037844062
0.02105196 -0.0053727147 0.0018957005 0.0086333025 0.025667213 0.009067239 -0.0044428254 0.023600943
0.0044162124 -0.0031414318 0.011483815 0.014502016 0.0 0.0036742697 0.0 0.03457003
0.033215407 0.017038677 0.018103397 0.0052002124 0.0067505534 0.010444505 0.010333496 -0.0010207767
0.023163069 -5.0191848e-05 0.015567837 0.0018675753 0.014694571 0.013743287 0.0 0.018487927
0.021077428 0.0009187774 0.022949552 0.0 0.01100391 0.010061983 0.006728217 0.0265481
0.01641973 0.011254643 0.02283772 0.012241832 0.021822466 0.0 0.017032137 0.010459357
-0.0014236328 0.004128259 0.025372501 0.022268532 0.012918674 0.0 0.010127955 -0.005438855
-0.0031441012 5.8918413e-05 0.0076607005 0.010586294 0.008550472 0.011397528 0.020338258 0.023654439
0.0 0.020713419 0.013165152 0.012299461 0.009324634 0.011539316 0.0 0.020384751
00000000: 5afb a73c 0000 0000 f97a b33c ccb0 da39
00000010: 936b e03b 929c b53a f33b 8d3c 0000 0000
00000020: a4a8 b23c 78b2 333c 4a3f 453c 9a4b cb3c
00000030: 9290 9139 e419 963c dec6 c73b 4952 9f3c
00000040: 06c3 bd3c d0a8 883a 7399 f83b 9f43 b53a
00000050: 9db7 003c 225c 95bb 0000 0000 bbf7 053d
00000060: ec22 103c e77a 813c 70ee ed3b 678c aa3c
00000070: 45d3 733c b429 ac3c ad6d 17ba d88d 9c3c
00000080: 0000 0000 b9af 1f3c 4137 8e3c 0000 0000
00000090: a5b8 f43a 852c 393c a71d 77b8 0151 3ebb
000000a0: 33c0 413c f10b c83c 07f7 e83c 6bc8 ed3b
000000b0: 7281 5f3c c411 063d 0000 0000 0000 0000
000000c0: 4d9f df3b 3faa ac3c 95f8 a93c 1718 963c
000000d0: 8747 443c 5b27 bc3c 7e21 1f3c cd03 78bb
000000e0: 2975 ac3c 990d b0bb 2779 f83a b272 0d3c
000000f0: 0c44 d23c c28e 143c 1f95 91bb c456 c13c
00000100: e0b5 903b 7be0 4dbb 9c26 3c3c dd99 6d3c
00000110: 0000 0000 04cc 703b 0000 0000 4e99 0d3d
00000120: e10c 083d b294 8b3c 934d 943c 8b66 aa3b
00000130: bf33 dd3b 6e1f 2b3c d34d 293c 95cb 85ba
00000140: 7ac0 bd3c 1685 52b8 3e10 7f3c 6ec9 f43a
00000150: 7fc1 703c 862b 613c 0000 0000 fe73 973c
00000160: 92aa ac3c 1cda 703a b300 bc3c 0000 0000
00000170: be49 343c 04db 243c 6078 dc3b 677b d93c
00000180: ab82 863c 6565 383c 2c16 bb3c f791 483c
00000190: 07c5 b23c 0000 0000 fb86 8b3c b95d 2b3c
000001a0: 3199 baba 5946 873b fed9 cf3c 7f6c b63c
000001b0: d9a8 533c 0000 0000 b9ef 253c 6c38 b2bb
000001c0: 440d 4ebb 2a1f 7738 9d06 fb3b 2372 2d3c
000001d0: 4717 0c3c b3bc 3a3c 6b9c a63c f4c6 c13c
000001e0: 0000 0000 30af a93c a6b2 573c ae83 493c
000001f0: 5ac6 183c 660f 3d3c 0000 0000 ecfd a63c

actor.preprocess.model.model.8.weight f4 [256, 128]
0.08199521 0.090171725 -0.047071632 -0.024064831 0.010068281 0.010766452 -0.047588505 -0.050810132
-0.07779175 0.17003493 -0.053799313 0.07780955 -0.01761695 0.06823487 -0.036752447 -0.0062701213
-0.007384272 -0.05620358 0.01374698 0.064183384 0.10820542 0.05396715 0.04582343 0.038376193
0.05415255 0.0040254295 0.10110522 -0.13410898 -0.046542477 -0.002367824 0.035243474 0.040525217
0.0075432397 -0.06280179 -0.1235465 0.030165054 -0.029062357 0.0075559597 -0.08930018 0.0085471645
0.14839454 -0.010965724 0.05493597 -0.07946772 0.00039566582 0.029547244 0.05550575 -0.012598774
-0.096966885 -0.0141186975 -0.07645434 -0.056278996 -0.011027374 0.023025092 -0.038769033 -0.09495951
-0.003992614 -0.1397484 -0.05899036 -0.004495808 -0.10088657 0.03439606 0.021725832 -0.062328
-0.09758176 -0.0036374135 -0.093897164 0.08496649 -0.010932243 0.05108507 -0.105175644 -0.048071865
-0.05185736 0.061952285 0.013778727 0.060359504 -0.14179572 -0.020039396 -0.06534233 -0.07945381
0.12705994 -0.019578982 -0.009532336 0.0010888241 0.02906744 0.15967843 0.027436046 -0.01797347
-0.0028868911 0.010724667 -0.0042298594 -0.011185483 -0.03721186 -0.07550613 0.09456224 0.10003706
-0.0941959 0.065168925 -0.03792982 -0.034672882 0.07366457 0.033615466 -0.12190486 -0.0038265947
-0.14451581 -0.091824606 0.034846015 0.014899833 0.05156301 0.062414248 0.09049258 0.011283921
0.05049174 0.016209347 0.012027383 0.06786545 0.01711239 0.108336136 -0.020610664 -0.011050627
-0.011794247 0.03568267 -0.033972733 -0.0089342445 -0.14282386 0.008268668 -0.040547516 0.00610074
-0.030970614 0.12018788 0.053817395 0.06842717 0.086435966 -0.057847966 0.061399836 -0.03539941
-0.00036566352 0.14142343 0.08602746 -0.037125625 0.033508826 -0.06365625 -0.11982074 0.13335581
0.035052855 0.096334286 -0.015471702 -0.08934666 -0.026307572 -0.04071442 -0.04117768 0.04081033
-0.055566717 -0.121141665 -0.058740992 0.060991812 -0.05085621 -0.007698466 0.04112909 0.007137847
-0.017979037 -0.041294377 0.105368845 -0.021890044 0.036914214 0.10511335 0.09926951 -0.05786763
-0.09340616 -0.02401981 -0.06607831 0.09435243 0.03498071 0.018676933 -0.06964108 0.14220583
0.122108854 -0.021719782 -0.07439801 -0.038646225 -0.04018851 0.0097271865 0.031204235 -0.027132591
0.03630482 0.10421224 0.03735441 -0.03595142 -0.050108414 0.025051702 0.017542219 0.08006284
0.011959582 -0.06433294 0.054616455 0.019665575 0.04965899 -0.09533086 -0.06339634 0.14294815
-0.05850448 0.034582485 -0.06660141 -0.013349896 0.065835245 0.003911125 -0.05394216 -0.13407716
0.08200446 -0.14451866 0.019216439 -0.07231239 0.04274265 -0.0071652597 0.011568276 0.047620986
-0.19098215 -0.041149803 -0.039139032 -0.03187577 -0.00019505121 0.037773497 -0.02047955 -0.047222905
0.091824494 0.032292884 0.13017797 0.10344815 0.011855356 -0.060544208 0.049363226 -0.0019265692
0.022631101 -0.042595908 0.12394696 -0.09833716 -0.1478106 -0.030603325 -0.10666702 -0.096164644
0.058086224 0.02261596 -0.04374934 0.021713998 -0.04663173 -0.05457254 0.0070821154 0.00063351326
-0.05793663 0.11701572 -0.089764155 -0.16263194 0.08730779 -0.12948863 -0.042281818 0.020610852
00000000: 1bed a73d f4ab b83d 2fce 40bd 9c23 c5bc
00000010: 6ef5 243c c665 303c 2aec 42bd 491e 50bd
00000020: 4851 9fbd a31d 2e3e ab5c 5cbd 9d5a 9f3d
00000030: 6c51 90bc b9be 8b3d bc89 16bd 9775 cdbb
00000040: c3f7 f1bb ba35 66bd 033b 613c 9472 833d
00000050: ce9a dd3d a90c 5d3d 59b1 3b3d 5b30 1d3d
00000060: 10cf 5d3d c0e7 833b 4110 cf3d dd53 09be
00000070: 53a3 3ebd 7f2d 1bbb 765b 103d c5fd 253d
00000080: 482d f73b 3a9e 80bd f305 fdbd b41c f73c
00000090: 2e14 eebc fc97 f73b 03e3 b6bd 6809 0c3c
000000a0: bdf4 173e 94a9 33bc 8a04 613d f9bf a2bd
000000b0: 5e71 cf39 100d f23c ff59 633d 176b 4ebc
000000c0: 9396 c6bd 1c52 67bc 1894 9cbd ce84 66bd
000000d0: 29ac 34bc 1e9f bc3c 47cc 1ebd 227a c2bd
000000e0: 79d4 82bb 341a 0fbe e09f 71bd 9251 93bb
000000f0: 9e9d cebd e2e2 0c3d 5ffa b13c a54b 7fbd
00000100: f2d8 c7bd ac61 6ebb 284d c0bd e902 ae3d
00000110: 271d 33bc 943e 513d 5466 d7bd 01e7 44bd
00000120: 6268 54bd aec1 7d3d 2bc0 613c 873b 773d
00000130: e632 11be a929 a4bc 33d2 85bd aeb8 a2bd
00000140: 001c 023e 1a64 a0bc 842d 1cbc e0b6 8e3a
00000150: d71e ee3c be82 233e 8fc1 e03c 193d 93bc
00000160: ff31 3dbb 84b6 2f3c a29a 8abb 5143 37bc
00000170: 776b 18bd f5a2 9abd d9a9 c13d 3be0 cc3d
00000180: c8e9 c0bd 4977 853d 4d5c 1bbd 2705 0ebd
00000190: 73dd 963d 5fb0 093d 41a9 f9bd 9bc7 7abb
000001a0: f4fb 13be 8a0e bcbd b2ba 0e3d 6e1e 743c
000001b0: bc33 533d 15a6 7f3d 2c54 b93d 32e0 383c
000001c0: 6dd0 4e3d 77c9 843c 800e 453c 0bfd 8a3d
000001d0: 482f 8c3c 56df dd3d b2d7 a8bc b00d 35bc
000001e0: a83c 41bc fe27 123d fe26 0bbd f060 12bc
000001f0: 6b40 12be 4f79 073c 2715 26bd b7e8 c73b
00000200: 16b6 fdbc 1025 f63d a16f 5c3d 8b23 8c3d
00000210: 5705 b13d fdf1 6cbd 657e 7b3d f9fe 10bd
00000220: 87b6 bfb9 4ed1 103e 2a2f b03d 0a11 18bd
00000230: 8d40 093d 355e 82bd 9364 f5bd 6d8e 083e
00000240: 9593 0f3d e94a c53d 067d 7dbc 62fb b6bd
00000250: fa82 d7bc 2ac4 26bd eda9 28bd bc28 273d
00000260: ed99 63bd 1f19 f8bd 659a 70bd 8dd2 793d
00000270: 9a4e 50bd 6a43 fcbb fa76 283d 9ae4 e93b
00000280: c648 93bc 4b24 29bd 9fcb d73d c052 b3bc
00000290: 5c33 173d ab45 d73d d04d cb3d 9c06 6dbd
000002a0: bb4b bfbd 31c5 c4bc 1154 87bd d93b c13d
000002b0: ef47 0f3d 5e00 993c fc9f 8ebd 689e 113e
000002c0: 3514 fa3d afed b1bc fc5d 98bd 814b 1ebd
000002d0: b59c 24bd c75e 1f3c 06a0 ff3c 2b45 debc
000002e0: 5db4 143d 3a6d d53d f000 193d cc41 13bd
000002f0: 7b3e 4dbd 3a39 cd3c b3b4 8f3c fcf7 a33d
00000300: 1ff2 433c fdc0 83bd 81b5 5f3d b319 a13c
00000310: 3a67 4b3d d33c c3bd f1d5 81bd 0061 123e
00000320: 65a2 6fbd 5da6 0d3d 5266 88bd 86b9 5abc
00000330: a1d4 863d e528 803b 74f2 5cbd 864b 09be
00000340: f4f1 a73d b3fc 13be cb6b 9d3c 8518 94bd
00000350: eb12 2f3d 8eca eabb de88 3d3c 390e 433d
00000360: d390 43be b28c 28bd 4050 20bd 2b90 02bd
00000370: a986 4cb9 62b8 1a3d bbc4 a7bc ce6c 41bd
00000380: 7b0e bc3d 8b45 043d 604d 053e a0dc d33d
00000390: f83c 423c 34fd 77bd 1831 4a3d ef84 fcba
000003a0: dc64 b93c 0c79 2ebd e7d7 fd3d fe64 c9bd
000003b0: a95b 17be d3b3 fabc 3d74 dabd f8f1 c4bd
000003c0: d2eb 6d3d 1b45 b93c 8232 33bd 8ee1 b13c
000003d0: ea00 3fbd 7587 5fbd 1711 e83b 5b12 263a
000003e0: f64e 6dbd f0a5 ef3d 45d6 b7bd fd88 26be
000003f0: 6dce b23d ab98 04be b32f 2dbd 17d8 a83c

actor.preprocess.model.model.8.bias f4 [256]
0.0015228797 0.0032046027 0.00018949583 0.012788297 0.0 0.011445995 0.006458256 0.009666795
0.0075405724 0.022381807 0.015431872 0.012543604 0.0049641305 0.008635038 0.005310293 -0.00057743624
0.0 0.0 0.012627044 0.0 0.00083415624 0.0 -0.0020738204 0.011629893
0.0 0.0031188747 0.0054925033 0.008835586 -0.0021597135 -0.003938401 0.0 0.008525554
-9.989534e-05 0.0015949237 4.4474764e-05 0.008102218 -0.0011753008 0.01192852 0.002608978 0.0016744378
0.0003635754 0.01860442 0.02192597 0.013766892 0.008296156 0.0 -0.0031196014 0.0031452023
0.008561809 0.011510877 0.0077689397 0.005325619 0.0027331044 0.0035556012 0.007371907 0.022132616
0.0051079644 0.005082724 0.013242323 -0.005406005 0.0038855104 0.018840417 0.01830036 0.00437976
0.0127921095 0.012262785 0.005339734 0.002804643 0.009110427 0.0031400493 0.011714338 -9.1497735e-05
0.010738859 0.0043575857 0.001182852 0.005633932 0.0 0.015740342 0.014178879 0.0057383855
0.0 0.0043040956 0.008700219 0.008506172 0.0018674562 0.016139146 0.0 0.0042376765
0.00082050305 -0.008573119 0.0 0.0 0.01008391 0.013566398 0.011518382 0.013712959
-0.0010671862 0.0065711145 0.012226238 0.020096151 0.0065120873 -0.0023139752 -0.00031398484 0.015906543
0.0 0.019981226 0.007262458 -0.0001812699 0.003360482 0.00632394 0.003182106 -0.0008980316
-0.00071980053 0.0 0.0 0.0 0.018745616 0.007946823 0.0009352528 0.029938206
0.007067083 -0.002535035 -0.0023306 0.0008718589 0.013746031 0.0015218873 -0.0023725647 0.0022684513
0.013941488 0.0 0.022746608 0.009078847 0.011426994 0.00061719766 -0.000780711 -0.00026549556
-0.0036806848 0.011785285 0.004075517 0.016562732 0.014261748 0.0 0.0 0.0
0.029164484 0.0009006431 0.015658636 0.0020495518 0.0 0.021013562 0.0032680898 0.011910292
0.016587188 0.00712772 0.0047065415 0.0 -0.00040739815 -0.00060326216 0.0 0.018222973
0.017797973 -0.0051833494 0.009181303 0.007030433 0.0 0.0132818865 -0.00022262715 0.006561078
0.02277466 0.0015663698 0.015136891 0.00824081 0.008523734 0.008890877 0.018783906 0.0
0.014505677 0.009609135 0.0 0.008638107 0.010224235 0.016430922 0.004816427 0.0
0.018021038 0.003247134 -0.0010057891 0.009848677 0.0040263454 0.008136677 0.009691446 0.006965821
0.019593189 0.0050166757 0.0 -0.00011074021 0.0 0.0013387725 0.0055270903 0.0
0.021576483 0.0075642266 -0.0014993701 0.0 0.004824943 0.00825232 0.0 0.003468981
0.0 0.013808431 0.006224608 0.005662646 0.0040925588 0.00032594186 0.0 0.011211206
0.004595986 0.004351583 0.013179309 0.010838183 0.002814876 0.019959314 0.0050410056 -0.00063465396
0.004020857 -0.0047224015 0.0 0.004709123 0.012533071 0.0 0.030279899 0.0072286366
0.0 0.018049594 0.028791133 0.002397317 0.0046203434 0.007299386 0.010306088 0.009290882
0.005918122 0.001363242 0.011434335 -0.003012304 -0.00017793945 0.0069889864 0.006130156 0.0
0.0 0.0043681413 0.017129093 0.021793751 -0.0019478471 0.0062662885 -0.0007920186 0.007899526
00000000: 5d9b c73a 5004 523b 66b3 4639 0186 513c
00000010: 0000 0000 fc87 3b3c c79f d33b 7a61 1e3c
00000020: e816 f73b 0d5a b73c f6d5 7c3c b083 4d3c
00000030: 25aa a23b f979 0d3c f701 ae3b 175f 17ba
00000040: 0000 0000 0000 0000 a9e1 4e3c 0000 0000
00000050: 47ab 5a3a 0000 0000 efe8 07bb 4f8b 3e3c
00000060: 0000 0000 0966 4c3b 75fa b33b 22c3 103c
00000070: fb89 0dbb b40d 81bb 0000 0000 c4ae 0b3c
00000080: e77e d1b8 c20c d13a 6a8a 3a38 2abf 043c
00000090: 8d0c 9aba d76f 433c 63fb 2a3b cf78 db3a
000000a0: 449e be39 4c68 983c 189e b33c 888e 613c
000000b0: 9aec 073c 0000 0000 3a72 4cbb bd1f 4e3b
000000c0: d446 0c3c 1e98 3c3c 9792 fe3b 8882 ae3b
000000d0: e21d 333b 1705 693b 0a90 f13b 764f b53c
000000e0: b660 a73b fb8c a63b 54f6 583c db24 b1bb
000000f0: 0ca4 7e3b 3857 9a3c a3ea 953c 1784 8f3b
00000100: ff95 513c d9e9 483c eff8 ae3b 1ace 373b
00000110: e743 153c 49c9 4d3b 7fed 3f3c 79e2 bfb8
00000120: 0af2 2f3c 14ca 8e3b ed09 9b3a d99c b83b
00000130: 0000 0000 e4f1 803c 874e 683c 1109 bc3b
00000140: 0000 0000 5f09 8d3b 5d8b 0e3c 795d 0b3c
00000150: 6fc5 f43a 3e36 843c 0000 0000 35dc 8a3b
00000160: 0717 573a 4476 0cbc 0000 0000 0000 0000
00000170: fc36 253c 9945 5e3c 98b7 3c3c 52ac 603c
00000180: d4e0 8bba 8152 d73b 8f50 483c afa0 a43c
00000190: 5963 d53b 10a6 17bb 559e a4b9 704e 823c
000001a0: 0000 0000 abaf a33c eaf9 ed3b 4513 3eb9
000001b0: 883b 5c3b 0e39 cf3b e18a 503b e169 6bba
000001c0: ffb0 3cba 0000 0000 0000 0000 0000 0000
000001d0: 6890 993c 6433 023c c12b 753a f840 f53c
000001e0: fd92 e73b d422 26bb fbbc 18bb 768d 643a
000001f0: 0837 613c 107a c73a 087d 1bbb 4caa 143b
00000200: d76a 643c 0000 0000 1857 ba3c 72bf 143c
00000210: 4938 3b3c 6fcb 213a a1a8 4cba 3632 8bb9
00000220: a537 71bb 1117 413c ea8b 853b 91ae 873c
00000230: 1baa 693c 0000 0000 0000 0000 0000 0000
00000240: 5bea ee3c 2319 6c3a 8a46 803c c651 063b
00000250: 0000 0000 a224 ac3c 732d 563b 6323 433c
00000260: dbe1 873c a68f e93b 5539 9a3b 0000 0000
00000270: 0e98 d5b9 3d24 1eba 0000 0000 5848 953c
00000280: 0ecd 913c 16d9 a9bb 2d6d 163c 8c5f e63b
00000290: 0000 0000 459c 593c 0571 69b9 50fe d63b
000002a0: ec91 ba3c a64e cd3a b900 783c 7604 073c
000002b0: 22a7 0b3c 0aab 113c b5e0 993c 0000 0000
000002c0: 38a9 6d3c a26f 1d3c 0000 0000 d986 0d3c
000002d0: 8d83 273c 249a 863c 1ed3 9d3b 0000 0000
000002e0: dba0 933c decd 543b afd4 83ba 585c 213c
000002f0: 6fef 833b b24f 053c dfc8 1e3c 8b41 e43b
00000300: e581 a03c ed62 a43b 0000 0000 333d e8b8
00000310: 0000 0000 c079 af3a 981c b53b 0000 0000
00000320: 2ac1 b03c 55dd f73b 8386 c4ba 0000 0000
00000330: 8e1a 9e3b bd34 073c 0000 0000 d857 633b
00000340: 0000 0000 c23c 623c ccf7 cb3b b88d b93b
00000350: df1a 863b 2de3 aa39 0000 0000 35af 373c
00000360: ed99 963b b997 8e3b 07ee 573c a292 313c
00000370: c879 383b b781 a33c 052f a53b e85e 26ba
00000380: 65c1 833b 60be 9abb 0000 0000 fd4e 9a3b
00000390: 8357 4d3c 0000 0000 8d0d f83c 33de ec3b
000003a0: 0000 0000 bedc 933c 62db eb3c 4e1c 1d3b
000003b0: 4066 973b b02f ef3b deda 283c c938 183c
000003c0: ceec c13b d0ae b23a 1457 3b3c 136a 45bb
000003d0: 4295 3ab9 de03 e53b 7adf c83b 0000 0000
000003e0: 0000 0000 a022 8f3b 5052 8c3c cf88 b23c
000003f0: e74e ffba 7055 cd3b 789f 4fba 036d 013c

actor.preprocess.model.model.10.weight f4 [170, 256]
0.09158508 0.08602953 -0.035720445 -0.07313884 -0.0010785633 0.110191576 0.03072149 -0.044682976
0.06797811 -0.025753278 0.088489756 0.12619162 -0.06646785 -0.008337545 -0.019594014 0.06503465
0.09183414 -0.047630746 -0.11032871 -0.06575499 -0.036827043 0.15377949 -0.02133588 0.099486746
0.03794474 -0.07938686 -0.008126713 0.0652102 0.16935365 -0.051508654 -0.010184985 -0.0027074092
0.0522183 -0.021995045 0.040330455 0.09777345 -0.062522665 -0.07634968 -0.0022390953 -0.07529648
-0.009187619 0.16905575 -0.015098354 0.050654374 0.061895378 -0.050864343 0.10290712 0.08676783
-0.0694984 0.017200904 0.060166594 0.08320399 0.038565174 0.0563061 0.047431745 0.024649229
0.06882991 0.15560897 0.113129035 0.027643004 -0.02344321 0.03826818 0.1514137 0.046423383
0.105188556 0.038697667 -0.14009562 0.07298555 0.10815385 -0.08306603 0.049574476 0.058540944
-0.11432295 0.016276482 0.06591558 -0.08263443 0.07214702 0.08899189 0.08967228 -0.02716322
0.040403932 -0.009326064 -0.0131880175 -0.0036458522 -0.027106801 -0.0032382414 0.038432326 0.10062543
0.009229668 0.051674914 0.0070056915 -0.023226583 0.021484595 0.04892456 -0.07711463 -0.05849274
-0.049704537 -0.029147739 0.14565285 0.081280045 0.00093019253 -0.04773473 0.13312325 0.027673064
-0.013474652 0.0022955781 -0.009165575 0.0026450427 -0.035043016 0.12350411 -0.010983878 0.029230203
0.123770185 -0.100757584 0.000590773 0.052878704 -0.0077841976 -0.09312632 -0.021663638 -0.036283657
0.06808227 0.110316314 -0.006741767 -0.00873528 0.0661086 0.09141755 0.03705295 -0.040650345
0.063465476 -0.0420495 0.002928013 -0.097033486 -0.09286354 -0.006917324 0.029453171 0.07435623
-0.0761167 0.007960471 -0.02704642 0.09365834 -0.032743692 0.0071418663 0.048330434 0.0069766603
0.017203828 -0.073719725 0.03561052 0.024761675 0.0065464918 -0.095610105 0.059218742 0.009649865
0.07471831 0.003955263 0.006672881 -0.017458947 0.04040447 -0.010919271 -0.007674937 0.030157696
0.04377519 -0.056624554 0.0007179191 -0.0029019455 0.096185766 0.011983963 0.08205911 -0.005877476
0.1418337 0.03562175 -0.024354499 0.067044385 0.048742443 0.09386219 0.13422781 0.030032527
0.007837797 0.047572955 -0.023574242 -0.13455594 0.027239824 0.04841363 -0.032657802 0.03170494
0.003267514 -0.030784544 0.10448131 0.0042858026 -0.004879858 0.067684345 0.02927453 -0.054411843
-0.01338926 0.010145171 0.032035276 0.016282484 -0.04641736 -0.07156091 -0.13759542 -0.21200006
0.029040033 0.01151495 0.13194522 -0.036536474 -0.04087778 0.03596056 0.043473694 0.013105358
-0.03751863 0.10806409 -0.008164249 -0.009892131 0.019202184 0.06015483 -0.10347941 0.18964486
-0.08560253 -0.016636418 -0.0201422 0.08576809 0.07676269 0.08875928 -0.013425863 -0.02573752
0.11024779 -0.025311839 0.12534101 -5.3895343e-05 -0.050729826 0.07629665 -0.004519898 0.19131605
-0.038670585 -0.10815615 0.0029442718 0.11411254 -0.07267517 0.124133945 0.017324375 0.073748946
0.015676137 0.083243184 -0.03673397 -0.029944258 -0.024015004 0.0079626255 0.04201609 0.0765707
-0.036271796 -0.06502064 0.13022245 0.06460991 0.054197915 -0.03597797 -0.005644624 -0.008460773
00000000: f590 bb3d 4030 b03d 9a4f 12bd d1c9 95bd
00000010: 945e 8dba 1fac e13d a2ab fb3c 7f05 37bd
00000020: 1b38 8b3d 8af8 d2bc 1e3a b53d 6038 013e
00000030: 4c20 88bd 339a 08bc a083 a0bc e330 853d
00000040: 8a13 bc3d 7518 43bd 05f4 e1bd 8daa 86bd
00000050: f4d7 16bd 5f78 1d3e 95c8 aebc b5bf cb3d
00000060: f26b 1b3d 9495 a2bd e825 05bc ed8c 853d
00000070: 0b6b 2d3e bdfa 52bd ecde 26bc ca6e 31bb
00000080: dbe2 553d f42e b4bc 8c31 253d 723d c83d
00000090: e20b 80bd 395d 9cbd c9bd 12bb 0a35 9abd
000000a0: ab87 16bc f31c 2d3e 165f 77bc f67a 4f3d
000000b0: 0286 7d3d 2157 50bd f8c0 d23d 55b3 b13d
000000c0: 2d55 8ebd e9e8 8c3c 3f71 763d da66 aa3d
000000d0: 84f6 1d3d 3aa1 663d ca47 423d 2eed c93c
000000e0: b2f6 8c3d f557 1f3e 32b0 e73d 9573 e23c
000000f0: fa0b c0bc 18bf 1c3d 310c 1b3e 7226 3e3d
00000100: 196d d73d 7281 1e3d 3a75 0fbe 7379 953d
00000110: c47f dd3d 861e aabd 9b0e 4b3d a1c8 6f3d
00000120: 2722 eabd 4256 853c bffe 863d 3d3c a9bd
00000130: d1c1 933d 6141 b63d 1aa6 b73d 6785 debc
00000140: 987e 253d 59cc 18bc 8e12 58bc 40ef 6ebb
00000150: 150f debc ad38 54bb 376b 1d3d b514 ce3d
00000160: 0938 173c 13a9 533d 0090 e53b ad45 bebc
00000170: 7600 b03c 1f65 483d 46ee 9dbd 1596 6fbd
00000180: fc96 4bbd 3dc7 eebc 0526 153e 2776 a63d
00000190: 2ad8 733a 7e85 43bd 7651 083e 9fb2 e23c
000001a0: c9c4 5cbc 6971 163b 352b 16bc 7458 2d3b
000001b0: 4489 0fbd b9ef fc3d b9f5 33bc 2e74 ef3c
000001c0: 397b fd3d fe59 cebd 1bde 1a3a 5797 583d
000001d0: 9512 ffbb 03b9 bebd f177 b1bc 2c9e 14bd
000001e0: b86e 8b3d 85ed e13d 0aea dcbb 6b1e 0fbc
000001f0: f263 873d 2039 bb3d d6c4 173d fa80 26bd
00000200: 30fa 813d 193c 2cbd e8e3 3f3b 7eb9 c6bd
00000210: 3d2f bebd b8aa e2bb c747 f13c 1448 983d
00000220: 13e3 9bbd a36c 023c 7490 ddbc f2cf bf3d
00000230: 401e 06bd 5106 ea3b 22f6 453d 789c e43b
00000240: 0bef 8c3c 5efa 96bd 56dc 113d ffd8 ca3c
00000250: f483 d63b 3bcf c3bd 5a8f 723d 781a 1e3c
00000260: ea05 993d 279b 813b 2fa8 da3b 1106 8fbc
00000270: 287f 253d bee6 32bc 0a7e fbbb 460d f73c
00000280: 9d4d 333d 26ef 67bd bc32 3c3a 912e 3ebb
00000290: 0bfd c43d 6258 443c 9b0e a83d d897 c0bb
000002a0: da3c 113e 1de8 113d 1683 c7bc 914e 893d
000002b0: 28a6 473d d23a c03d 0473 093e c606 f63c
000002c0: 1a6a 003c dcdb 423d c51e c1bc 08c9 09be
000002d0: 0d26 df3c 5f4d 463d 30c4 05bd 0add 013d
000002e0: ca23 563b de2f fcbc 4cfa d53d eb6f 8c3b
000002f0: 37e7 9fbb 179e 8a3d 24d1 ef3c f4de 5ebd
00000300: a05e 5bbc ee37 263c 6c37 033d d862 853c
00000310: 2120 3ebd 878e 92bd d0e5 0cbe 8b16 59be
00000320: 5de5 ed3c 33a9 3c3c a61c 073e 45a7 15bd
00000330: 766f 27bd 614b 133d 7911 323d dbb7 563c
00000340: 23ad 19bd b550 dd3d 58c3 05bc 9b12 22bc
00000350: e64d 9d3c e964 763d 03ed d3bd 4332 423e
00000360: 6150 afbd 1949 88bc 4101 a5bc 2ea7 af3d
00000370: c235 9d3d 6dc7 b53d 27f8 5bbc 7ed7 d2bc
00000380: 98c9 e13d c65a cfbc 6559 003e af0d 62b8
00000390: 14ca 4fbd 6b41 9c3d a71b 94bb 5be8 433e
000003a0: 0c65 1ebd f980 ddbd aff4 403b d6b3 e93d
000003b0: b8d6 94bd f039 fe3d d9eb 8d3c b009 973d
000003c0: 3e6b 803c 677b aa3d 5c76 16bd a94d f5bc
000003d0: 1dbb c4bc ac75 023c 1019 2c3d 19d1 9c3d
000003e0: bc91 14bd 8b29 85bd 0959 053e 3352 843d
000003f0: a2fe 5d3d a35d 13bd 8af6 b8bb 0e9f 0abc
