data/results/qft/PPO_qtf20_tensorboard/PPO_CircuitEnvTest_v6_59ee2_00000_0_2024-03-13_15-14-37/checkpoint_000000/learner/module_state/default_policy/module_state_dir/module_state.pt (torch, 966914 bytes, 11 tensors)

encoder.actor_encoder.net.mlp.0.weight f4 [256, 190]
-0.037456308 0.027865473 0.10736576 -0.08116264 -0.01848256 -0.005194001 0.025412384 0.05601155
0.05894079 0.010730782 -0.069962084 0.13569924 0.3056239 0.029326234 -0.07151561 0.043273136
-0.07170002 -0.15921468 -0.01894633 -0.0056268987 0.0138556035 -0.09499172 0.05219002 0.20984279
-0.062029682 0.020666804 0.06708233 -0.056577574 -0.076608405 -0.089071944 0.18931325 -0.030767439
-0.046826936 0.099116646 -0.041999657 -0.041607466 -0.10795554 0.052459873 0.03766661 -0.05011241
-0.004303151 0.0046891854 0.10165146 0.056494217 0.049590576 0.014832186 0.23290133 0.105764836
-0.11528323 0.011585839 -0.029682849 -0.05961793 -0.057855736 -0.06666726 0.02261265 -0.009021531
-0.04797856 0.15099801 0.0004968558 -0.042368222 -0.0005372902 0.0054845456 0.06284379 -0.017323453
0.061038755 -0.024987109 0.027797544 0.054752547 -0.06542601 -0.055009555 -0.099368446 0.031875864
-0.008316443 0.05026526 -0.03454035 -0.008019736 0.00784669 0.00041472446 -0.17047344 0.03642357
-0.039891142 -0.041941974 0.18651322 0.034974393 -0.018263385 0.028263524 0.06556049 -0.020035919
-0.056820016 -0.0059481445 -0.07972852 0.0514187 -0.097490154 -0.096114874 -0.04687197 0.061577134
0.06320453 0.029499874 -0.014812171 -0.0592057 -0.07123026 0.04079332 -0.015779387 0.1117208
-0.043609615 0.056087103 -0.01055646 0.10398059 -0.011343287 -0.016525244 -0.048668247 -0.1049905
0.014073671 -0.04433614 0.034337472 0.08159445 -0.03132653 -0.0070621106 -0.04337066 0.029210709
-0.09081087 0.16963746 0.21899447 0.0892529 0.070034064 0.18106778 -0.0039778044 0.010897861
0.08434699 0.028219968 0.073801555 0.09134487 0.053671025 0.024168756 0.10566497 0.058711965
0.12725237 -0.021951454 -0.12514384 -0.019677678 0.051465336 0.049260158 0.022646245 0.02323243
0.020016728 0.09722435 0.030679341 -0.04015856 -0.0962227 -0.026147917 -0.059327163 0.030148743
-0.030557698 0.1339645 0.12583517 0.098380014 -0.02252987 -0.1097737 -0.12742981 -0.019750044
-0.032431707 0.12863317 -0.07049452 0.014013522 -0.014962412 0.02539109 -0.092042916 -0.09732372
-0.05535537 -0.09550061 0.021170646 -0.079213604 0.13013801 0.07541291 -0.04421841 0.017629556
-0.063452035 0.025196558 0.06072425 0.039065063 -0.032973036 0.023430564 0.01727601 0.05861117
0.060294606 -0.06799195 -0.0065210904 -0.00092761917 -0.038475994 -0.06594387 -0.0014952105 0.043572966
-0.012753712 -0.019652769 -0.08237416 -0.029874662 0.048142932 -0.06008906 -0.012016647 0.027939852
-0.05819296 -0.023808315 0.12259882 0.086872235 -0.06423811 0.051450618 0.013120147 -0.0031969857
-0.008754142 -0.004998002 -0.0017046095 0.029787274 -0.08783015 0.073373355 -0.010439934 0.03798667
-0.05573218 0.01433621 0.07623403 -0.07201792 -0.0014502091 -0.003363064 0.10588977 -0.07613885
0.010092967 0.041234694 0.08979447 -0.06925466 -0.068631984 0.027581522 -0.04931835 -0.06743145
0.06472143 -0.020230642 -0.029046765 0.1138507 0.07578386 -0.06320818 -0.034520518 -0.061761342
-0.037009995 0.0753894 -0.0022328664 -0.045761425 -0.05679425 0.10060021 -0.10577857 0.22757357
-0.05106227 -0.045543212 0.078009896 -0.02019294 -0.05485281 0.02649666 -0.03669635 -0.06859825
00000000: c96b 19bd 2246 e43c 94e2 db3d 9938 a6bd
00000010: bd68 97bc 7032 aabb a22d d03c 5e6c 653d
00000020: e66b 713d 29d0 2f3c 4848 8fbd bef4 0a3e
00000030: bc7a 9c3e 923d f03c c776 92bd 2c3f 313d
00000040: 76d7 92bd 2c09 23be 5535 9bbc d961 b8bb
00000050: 9d02 633c 058b c2bd 34c5 553d 07e1 563e
00000060: d612 7ebd 6e4d a93c 7662 893d e3bd 67bd
00000070: dee4 9cbd 5a6b b6bd 55db 413e ff0b fcbc
00000080: 9acd 3fbd abfd ca3d d507 2cbd 976c 2abd
00000090: cb17 ddbd 2ae0 563d 4e48 1a3d ac42 4dbd
000000a0: 7201 8dbb bda7 993b a42e d03d 7b66 673d
000000b0: 7d1f 4b3d b202 733c b07d 6e3e 3c9b d83d
000000c0: 9d19 ecbd 88d2 3d3c 7229 f3bc ee31 74bd
000000d0: 23fa 6cbd d888 88bd 2a3e b93c 0bcf 13bc
000000e0: 2b85 44bd 399f 1a3e 6e3f 023a 4d8a 2dbd
000000f0: efd8 0cba b4b7 b33b 3fb4 803d eae9 8dbc
00000100: c603 7a3d c4b1 ccbc adb7 e33c 3544 603d
00000110: 12fe 85bd b351 61bd af81 cbbd 4490 023d
00000120: b141 08bc f2e2 4d3d 2f7a 0dbd 3665 03bc
00000130: 678f 003c 606f d939 9790 2ebe e230 153d
00000140: e564 23bd 59cb 2bbd 52fd 3e3e 4f41 0f3d
00000150: 189d 95bc e888 e73c 9444 863d 5e22 a4bc
00000160: 1bbc 68bd a7e8 c2bb b548 a3bd 6a9c 523d
00000170: eba8 c7bd e0d7 c4bd d3fc 3fbd 4e38 7c3d
00000180: 6071 813d b8a9 f13c c0ae 72bc ad81 72bd
00000190: 2ce1 91bd e516 273d c643 81bc e0cd e43d
000001a0: ff9f 32bd 97bb 653d 01f5 2cbc c7f3 d43d
000001b0: 32d9 39bc f35f 87bc 5b58 47bd 4205 d7bd
000001c0: 4195 663c d099 35bd 73a5 0c3d fe1a a73d
000001d0: 3f50 00bd 4769 e7bb 6fa5 31bd 4c4b ef3c
000001e0: 0dfb b9bd 71b5 2d3e 1640 603e 39ca b63d
000001f0: 056e 8f3d d569 393e 3e58 82bb f18c 323c
00000200: 1dbe ac3d 902d e73c 4525 973d 0513 bb3d
00000210: 26d6 5b3d 8efd c53c e066 d83d f57b 703d
00000220: 724e 023e 89d3 b3bc b525 00be 1533 a1bc
00000230: 51cd 523d 05c5 493d 9e84 b93c f051 be3c
00000240: 1ffa a33c 8f1d c73d 3e53 fb3c 4d7d 24bd
00000250: 6810 c5bd 2834 d6bc 0a01 73bd 7ffa f63c
00000260: 2354 fabc fd2d 093e efda 003e 767b c93d
00000270: 9090 b8bc 09d1 e0bd f67c 02be d8ca a1bc
00000280: 1cd7 04bd 6ab8 033e 6e5f 90bd f998 653c
00000290: e824 75bc fa00 d03c ff80 bcbd a951 c7bd
000002a0: 50bc 62bd d395 c3bd 106e ad3c be3a a2bd
000002b0: e642 053e 1572 9a3d 5d1e 35bd dc6b 903c
000002c0: 24f3 81bd 0369 ce3c feb9 783d b002 203d
000002d0: bc0e 07bd 74f1 bf3c 6b86 8d3c 4412 703d
000002e0: 7af7 763d 5d3f 8bbd dfae d5bb 782b 73ba
000002f0: 0199 1dbd 940d 87bd f0fa c3ba 9179 323d
00000300: f2f4 50bc d8fe a0bc c9b3 a8bd b5bb f4bc
00000310: 8631 453d f21f 76bd 78e1 44bc 1ee2 e43c
00000320: be5b 6ebd a809 c3bc 1715 fb3d 12ea b13d
00000330: 458f 83bd e2bd 523d e3f5 563c 8584 51bb
00000340: 886d 0fbc 48c6 a3bb 346d dfba 7104 f43c
00000350: 4be0 b3bd c544 963d 420c 2bbc e997 1b3d
00000360: 6d47 64bd 6ce2 6a3c 9620 9c3d 227e 93bd
00000370: f114 beba da66 5cbb bcdc d83d afee 9bbd
00000380: f95c 253c b6e5 283d 2ae6 b73d 63d5 8dbd
00000390: ed8e 8cbd a5f2 e13c 0a02 4abd 8019 8abd
000003a0: ab8c 843d bbba a5bc 7bf3 edbc 8e2a e93d
000003b0: 9234 9b3d 4a73 81bd 6365 0dbd 76f9 7cbd
000003c0: cb97 17bd c265 9a3d 4855 12bb 5570 3bbd
000003d0: 16a1 68bd 7c07 ce3d 6fa2 d8bd 0c09 693e
000003e0: ac26 51bd 858b 3abd a7c3 9f3d aa6b a5bc
000003f0: 57ad 60bd 860f d93c e94e 16bd 3d7d 8cbd

encoder.actor_encoder.net.mlp.0.bias f4 [256]
-0.062273405 -0.041557435 -0.0025191733 0.046121553 -0.07621557 0.046765823 -0.024378125 0.054244556
-0.028669208 0.0044279485 -0.0005269429 -0.010109113 -0.059484836 -0.009945628 -0.0059804153 -0.006861789
0.064853266 -0.061765503 -0.036682878 -0.06490703 -0.019514645 -0.022014853 -0.01851725 -0.06300283
-0.034959704 0.018794885 0.020122305 0.026346112 0.033861265 0.05768497 0.048787706 -0.00062615605
-0.05383837 0.026165176 0.0508644 0.029518371 0.03913853 -0.025210047 0.031716157 -0.07267987
0.013308831 -0.032189928 -0.056875147 0.07651652 0.040909514 0.043052595 0.05403102 0.00940803
-0.06735988 0.042190496 0.057890598 -0.022011327 -0.048815675 0.02277835 -0.008416132 0.019838167
0.024508784 -0.049338285 0.0017412461 0.010994068 -0.017969042 -0.007325214 0.021686995 0.05446072
-0.02907558 -0.03396526 0.02530207 -0.019055726 -0.035471942 0.06644202 -0.08955866 -0.032785773
0.09410436 -0.023327846 -0.03280447 -0.008239378 -0.038762033 -0.035081003 0.0054831356 0.06463962
-0.018989332 0.017960113 -0.060940217 -0.0042196005 -0.02630022 0.009852871 0.052009102 -0.04969292
-0.00052970846 -0.010312126 -0.06831605 -0.046663966 0.018943071 0.049023014 -0.03888121 0.046615336
-0.0015104972 -0.04395976 0.027230978 0.067106895 0.0512433 0.06134904 -0.024032477 0.003831069
0.05418526 -0.0015141004 -0.0120894285 -0.010113152 -0.018465435 0.0096015055 -0.039232664 0.00542929
0.0021716033 0.05509772 -0.022281604 -0.015221333 -0.06423226 -0.04839581 -0.049985737 0.01742636
0.04697904 -0.028232371 -0.061073765 -0.02258545 0.03259969 0.0033850546 0.012854564 0.037176058
-0.09608826 0.06646266 0.0147887105 0.06419563 0.067766294 0.013111282 0.04808595 -0.030485427
0.040966973 -0.030628791 -0.07167216 0.07820961 0.033593856 -0.041262876 0.012798325 0.032685433
-0.016891085 -0.015385436 0.002346576 -0.034630608 0.011811361 0.01318331 -0.01371264 -0.038341023
-0.04169136 0.045120414 0.07486288 0.077997 -0.07234431 -0.0034664478 -0.01945549 -0.00047967234
-0.00159112 -0.032699313 -0.014408809 -0.018114503 0.026771039 0.024000082 -0.058087114 -0.0548178
0.078937374 -0.06301575 -0.024834624 0.06339696 0.053575095 0.0014064613 0.033230368 0.01985355
-0.09494315 -0.033379637 0.058771815 -0.022270748 -0.009639438 0.07122524 0.03419854 -0.071223356
-0.0076384 0.04804839 -0.04815879 -0.02485365 0.046595406 0.032840192 -0.04059553 -0.0313896
-0.05327126 -0.07421309 0.048841335 0.031887814 -0.060576674 0.050736785 0.03391131 -0.0594202
0.0049407994 -0.030458685 -0.015301354 0.030622778 0.052230317 -0.035196077 -0.024227763 0.063337035
0.06133862 -0.021439558 -0.010116044 -0.050783444 0.045462478 0.08075615 -0.042048756 -0.009157999
0.032410506 -0.05650132 -0.054634195 0.008897514 0.054584432 0.078008235 -0.0162665 0.026965005
-0.03391239 0.0061787306 0.0012760846 -0.027823318 -0.04201296 -0.05770902 0.06779041 -0.027292036
0.020104475 0.041239385 0.06653843 0.061761454 0.017275004 -0.06917967 0.039410096 0.0036361162
-0.008942398 -0.051578406 0.0005678854 0.04026577 0.06501822 -0.029317344 -0.057158947 -0.034844734
-0.026737858 0.02618102 -0.03326706 -0.05784721 -0.0018815894 0.03828947 0.001187214 0.0050873943
00000000: 6612 7fbd 2138 2abd b718 25bb f4e9 3c3d
00000010: e916 9cbd 858d 3f3d a2b4 c7bc 8a2f 5e3d
00000020: b0db eabc 5318 913b 8a22 0aba b1a0 25bc
00000030: 5fa6 73bd fdf2 22bc 5cf7 c3bb dcd8 e0bb
00000040: cad1 843d d3fd 7cbd c940 16bd faed 84bd
00000050: 2ddd 9fbc 7e58 b4bc 7db1 97bc a107 81bd
00000060: e831 0fbd bbf7 993c 88d7 a43c cdd3 d73c
00000070: 1cb2 0a3d 1347 6c3d 9ed5 473d 9f24 24ba
00000080: 9f85 5cbd 5a58 d63c 3057 503d 83d0 f13c
00000090: b94f 203d 4d85 cebc cde8 013d 2fd9 94bd
000000a0: 480d 5a3c 96d9 03bd eaf5 68bd b1b4 9c3d
000000b0: bc90 273d eb57 303d a14f 5d3d 2324 1a3c
000000c0: faf3 89bd f1cf 2c3d b11e 6d3d 1951 b4bc
000000d0: f2f2 47bd aa99 ba3c d1e3 09bc a783 a23c
000000e0: a5c6 c83c f116 4abd 863a e43a 7720 343c
000000f0: d033 93bc 5908 f0bb eda8 b13c 3412 5f3d
00000100: e92f eebc 281f 0bbd 4946 cf3c c11a 9cbc
00000110: 074b 11bd c112 883d 886a b7bd 604a 06bd
00000120: c9b9 c03d 0a1a bfbc fb5d 06bd 75fe 06bc
00000130: f0c4 1ebd 19b1 0fbd e0ab b33b c761 843d
00000140: 848f 9bbc 1621 933c 739c 79bd 9344 8abb
00000150: 8f73 d7bc f06d 213c 7f07 553d ce8a 4bbd
00000160: 22dc 0aba 31f4 28bc 49e9 8bbd b722 3fbd
00000170: 802e 9b3c 5bcc 483d e741 1fbd b9ef 3e3d
00000180: e0fb c5ba 260f 34bd 8013 df3c 576f 893d
00000190: 7fe4 513d 2249 7b3d c2df c4bc ac12 7b3b
000001a0: 5df1 5d3d c774 c6ba bd12 46bc a2b1 25bc
000001b0: d344 97bc a24f 1d3c 6eb2 20bd 2fe8 b13b
000001c0: 7551 0e3b 26ae 613d e987 b6bc e662 79bc
000001d0: 348c 83bd af3a 46bd d8bd 4cbd bac1 8e3c
000001e0: 186d 403d 9347 e7bc 7c28 7abd 1f05 b9bc
000001f0: 4187 053d cbd7 5d3b f39b 523c ec45 183d
00000200: ecc9 c4bd 931d 883d 594c 723c 0079 833d
00000210: 0ec9 8a3d b4d0 563c c6f5 443d 93bc f9bc
00000220: fccc 273d 3be9 fabc dac8 92bd 5c2c a03d
00000230: b699 093d 4303 29bd 11b0 513c 29e1 053d
00000240: 2c5f 8abc 3213 7cbc 03c9 193b d3d8 0dbd
00000250: 7084 413c cffe 573c fbaa 60bc 7a0b 1dbd
00000260: 8fc4 2abd 2fd0 383d b651 993d e4bc 9f3d
00000270: 4129 94bd 582d 63bb 1f61 9fbc 887c fbb9
00000280: 218d d0ba b7ef 05bd ed12 6cbc de64 94bc
00000290: f04e db3c d29b c43c c1ec 6dbd a188 60bd
000002a0: eba9 a13d 670e 81bd fb71 cbbc 44d6 813d
000002b0: 8f71 5b3d 0359 b83a 911c 083d e9a3 a23c
000002c0: 8e71 c2bd 16b9 08bd b7ba 703d 2571 b6bc
000002d0: bcee 1dbc 8ade 913d c513 0c3d 8ddd 91bd
000002e0: 8b4b fabb 63ce 443d 2742 45bd e299 cbbc
000002f0: d3da 3e3d 7083 063d 8047 26bd 6292 00bd
00000300: f732 5abd 08fd 97bd da0d 483d cc9c 023d
00000310: 3f1f 78bd 60d1 4f3d 96e6 0a3d 9862 73bd
00000320: 6ee6 a13b 7e84 f9bc 88b2 7abc 9fdc fa3c
00000330: 75ef 553d c329 10bd 4d79 c6bc d9b6 813d
00000340: 343e 7b3d 03a2 afbc c4bd 25bc 4d02 50bd
00000350: dd36 3a3d 7b63 a53d 513b 2cbd 6f0b 16bc
00000360: e1c0 043d ee6d 67bd 1bc8 5fbd e1c6 113c
00000370: ed93 5f3d c8c2 9f3d 5341 85bc b7e5 dc3c
00000380: b8e7 0abd f376 ca3b 4b42 a73a baed e3bc
00000390: c815 2cbd 4b60 6cbd b3d5 8a3d 8c93 dfbc
000003a0: 24b2 a43c a1ea 283d 4d45 883d 94f9 7c3d
000003b0: 4f84 8d3c 12ae 8dbd 7b6c 213d e84b 6e3b
000003c0: 2383 12bc e143 53bd 25de 143a b8ed 243d
000003d0: 4628 853d ed2a f0bc 801f 6abd 5ab9 0ebd
000003e0: 5a09 dbbc 9479 d63c 0a43 08bd 32f1 6cbd
000003f0: aa9f f6ba 6bd5 1c3d 4b9c 9b3a 28b4 a63b

encoder.actor_encoder.net.mlp.2.weight f4 [256, 256]
-0.13724066 0.014935 0.047114514 0.111848146 -0.08595677 0.023597365 -0.0071378695 -0.026138227
-0.13921347 0.09555338 -0.032308634 -0.12984991 -0.02074443 -0.025090622 -0.1071477 -0.15605626
0.038995147 0.0067252787 -0.002425954 0.06142922 0.059327353 0.093195714 0.24792948 -0.03341442
0.03317872 -0.06337194 0.045936406 0.014383364 0.12332501 0.117541105 -0.12698175 0.0076227984
0.12699343 0.22972596 -0.13369001 -0.038197063 0.09113003 -0.029164921 -0.16552038 0.13472123
-0.0004287743 -0.0047397427 -0.034248967 0.021979136 -0.05272138 -0.034255218 0.26481768 0.00073350454
0.017426101 0.113931604 -0.11671078 0.030679395 0.048454624 0.086011425 0.110482804 0.17066485
-0.05997501 -0.10806306 -0.023776144 -0.14831996 0.11871674 0.00028001788 -0.18027937 -0.060219657
0.013505666 -0.13197732 -0.015052193 0.010731324 -0.064700246 -0.07576015 -0.03532631 0.035819817
0.023856765 -0.3244842 0.007212406 0.14868993 0.061244458 0.16344564 0.036834404 0.04391636
0.15672362 -0.052877788 0.06351464 0.062280312 0.0007531709 0.013154428 -0.022619959 -0.08391701
0.056285154 0.011020455 0.11491509 0.01045027 0.18000981 0.11897306 0.010269618 -0.1946454
-0.0059780064 0.087585874 0.031636488 0.002593461 -0.09244324 -0.09927251 -0.109242424 0.021193402
0.08793354 0.025415817 0.12768698 0.0052069463 -0.0334723 0.11520923 0.07974899 0.008802191
-0.2099616 -0.11062974 -0.096974574 -0.08900677 -0.081818484 0.0077635236 0.030270826 -0.0700286
-0.07030472 -0.07061268 0.089489356 0.0715363 -0.13930959 0.017328111 -0.07938458 -0.06062962
-0.05080997 0.09871496 0.04789813 -0.06857205 0.14195417 0.21529323 0.1408581 -0.14050977
0.0693883 0.021485439 0.0028475113 0.08551813 0.12935145 0.038870737 0.15870367 -0.028943375
-0.04398082 -0.041024864 -0.08647755 -0.1626147 0.01662627 -0.021524377 -0.039905295 0.074198306
-0.25282127 -0.1153179 0.02102898 0.08807211 -0.037545953 -0.12441042 0.07595037 -0.049949706
0.10302623 0.063440725 -0.021214405 -0.07962285 0.045647588 -0.011812424 -0.0762546 0.047172245
0.05753524 0.036992665 0.028673671 -0.017584411 0.012548624 0.024637032 -0.25765967 -0.00960996
-0.004831264 -0.12263014 -0.226032 -0.098321706 -0.008868342 0.16561228 0.077272296 -0.11205547
0.072261736 -0.07779057 0.06258238 0.01699767 0.04723337 0.04441957 -0.020197561 0.029927287
0.17698254 0.037444737 0.18863618 -0.089952484 0.09976664 -0.16787039 0.05316458 0.05349907
-0.124285564 -0.05128771 -0.12232885 0.030387582 -0.049941923 -0.104206316 0.18651895 0.049227074
0.07352682 0.015919302 -0.054374397 -0.17715226 -0.061528675 0.23139507 0.06706228 0.081960715
0.02657656 -0.090117306 -0.06137069 0.005423805 0.23476802 -0.0011131607 0.081738494 0.10394576
-0.0036592507 -0.002312712 0.024706429 0.020928748 -0.18340537 -0.026794551 -0.044779677 -0.035716467
-0.08958156 -0.068692185 -0.08250717 0.002967229 0.18626383 0.10397392 0.15599807 0.19356912
-0.020919079 -0.09471652 -0.06878602 -0.15991408 0.071381465 -0.03409593 0.0384972 0.12682281
0.15248199 0.10946643 0.12242503 -0.021217084 0.028942894 0.028549353 0.011649451 0.0013968524
00000000: d188 0cbe eeb1 743c 26fb 403d a410 e53d
00000010: 1a0a b0bd 434f c13c cae4 e9bb d61f d6bc
00000020: fa8d 0ebe 7eb1 c33d 0f56 04bd 60f7 04be
00000030: 39f0 a9bc d98a cdbc 4170 dbbd 36cd 1fbe
00000040: 60b9 1f3d ba5f dc3b c1fc 1ebb 359d 7b3d
00000050: 3d01 733d 65dd be3d 3ae1 7d3e 8fdd 08bd
00000060: 69e6 073d 26c9 81bd d027 3c3d 33a8 6b3c
00000070: d391 fc3d 64b9 f03d 8107 02be abc8 f93b
00000080: 910a 023e 483d 6b3e 09e6 08be 8674 1cbd
00000090: 62a2 ba3d 46eb eebc 2d7e 29be 5df4 093e
000000a0: 1dcd e0b9 d84f 9bbb a548 0cbd 970d b43c
000000b0: 60f2 57bd 334f 0cbd 2f96 873e a848 403a
000000c0: 2fc1 8e3c f954 e93d 1006 efbd 5b53 fb3c
000000d0: 5b78 463d c226 b03d cf44 e23d c4c2 2e3e
000000e0: 5ba8 75bd 2a50 ddbd 30c6 c2bc 30e1 17be
000000f0: c321 f33d 5dcf 9239 289b 38be e3a8 76bd
00000100: de46 5d3c 1025 07be 799d 76bc 6fd2 2f3c
00000110: 9081 84bd 2328 9bbd 52b2 10bd cdb7 123d
00000120: 436f c33c cb22 a6be 0c56 ec3b 2c42 183e
00000130: 78db 7a3d 4b5e 273e acdf 163d a4e1 333d
00000140: 287c 203e 6196 58bd f713 823d a419 7f3d
00000150: 7270 453a ac85 573c 7e4d b9bc aedc abbd
00000160: 438b 663d 238f 343c 9a58 eb3d 9c37 2b3c
00000170: 7e54 383e 26a8 f33d e641 283c 2051 47be
00000180: 27e3 c3bb 3960 b33d 4395 013d 0ef7 293b
00000190: e252 bdbd 634f cbbd 7eba dfbd c99d ad3c
000001a0: 8016 b43d d534 d03c 60c0 023e 089f aa3b
000001b0: 401a 09bd d1f2 eb3d 7053 a33d 1137 103c
000001c0: 2c00 57be d891 e2bd 9b9a c6bd 2e49 b6bd
000001d0: 7390 a7bd 2865 fe3b 86fa f73c 286b 8fbd
000001e0: ecfb 8fbd 619d 90bd 3246 b73d a081 923d
000001f0: 2ca7 0ebe aff3 8d3c 6294 a2bd c456 78bd
00000200: 1d1e 50bd 122b ca3d d430 443d 816f 8cbd
00000210: 6f5c 113e d475 5c3e 1b3d 103e cbe1 0fbe
00000220: 741b 8e3d 3b02 b03c 509d 3a3b 2124 af3d
00000230: b574 043e ec36 1f3d 3783 223e a81a edbc
00000240: 3b25 34bd b009 28bd 241b b1bd 7884 26be
00000250: d133 883c e453 b0bc bc73 23bd 48f5 973d
00000260: ca71 81be cb2b ecbd f844 ac3c 275f b43d
00000270: c9c9 19bd e4ca febd de8b 9b3d 1098 4cbd
00000280: 6bff d23d 36ed 813d d5c9 adbc 4e11 a3bd
00000290: f7f8 3a3d e688 41bc 5f2b 9cbd af37 413d
000002a0: 12aa 6b3d 9f85 173d 0ce5 ea3c 2f0d 90bc
000002b0: be98 4d3c 9ad3 c93c f8eb 83be 1873 1dbc
000002c0: 944f 9ebb 8325 fbbd ef74 67be e45c c9bd
000002d0: 864c 11bc 4496 293e f040 9e3d 577d e5bd
000002e0: f6fd 933d aa50 9fbd 312b 803d b33e 8b3c
000002f0: c777 413d 4cf1 353d 5b75 a5bc 122a f53c
00000300: e93a 353e a75f 193d d829 413e 0239 b8bd
00000310: 7452 cc3d 37e6 2bbe 1ac3 593d d721 5b3d
00000320: 6e89 febd 1013 52bd 8c87 fabd 61ef f83c
00000330: e78f 4cbd 1f6a d5bd d3fe 3e3e 54a2 493d
00000340: 3b95 963d 3269 823c b0b7 5ebd 6767 35be
00000350: 7e05 7cbd d4f2 6c3e f357 893d 05db a73d
00000360: 16b7 d93c 6c8f b8bd d55f 7bbd 2dba b13b
00000370: 0767 703e 7ae7 91ba 8366 a73d 84e1 d43d
00000380: 0ad0 6fbb de90 17bb 2365 ca3c c472 ab3c
00000390: 9ece 3bbe 3f80 dbbc e56a 37bd 6e4b 12bd
000003a0: 8976 b7bd 7dae 8cbd 85f9 a8bd d875 423b
000003b0: f2bb 3e3e 47f0 d43d f5bd 1f3e fc36 463e
000003c0: 7d5e abbc bcfa c1bd afdf 8cbd 84c0 23be
000003d0: 7230 923d 2da8 0bbd 3daf 1d3d d7dd 013e
000003e0: 3d24 1c3e f02f e03d f9b9 fa3d 73cf adbc
000003f0: a619 ed3c 55e0 e93c 57dd 3e3c 9716 b73a

encoder.actor_encoder.net.mlp.2.bias f4 [256]
0.050440785 0.009929907 -0.07502438 -0.010261369 0.0096724 -0.023655148 0.020991623 0.06670323
0.043215193 0.07537061 0.006651321 -0.018009994 -0.027499009 0.043935705 -0.0047676205 -0.065964945
-0.088440396 0.011399454 0.08273167 0.04181318 0.09596036 -0.023683483 0.067079745 -0.13826278
0.096412145 -0.05172229 -0.006819462 -0.045156166 -0.05009399 0.011638287 0.025323197 -0.016255032
-0.0123018725 0.089517675 0.035040773 0.05058365 -0.014073263 0.081961446 -0.01762516 0.031189421
0.051440526 0.080910034 0.019255385 -0.07865936 -0.049183615 0.06297022 0.05130177 -0.03440787
-0.010204259 -0.034638748 0.0038966464 0.012578104 -0.0033949527 -0.11752249 -0.039399114 -0.07336083
0.06715089 0.0053305966 -0.004294838 -0.025407009 -0.034301665 -0.041221328 -0.025198005 0.028266793
-0.035397954 -0.014456936 -0.00010654301 -0.07118463 0.032263897 -0.0784522 -0.038648095 0.04922792
-0.035409123 0.011125128 0.009518263 -0.04118868 -0.03436709 0.022188492 -0.107513376 0.08093896
0.017957738 -0.0019647155 -0.02214591 0.019469773 -0.043836936 -0.014387537 0.03759351 0.0035985343
0.013683426 -0.025580924 -0.008769102 -0.08827731 0.008324375 -0.056269128 -0.040110476 0.009280257
0.036879778 0.04220518 -0.034201145 -0.055717338 -0.047550634 -0.0357376 -0.010217512 -0.046716496
0.012210653 -0.016515177 0.11097894 0.12656756 -0.020026688 0.0019001364 -0.013315267 0.027435781
0.019938972 -0.021638472 -0.060167216 0.06918465 -0.05320382 -0.017986704 0.083891615 -0.002089004
0.05387023 -0.007635288 -0.031053407 -0.014997949 0.065909475 0.011177695 0.071912795 0.04809199
0.014740569 0.016900577 -0.04627821 -0.13434444 -0.0970857 0.020484261 -0.03325849 0.011655208
0.051223923 -0.01361466 0.06998771 -0.0067735366 0.07088264 -0.04501559 0.011868054 -0.032187883
0.08917333 0.01292022 -0.032751206 0.036164243 -0.05463718 -0.009350922 -0.0061115013 0.051611807
0.08803933 0.018554363 0.04134916 -0.07352188 -0.007579717 0.03339096 -0.0046284613 -0.019518713
-0.0160496 0.06608295 -0.033507604 0.06910413 0.007420507 -0.06354887 0.10253938 0.06190986
-0.04557825 -0.011038545 -0.06500881 -0.021523325 0.044993848 -0.015529725 0.04863581 0.013713193
0.0042337016 -0.031044759 -0.02466994 -0.0035909568 0.009394939 -0.008752298 -0.03483315 0.035522886
0.046791457 -0.012725531 0.041115854 0.019090869 -0.08234246 -0.06712012 -0.04102697 -0.011555331
-0.09154596 0.022981655 -0.053092726 0.04369595 0.012426433 -0.018291168 -0.01046391 -0.005535977
0.0009638568 -0.031560194 -0.0397731 0.023615956 0.031117156 0.025152357 0.01976484 -0.027509017
-0.020397795 -0.0070515717 0.07056556 0.021860357 -0.05696077 0.058769256 -0.03391121 0.00065100106
0.1171989 -0.03762499 0.015089322 0.06383095 0.050032567 0.10042911 0.031488307 0.14124842
-0.049618542 -0.04050909 0.027326986 -0.04819199 0.011642211 -0.0009493375 -0.07283335 0.027924662
0.002129207 0.020698028 0.12839274 0.036654357 -0.07065155 -0.043523896 -0.088719666 -0.029462855
-0.03847317 0.010563324 -0.042091772 0.0030578736 0.010021199 0.03532591 -0.011458644 0.06385732
0.0037718562 0.08601866 -0.07215119 0.004109873 -0.01229397 -0.047198232 0.0856476 -0.0124538
00000000: ff9a 4e3d 0cb1 223c 62a6 99bd 4d1f 28bc
00000010: fc78 1e3c 71c8 c1bc a0f6 ab3c b49b 883d
00000020: 6a02 313d e85b 9a3d 53f3 d93b b289 93bc
00000030: 9a45 e1bc edf5 333d b339 9cbb a118 87bd
00000040: 3d20 b5bd c7c4 3a3c 396f a93d 4c44 2b3d
00000050: dd86 c43d dd03 c2bc 1b61 893d c294 0dbe
00000060: bb73 c53d c1da 53bd cb75 dfbb acf5 38bd
00000070: 5b2f 4dbd 84ae 3e3c 9872 cf3c 4629 85bc
00000080: cb8d 49bc 0b55 b73d ea86 0f3d cd30 4f3d
00000090: 8b93 66bc 67db a73d a462 90bc f580 ff3c
000000a0: 4db3 523d 29b4 a53d 78bd 9d3c 2918 a1bd
000000b0: c274 49bd 88f6 803d ce21 523d 44ef 0cbd
000000c0: c42f 27bc 5ce1 0dbd e15e 7f3b 6414 4e3c
000000d0: db7d 5ebb a2af f0bd f760 21bd 343e 96bd
000000e0: 6886 893d 49ac ae3b b6bb 8cbb 5c22 d0bc
000000f0: e77f 0cbd b2d7 28bd 0c6c cebc c38f e73c
00000100: 72fd 10bd c9dc 6cbc d86f dfb8 3fc9 91bd
00000110: 2627 043d 8cab a0bd 774d 1ebd 37a3 493d
00000120: 2809 11bd 2b46 363c 7df2 1b3c 76b5 28bd
00000130: 81c4 0cbd a4c4 b53c f92f dcbd 53c3 a53d
00000140: 1b1c 933c 75c2 00bb 576b b5bc 137f 9f3c
00000150: 5c8e 33bd b4b9 6bbc a7fb 193d 63d5 6b3b
00000160: 7330 603c 168f d1bc 48ac 0fbc bcca b4bd
00000170: f662 083c 757a 66bd e24a 24bd 380c 183c
00000180: 400f 173d 57df 2c3d 8016 0cbd dd37 64bd
00000190: 74c4 42bd 9761 12bd 5a67 27bc cc59 3fbd
000001a0: 310f 483c d64a 87bc ed48 e33d ed9a 013e
000001b0: 020f a4bc ff0d f93a 4728 5abc 01c1 e03c
000001c0: 0e57 a33c 2a43 b1bc e671 76bd afb0 8d3d
000001d0: 40ec 59bd da58 93bc 5ecf ab3d ace7 08bb
000001e0: 08a7 5c3d 7031 fabb b763 febc f5b9 75bc
000001f0: 8cfb 863d a722 373c 0447 933d 1bfc 443d
00000200: 6d82 713c 1473 8a3c 388e 3dbd 9791 09be
00000210: ded4 c6bd 9cce a73c 0e3a 08bd 7cf5 3e3c
00000220: 2dd0 513d 0610 5fbc b755 8f3d 8bf4 ddbb
00000230: eb2a 913d 4462 38bd 3a72 423c 71d7 03bd
00000240: 82a0 b63d 55af 533c 2126 06bd f520 143d
00000250: 3ccb 5fbd 9c34 19bc fd42 c8bb e766 533d
00000260: f74d b43d 52ff 973c bd5d 293d a492 96bd
00000270: 465f f8bb f6c4 083d 59aa 97bb b5e5 9fbc
00000280: 737a 83bc 7f56 873d 453f 09bd 7786 8d3d
00000290: b927 f33b e925 82bd 2b00 d23d 3195 7d3d
000002a0: 42b0 3abd 03db 34bc 5723 85bd af51 b0bc
000002b0: 784b 383d 6370 7ebc 5836 473d 4dad 603c
000002c0: ddba 8a3b 9451 febc 9d18 cabc 4256 6bbb
000002d0: 3bed 193c cc65 0fbc 35ad 0ebd 7280 113d
000002e0: 66a8 3f3d bf7e 50bc 1969 283d 7464 9c3c
000002f0: 2aa3 a8bd 4676 89bd e50b 28bd 9252 3dbc
00000300: 737c bbbd 0644 bc3c c277 59bd 86fa 323d
00000310: 3d98 4b3c 5cd7 95bc d270 2bbc 2467 b5bb
00000320: 56ab 7c3a 4345 01bd 1ee9 22bd 4076 c13c
00000330: 68e9 fe3c 510c ce3c e0e9 a13c 975a e1bc
00000340: 4719 a7bc df10 e7bb ad84 903d 7e14 b33c
00000350: b24f 69bd 08b8 703d 7be6 0abd f1a7 2a3a
00000360: fa05 f03d a91c 1abd 3439 773c cdb9 823d
00000370: f3ee 4c3d c7ad cd3d e2f9 003d 6da3 103e
00000380: d03c 4bbd dcec 25bd d8dc df3c f764 45bd
00000390: f9be 3e3c f6dc 78ba a729 95bd 43c2 e43c
000003a0: 2a8a 0b3b e98e a93c 6379 033e e122 163d
000003b0: c3b1 90bd 1d46 32bd a8b2 b5bd 165c f1bc
000003c0: 0b96 1dbd cb11 2d3c 6c68 2cbd 9b66 483b
000003d0: f42f 243c e7b1 103d 09bd 3bbc a0c7 823d
000003e0: 3f31 773b 8d2a b03d 01c4 93bd 1dac 863b
000003f0: a66c 49bc ef52 41bd 0268 af3d 060b 4cbc

encoder.critic_encoder.net.mlp.0.weight f4 [256, 190]
-0.0004410876 0.064665124 0.05485729 -0.057343658 0.041562628 0.03311203 0.0101519255 -0.030100903
-0.034418527 0.005170624 -0.006751814 0.01995897 -0.06174984 -0.046950344 0.0008440211 -0.025364224
0.023770923 -0.078275956 -0.057225287 0.013224494 0.012326715 -0.04229046 0.04404814 0.026013605
0.056518614 0.079033054 0.03936992 -0.008763882 -0.038813096 -0.044396657 -0.044788856 -0.03941671
-0.05791132 0.009751872 -0.031927362 0.006294506 -0.01769658 0.029280514 -0.069680475 -0.0005977567
-0.02037507 -0.011440502 0.088299416 0.01633135 0.037580986 0.017423969 -0.1419773 0.03656957
-0.022626076 0.037156254 -0.021716194 0.005114648 0.0016953982 -0.060660142 0.030944971 -0.054029
-0.07918391 0.026345758 0.026900653 0.005281517 -0.027779587 -0.038934063 0.06861008 -0.01881435
0.061325278 -0.06447949 0.058980122 -0.029505502 -0.010417433 0.07929911 0.03732218 0.017328694
-0.069974765 0.074890316 -0.019418156 0.06053464 -0.074518085 0.043763634 -0.3156705 0.048978463
0.016250938 -0.037578788 -0.14909555 -0.10338193 0.012673274 -0.014150818 0.07023905 -0.08848302
-0.08797883 -0.015246912 -0.020983666 -0.16557269 -0.14706013 -0.14176133 -0.023729514 -0.043988507
0.011050102 0.062449526 -0.011713646 -0.021968864 0.042732377 0.03797833 0.031134771 -0.08260835
0.00367953 0.075783774 -0.014055452 -0.12547414 -0.015950449 -0.051018428 0.0570102 -0.050763093
0.041285265 0.020153275 -0.0031674393 -0.04250688 -0.04067069 -0.0062166383 0.017257342 -0.041654665
-0.17104614 -0.06544508 -0.0052264347 -0.025786627 -0.0002972642 0.054312732 -0.07371455 -0.036956448
0.013787196 -0.014449957 -0.017652394 0.013907478 -0.0074727763 0.034329053 0.009188211 0.07483993
0.029772319 -0.06759701 0.039022867 -0.02806954 -0.06726 -0.012424019 -0.022187533 -0.08067267
-0.00095273886 0.041330785 -0.022941843 -0.032356966 0.0060033365 0.05411104 0.021501074 -0.0666108
-0.028285723 -0.0076159113 0.00063802645 -0.04851303 -0.11119828 0.028312992 -0.12088703 -0.07255081
-0.066443995 0.012288062 -0.06279571 0.07852701 -0.06807526 -0.076076396 0.0061924304 0.02490444
-0.022971082 -0.06826171 -0.04573143 -0.050247364 -0.034572337 0.108231276 0.063252345 -0.036466554
0.038728494 0.06991993 -0.06683115 -0.03436316 0.036721997 0.0064659263 -0.043483347 -0.06808681
-0.006210649 0.067217804 0.046759732 -0.06549804 -0.040001635 -0.030751161 -0.021260094 0.06250297
0.06683231 0.07830602 -0.011672707 -0.026301514 -0.0056945737 -0.0055432143 0.047527082 -0.015245743
0.038690094 0.0008912419 0.07415373 0.022872118 -0.036440164 -0.025536599 0.0635318 0.05695348
0.0620054 0.0041588163 0.07014527 0.003419827 0.0682141 0.03986435 0.05254398 0.017021526
0.014098554 -0.017626014 0.008609137 -0.008369411 0.14881043 0.046347596 -0.0282336 0.058657624
0.06795501 -0.05751343 0.058031667 0.030585473 -0.005171197 0.0011266451 0.093575574 0.051890444
-0.025791861 0.040635843 0.001919338 0.040311657 0.061089266 0.029211083 0.045389775 -0.011942142
0.057013467 -0.027215494 0.078533225 0.03934139 -0.041764677 0.036573168 0.014457274 0.07901907
-0.051338594 0.06296995 0.06504091 -0.026057588 -0.019973975 0.04793376 -0.0642228 -0.008312537
00000000: c741 e7b9 266f 843d 0ab2 603d 2fe1 6abd
00000010: 933d 2a3d 7ba0 073d 4354 263c 2b96 f6bc
00000020: 71fa 0cbd 566e a93b 523e ddbb fe80 a33c
00000030: 66ed 7cbd 014f 40bd 4c41 5d3a a2c8 cfbc
00000040: 3dbb c23c 254f a0bd 1065 6abd 8cab 583c
00000050: fdf5 493c c338 2dbd d36b 343d 7c1a d53c
00000060: 1080 673d 15dc a13d 5a42 213d 6396 0fbc
00000070: 7bfa 1ebd 45d9 35bd 8574 37bd 6b73 21bd
00000080: 6c34 6dbd 51c6 1f3c 44c6 02bd 2542 ce3b
00000090: 6bf8 90bc b0dd ef3c a3b4 8ebd c6b2 1cba
000000a0: 9ee9 a6bc f170 3bbc 53d6 b43d 53c9 853c
000000b0: 85ee 193d b6bc 8e3c 7f62 11be f9c9 153d
000000c0: 525a b9bc 2831 183d 29e6 b1bc c798 a73b
000000d0: 2038 de3a c576 78bd 4f80 fd3c 834d 5dbd
000000e0: 2c2b a2bd 0fd3 d73c c25e dc3c 9310 ad3b
000000f0: 0492 e3bc 5379 1fbd 7183 8c3d 8d20 9abc
00000100: 3730 7b3d d30d 84bd 2495 713d 86b5 f1bc
00000110: e2ad 2abc 9267 a23d 24df 183d e8f4 8d3c
00000120: ee4e 8fbd 1860 993d d312 9fbc 2cf3 773d
00000130: f09c 98bd 7f41 333d 909f a1be a49d 483d
00000140: b020 853c 37ec 19bd 81ac 18be e8b9 d3bd
00000150: 90a3 4f3c d5d8 67bc 7ed9 8f3d 9636 b5bd
00000160: 3f2e b4bd 2fce 79bc f0e5 abbc e38b 29be
00000170: ee96 16be e229 11be 6664 c2bc 4b2d 34bd
00000180: 7d0b 353c 13cb 7f3d 98ea 3fbc 0cf8 b3bc
00000190: 2508 2f3d 2a8f 1b3d 590e ff3c 912e a9bd
000001a0: 4524 713b 8634 9b3d d748 66bc 4b7c 00be
000001b0: 84aa 82bc b3f8 50bd 8783 693d f6ec 4fbd
000001c0: bd1a 293d 7b18 a53c d094 4fbb b21b 2ebd
000001d0: 4f96 26bd f1b4 cbbb 455f 8d3c 159e 2abd
000001e0: b826 2fbe 1208 86bd 8342 abbb 7a3e d3bc
000001f0: 20da 9bb9 0777 5e3d a7f7 96bd a55f 17bd
00000200: b1e3 613c 83bf 6cbc c19b 90bc 31dc 633c
00000210: 31de f4bb 9f9c 0c3d 268a 163c ad45 993d
00000220: 14e5 f33c 4d70 8abd 71d6 1f3d 18f2 e5bc
00000230: 9cbf 89bd 1d8e 4bbc a1c2 b5bc b637 a5bd
00000240: 39c1 79ba 784a 293d 88f0 bbbc bd88 04bd
00000250: a3b7 c43b 8aa3 5d3d 0523 b03c 3e6b 88bd
00000260: 76b7 e7bc e58e f9bb 3b41 273a 99b5 46bd
00000270: ecbb e3bd a6f0 e73c 9f93 f7bd 8595 94bd
00000280: ca13 88bd de53 493c 0a9b 80bd c5d2 a03d
00000290: 0b6b 8bbd f1cd 9bbd dfe9 ca3b 6504 cc3c
000002a0: da2d bcbc cccc 8bbd e150 3bbd 2ed0 4dbd
000002b0: b99b 0dbd 5ca8 dd3d 728a 813d f45d 15bd
000002c0: c5a1 1e3d 2e32 8f3d c5de 88bd 63c0 0cbd
000002d0: ce69 163d 1fe0 d33b 981b 32bd 1971 8bbd
000002e0: b382 cbbb 7da9 893d 2287 3f3d d623 86bd
000002f0: c1d8 23bd dce9 fbbc a629 aebc 8f01 803d
00000300: 61df 883d e85e a03d e23e 3fbc 4676 d7bc
00000310: 8c99 babb daa3 b5bb c2ab 423d 48c9 79bc
00000320: 8179 1e3d 3ba2 693a e9dd 973d 4f5e bb3c
00000330: 4842 15bd 2132 d1bc f61c 823d 0d48 693d
00000340: 60f9 7d3d ae46 883b 53a8 8f3d 2d1f 603b
00000350: d6b3 8b3d cd48 233d 5b38 573d ba70 8b3c
00000360: 9ffd 663c 6e64 90bc 560d 0d3c db1f 09bc
00000370: c361 183e fad6 3d3d 274a e7bc fa42 703d
00000380: ff2b 8b3d 3493 6bbd 9db2 6d3d 638e fa3c
00000390: 2573 a9bb f0ab 933a 8da4 bf3d 138b 543d
000003a0: 7449 d3bc c571 263d 4c92 fb3a d61d 253d
000003b0: bd38 7a3d 154c ef3c a1ea 393d f9a8 43bc
000003c0: f486 693d 07f3 debc 07d6 a03d 7024 213d
000003d0: 7011 2bbd bfcd 153d 34de 6c3c c0d4 a13d
000003e0: 6b48 52bd 64f6 803d 2b34 853d b976 d5bc
000003f0: 76a0 a3bc 3156 443d 3e87 83bd 4f31 08bc

encoder.critic_encoder.net.mlp.0.bias f4 [256]
-0.019441172 0.07288514 -0.06469079 0.06460832 -0.08407583 0.040254496 0.018067814 0.0038651344
-0.011303168 0.021496154 -0.042005334 0.034551572 -0.03442498 -0.035807863 0.055628393 -0.03149764
-0.043079227 0.07047224 -0.052137576 0.030653555 -0.028484229 0.057391386 -0.061245892 -0.03742784
-0.06605522 0.03323442 -0.051449727 -0.07215434 0.07966802 -0.019861298 0.044624776 0.049670245
-0.05502887 -0.017593665 -0.048087742 -0.007872887 -0.053779405 0.010487397 0.045368105 -0.053081498
-0.040698335 0.06656927 -0.046981197 0.0053856904 -0.035754308 0.0068808417 -0.024695687 -0.0061657876
0.05213012 0.0055317553 0.006382956 0.06386601 -0.018099887 -0.08123366 0.01948269 0.024984222
-0.014356497 -0.03658391 0.03274374 0.03288469 0.019710055 0.0047695017 -0.026548078 0.011867377
-0.04280778 -0.024314487 0.0100291595 0.037370373 0.013513119 -0.043421175 -0.081061855 0.010706814
0.05243674 0.05987228 0.05703871 0.0067642424 0.05583158 -0.0441272 0.025186418 0.027143864
-0.04860824 -0.050467666 -0.058068637 -0.042300515 -0.04937398 -0.010215816 0.016995056 0.029320136
0.059894223 -0.03069541 0.054856483 -0.040057987 0.025218993 -0.04109625 0.052386373 -0.038643077
-0.007639611 0.050888468 -0.025830796 -0.055026677 -0.0012806529 -0.07844169 0.031201597 0.05332396
-0.06303294 -0.069218606 -0.042504665 0.011138864 -0.02735811 -0.056706 -0.03592817 -0.0423396
0.06977591 0.005499013 0.0049272818 -0.046454903 -0.04676032 -0.05282196 -0.027844753 -0.028498936
0.04223041 -0.016523706 -0.06642686 0.027435767 0.023925653 -0.0010695297 -0.02356062 0.050055362
0.07382438 0.042914797 -0.01868155 -0.0016247059 0.072141446 -0.07778932 -0.07246361 -0.066502176
-0.07434215 0.067710854 -0.025348732 0.012584075 -0.06887814 -0.046625804 -0.053836107 0.05891892
0.060439598 0.055339906 0.07059081 0.015232038 -0.048002537 0.06599853 0.028754609 0.021446735
0.06218024 0.050115254 -0.009524947 -0.044778068 0.06986931 -0.060430996 -0.026327921 -0.050832532
0.06050566 0.013587064 0.06196719 0.05323831 0.017087102 0.037459563 0.042013925 0.04562629
-0.06472267 -0.018711643 -0.0033222088 0.050143275 -0.026059078 -0.034113426 0.048881434 0.029492185
-0.023460332 -0.028641896 0.0077479905 -0.0010148545 0.028146178 -0.07055808 -0.06610156 0.06216404
0.023541836 0.04311266 0.005480883 0.0045898054 0.022837253 -0.08658453 -0.06345733 -0.025836285
-0.00213358 -0.0058341958 -0.051958755 -0.06483917 0.008870062 0.00330348 -0.0131374905 0.059855673
-0.049632505 0.013028616 -0.071463265 -0.0023489285 -0.023019927 -0.0021520646 -0.04832322 0.039632358
-0.06690221 -0.01323173 0.012170696 0.067405894 -0.07848042 0.066157356 -0.01776852 -0.008438016
-0.0016401634 0.018680675 0.016681446 0.019356411 0.00038314666 -0.04243686 -0.048531346 -0.00045547573
0.025336707 -0.016904974 -0.026015582 -0.022396736 0.015869863 0.059306853 0.06934274 0.031922743
0.010671539 -0.08819044 -0.004643976 -0.07571373 -0.070520744 0.06409115 -0.04661061 -0.03847946
-0.032621253 -0.023392081 0.055280242 0.027806174 0.015740313 0.04384774 -0.01193889 -0.003909408
-0.0021168892 -0.0018737235 0.03099315 0.021993285 0.017308054 -0.051961645 0.044788472 0.045756463
00000000: 1843 9fbc ce44 953d 9b7c 84bd 5e51 843d
00000010: f32f acbd e6e1 243d f402 943c 324e 7d3b
00000020: ec30 39bc b418 b03c c90d 2cbd f385 0d3d
00000030: 3501 0dbd 44ab 12bd 99da 633d ab03 01bd
00000040: d873 30bd c053 903d 368e 55bd 2a1d fb3c
00000050: c257 e9bc 3b13 6b3d f9dc 7abd ef4d 19bd
00000060: f647 87bd d120 083d f3bc 52bd a8c5 93bd
00000070: fd28 a33d 29b4 a2bc 78c8 363d 0773 4b3d
00000080: f465 61bd 9720 90bc a7f7 44bd 48fd 00bc
00000090: cb47 5cbd 55d3 2b3c e8d3 393d fc6b 59bd
000000a0: 4cb3 26bd 7855 883d 5b6f 40bd 727a b03b
000000b0: 1c73 12bd af78 e13b 9c4e cabc 600a cabb
000000c0: 6586 553d ba43 b53b 1e28 d13b 2fcc 823d
000000d0: 3746 94bc d55d a6bd 2a9a 9f3c b6ab cc3c
000000e0: 8337 6bbc 03d9 15bd 4d1e 063d 19b2 063d
000000f0: fb76 a13c 7b49 9c3b 5b7b d9bc 636f 423c
00000100: 3657 2fbd 2d2f c7bc 5851 243c ad11 193d
00000110: 2166 5d3c 67da 31bd c203 a6bd a26b 2f3c
00000120: e8c7 563d a33c 753d 6ca1 693d 94a6 dd3b
00000130: a8af 643d b9be 34bd bf53 ce3c cf5c de3c
00000140: 6f19 47bd 2fb7 4ebd 61d9 6dbd 4e43 2dbd
00000150: 5f3c 4abd 3d60 27bc 3739 8b3c c830 f03c
00000160: a553 753d f174 fbbc 31b1 603d d813 24bd
00000170: 1098 ce3c 8b54 28bd 1893 563d 3448 1ebd
00000180: b455 fabb 6d70 503d 1b9b d3bc a763 61bd
00000190: 95db a7ba 09a6 a0bd 7e9a ff3c 3a6a 5a3d
000001a0: 6a17 81bd 7cc2 8dbd 5f19 2ebd c87f 363c
000001b0: 1d1e e0bc 8d44 68bd 6b29 13bd 4a6c 2dbd
000001c0: ace6 8e3d 1031 b43b 0975 a13b 7f47 3ebd
000001d0: c087 3fbd d75b 58bd ae1a e4bc 9a76 e9bc
000001e0: cbf9 2c3d b95c 87bc ce0a 88bd f9c0 e03c
000001f0: bbff c33c 762f 8cba 3402 c1bc da06 4d3d
00000200: 3d31 973d 6dc7 2f3d 0d0a 99bc 15f4 d4ba
00000210: e5be 933d 0250 9fbd cd67 94bd 4b32 88bd
00000220: b240 98bd fdab 8a3d 25a8 cfbc 702d 4e3c
00000230: fb0f 8dbd b3fa 3ebd 4083 5cbd f754 713d
00000240: 838f 773d 19ac 623d ea91 903d cc8f 793c
00000250: 4f9e 44bd 3d2a 873d c98e eb3c 10b1 af3c
00000260: b5b0 7e3d a745 4d3d 860e 1cbc 3569 37bd
00000270: a417 8f3d 7e86 77bd a7ad d7bc c635 50bd
00000280: c8d4 773d 479c 5e3c 4fd1 7d3d 6a10 5a3d
00000290: 40fa 8b3c 336f 193d cb16 2c3d a2e2 3a3d
000002a0: 528d 84bd 2949 99bc 6ab9 59bb 0963 4d3d
000002b0: d979 d5bc 85ba 0bbd e637 483d 9899 f13c
000002c0: e22f c0bc 69a2 eabc dbe2 fd3b de04 85ba
000002d0: d092 e63c c180 90bd 4160 87bd b89f 7e3d
000002e0: cfda c03c e796 303d fb98 b33b 1466 963b
000002f0: 3115 bb3c 3b53 b1bd ebf5 81bd 9ea6 d3bc
00000300: 88d3 0bbb c82c bfbb b4d2 54bd 66ca 84bd
00000310: bd53 113c 337f 583b a13e 57bc 392b 753d
00000320: 744b 4bbd fa75 553c 555b 92bd 7bf0 19bb
00000330: 4994 bcbc a709 0dbb 92ee 45bd 8a55 223d
00000340: 0704 89bd e6c9 58bc 9967 473c 1a0c 8a3d
00000350: 58ba a0bd 827d 873d 4a8f 91bc 9b3f 0abc
00000360: c0fa d6ba 3708 993c 87a7 883c 5691 9e3c
00000370: 13e1 c839 46d2 2dbd cec8 46bd ebcc eeb9
00000380: ed8e cf3c 4d7c 8abc a11e d5bc 5c79 b7bc
00000390: 8401 823c beeb 723d 9103 8e3d 6cc1 023d
000003a0: aed7 2e3c 309d b4bd 7f2c 98bb cd0f 9bbd
000003b0: 2e6d 90bd 3942 833d c4ea 3ebd a39c 1dbd
000003c0: dd9d 05bd c0a0 bfbc 896d 623d c6c9 e33c
000003d0: d4f1 803c b099 333d 569b 43bc 7e1a 80bb
000003e0: 82bb 0abb ba97 f5ba 59e5 fd3c 432b b43c
000003f0: 9fc9 8d3c bcd5 54bd 1e74 373d 216b 3b3d

encoder.critic_encoder.net.mlp.2.weight f4 [256, 256]
-0.043707646 0.08067997 0.037527014 0.01466005 -0.03974034 0.041047666 0.0061186384 0.05096138
0.020344967 -0.082689285 -0.07842132 0.009568682 -0.058528285 0.026090302 0.014618532 0.06842872
0.066189855 0.07996606 -0.07818049 0.06270182 0.0100519275 0.013232869 0.06046055 -0.04039865
-0.008075941 -0.050707195 -0.051362656 -0.0062614484 0.020259043 0.027324304 0.024472056 -0.020478703
-0.056616113 0.0696648 0.05905888 0.057527527 -0.028039923 -0.078714654 -0.06628734 0.07940489
0.0037453612 0.0029973963 0.07282964 -0.026240192 0.044396214 -0.031346563 0.008776034 -0.06895715
0.00049154426 0.05229442 -0.010228461 0.017467197 -0.02060821 -0.029061995 -0.02664583 0.041264936
0.061537776 0.16612855 0.050726846 -0.012717625 -0.048955653 -0.040100552 0.054750677 -0.0017472202
0.06930649 -0.020684548 -0.060450774 -0.07594678 -0.03324371 -0.021242471 0.066528946 0.011433406
0.016968727 -0.07239894 0.030737387 0.08006198 0.054063536 -0.07223946 0.032523014 0.050214387
-0.047522392 0.06405342 -0.07907032 -0.046603404 0.024624135 -0.05850605 -0.012505615 0.07896581
-0.068269834 0.06586567 0.037410747 -0.11345674 -0.05011976 -0.047280163 0.0066179875 0.07082328
-0.038475823 0.040617432 0.06570352 0.001044375 -0.039964695 -0.03864964 0.041846465 -0.05668769
0.00030026812 0.0785163 0.010364439 0.0077656815 0.018042041 0.053982638 -0.13923386 0.029198805
-0.029339703 -0.057529837 -0.025934834 -0.010660083 -0.055521637 -0.05758582 0.0138814235 0.121004365
-0.036966935 -0.093511954 -0.09378789 -0.10622856 0.03456937 -0.08384482 0.02234627 0.0062812744
-0.0027408618 -0.03802644 0.0598781 -0.027360909 0.008464941 0.006362343 0.0022399 0.08336453
0.09552074 -0.006085612 -0.022038862 0.07008977 -0.04789804 0.040529534 -0.034456056 -0.028588487
-0.0085634235 0.0017571276 -0.068298794 -0.00016123247 -0.03331114 0.030441973 -0.030632867 0.016047902
0.0063486835 0.059963804 -0.116075695 0.009146448 0.025720466 -0.0008992204 -0.060419247 -0.050137654
-0.020327523 -0.025728125 -0.0005047825 0.008726442 0.07356756 -0.042881113 0.00821685 0.02092937
-0.08718764 -0.010829857 -0.11633143 -0.0041497154 -0.022297336 -0.028676141 0.008312549 -0.009678332
-0.10774156 -0.014132016 0.01055679 0.06409196 -0.0133760655 0.031499043 0.0050681424 0.023834495
0.047494914 -0.011824687 -0.020459902 -0.038015738 -0.01254113 -0.022714833 -0.014070465 0.0443803
0.0015660234 -0.037270747 -0.046046153 -0.053026035 -0.016004698 0.03805112 0.011935216 0.026724676
0.08997994 0.045855775 -0.0021457856 0.051398333 -0.019184198 0.039887227 0.06390266 0.05972386
-0.0011102 0.03736392 0.067774 -0.06890284 0.018474212 0.0010111451 -0.032902166 -0.011649536
0.07862309 -0.049682837 0.099635474 0.012711073 -0.029243158 -0.056437872 0.09743035 -0.07362161
0.0005299146 0.011623372 0.0005574649 -0.02271887 -0.10578911 0.10396713 0.0372544 0.07956044
0.024860702 0.0054416666 0.018591875 0.03217795 -0.0898281 0.0135979215 -0.028411552 0.00048004862
0.13146465 0.09556397 0.059177883 0.013239576 -0.07499779 -0.025207428 -0.0029412662 0.05687327
0.016787007 -0.0123945605 0.041679658 0.07727654 0.022081869 0.018311135 0.0012600127 0.036209326
00000000: ca06 33bd 8a3b a53d edb5 193d b530 703c
00000010: c4c6 22bd 9921 283d dc7e c83b e1bc 503d
00000020: 7daa a63c 0059 a9bd 5b9b a0bd f6c5 1c3c
00000030: 5bbb 6fbd 54bb d53c 9182 6f3c 5b24 8c3d
00000040: 8c8e 873d 3fc5 a33d 181d a0bd d069 803d
00000050: d7b0 243c adce 583c 7ba5 773d 0e79 25bd
00000060: f450 04bc 59b2 4fbd a661 52bd d62c cdbb
00000070: 4bf6 a53c 38d7 df3c 9f79 c83c f4c2 a7bc
00000080: 4ce6 67bd 6bac 8e3d b9e7 713d fca1 6b3d
00000090: fbb3 e5bc 2635 a1bd a8c1 87bd 089f a23d
000000a0: bc74 753b f76f 443b b527 953d acf5 d6bc
000000b0: ced8 353d 4165 00bd 5bc9 0f3c 6839 8dbd
000000c0: fada 003a ac32 563d 4695 27bc 5e17 8f3c
000000d0: 8cd2 a8bc 6c13 eebc 5b48 dabc 6c05 293d
000000e0: 090f 7c3d 9a1d 2a3e f4c6 4f3d 965d 50bc
000000f0: b985 48bd 7a40 24bd 3f42 603d fb02 e5ba
00000100: 90f0 8d3d a472 a9bc 3b9b 77bd fc89 9bbd
00000110: 8e2a 08bd b104 aebc 5440 883d 2e53 3b3c
00000120: 0002 8b3c e545 94bd f9cc fb3c 89f7 a33d
00000130: ba71 5d3d 48f2 93bd da36 053d 9aad 4d3d
00000140: d7a6 42bd 712e 833d 9fef a1bd 36e3 3ebd
00000150: 8eb8 c93c 0aa4 6fbd 5ae4 4cbc d4b8 a13d
00000160: 0ed1 8bbd 95e4 863d 033c 193d 025c e8bd
00000170: 614a 4dbd d8a8 41bd b4db d83b cc0b 913d
00000180: d398 1dbd 775e 263d 918f 863d 69e3 883a
00000190: 05b2 23bd 164f 1ebd 3367 2b3d 5a31 68bd
000001a0: 4e6d 9d39 27cd a03d 9ccf 293c 4277 fe3b
000001b0: e7cc 933c e61c 5d3d 5293 0ebe 5532 ef3c
000001c0: d159 f0bc 68a4 6bbd 4a75 d4bc a1a7 2ebc
000001d0: a86a 63bd 1cdf 6bbd e96e 633c 23d1 f73d
000001e0: a46a 17bd 3283 bfbd de13 c0bd 5c8e d9bd
000001f0: 9d98 0d3d d5b6 abbd 860f b73c 26d3 cd3b
00000200: 08a0 33bb 9dc1 1bbd bd42 753d fc23 e0bc
00000210: 89b0 0a3c 347b d03b 49cb 123b 06bb aa3d
00000220: 61a0 c33d d069 c7bb d88a b4bc 3a8b 8f3d
00000230: bc30 44bd 4c02 263d cb21 0dbd 6732 eabc
00000240: 9a4d 0cbc 6b4f e63a 3de0 8bbd 8310 29b9
00000250: 4371 08bd 7261 f93c c7f1 fabc e476 833c
00000260: 9e08 d03b 9b9c 753d 18b9 edbd fcda 153c
00000270: bab3 d23c a9b9 6bba 2c7a 77bd 245d 4dbd
00000280: e885 a6bc cac3 d2bc 6153 04ba 5af9 0e3c
00000290: 97aa 963d 1ba4 2fbd f89f 063c 1274 ab3c
000002a0: 6f8f b2bd b66f 31bc 2c3f eebd 56fa 87bb
000002b0: e7a8 b6bc 3aea eabc 5c31 083c de91 1ebc
000002c0: 9ba7 dcbd f989 67bc 63f6 2c3c a542 833d
000002d0: 4927 5bbc 2405 013d a912 a63b 8f40 c33c
000002e0: 078a 423d 55bc 41bc 869b a7bc 64b6 1bbd
000002f0: 5079 4dbc 7514 babc cf87 66bc 1ec8 353d
00000300: 0743 cd3a 36a9 18bd e49a 3cbd d431 59bd
00000310: 491c 83bc 7edb 1b3d ed8b 433c b5ed da3c
00000320: 6747 b83d 44d3 3b3d 4fa0 0cbb 0f87 523d
00000330: 2e28 9dbc ca60 233d 66df 823d 02a1 743d
00000340: 2184 91ba e90a 193d 18cd 8a3d ef1c 8dbd
00000350: 3b57 973c 6688 843a 6cc4 06bd b2dd 3ebc
00000360: 2505 a13d 3b80 4bbd af0d cc3d 1b42 503c
00000370: 598f efbc 662b 67bd 9089 c73d edc6 96bd
00000380: f8e9 0a3a f56f 3e3c d622 123a ec1c babc
00000390: f6a7 d8bd b8ec d43d 1298 183d 95f0 a23d
000003a0: aca8 cb3c 0250 b23b fd4d 983c 07cd 033d
000003b0: cbf7 b7bd d1c9 5e3c 58bf e8bc 09af fb39
000003c0: ab9e 063e 0bb7 c33d 8264 723d ceea 583c
000003d0: 7198 99bd cf7f cebc 42c2 40bb f2f3 683d
000003e0: e884 893c 8e12 4bbc 4ab8 2a3d 2a43 9e3d
000003f0: 09e5 b43c 3c01 963c 0327 a53a 3b50 143d
