test/log/MountainCarContinuous-v0/sac/policy.pth (torch, 353302 bytes, 25 tensors)

actor.preprocess.model.model.0.weight f4 [128, 2]
0.34157377 0.36762625 -0.3597231 -0.09190034 0.13536757 -0.5502982 0.39495575 -0.27384037
-0.27301085 -0.59401196 0.73616517 -0.12496496 -0.06893569 0.045840025 -0.44775513 -0.39728412
-0.6268199 0.16396958 -0.30437848 -0.47200602 -0.29766202 -0.047152463 -0.64432 0.27088723
-0.5157571 -0.47473726 0.5393108 -0.4533236 0.5023938 0.51474494 0.66329414 -0.107774556
0.17716408 0.32100922 -0.3138922 0.3156621 0.57922 -0.65089786 0.73943985 -0.0066212276
0.15195675 -0.41032055 -0.57611835 0.3228272 0.66771847 -0.2528417 -0.18486625 -0.6621973
-0.6501564 -0.47592005 -0.289743 0.44018587 -0.69169223 -0.21664333 -0.5116939 -0.557091
0.11461048 -0.68433267 -0.38666663 -0.4054105 0.5340001 -0.023028176 -0.31641945 0.05086243
-0.49327192 0.12707052 -0.46571502 0.039577566 0.14929467 0.46160883 0.43366602 0.14703083
0.5225856 0.22701544 0.5761672 0.23928337 -0.49634638 -0.5692348 0.2303453 -0.31147066
-0.44921136 0.6406408 0.22634363 0.6652908 0.01164788 -0.5107762 -0.6352657 -0.29153627
-0.08198932 -0.3045666 0.24377424 0.45812827 -0.5984795 -0.20501016 0.40853566 -0.123975635
-0.44281438 -0.22904791 -0.35676384 0.13937292 -0.22456747 -0.2937717 -0.21653813 0.5952972
0.1545884 -0.7001966 0.044224992 -0.16740282 -0.5950209 -0.26504093 -0.0794335 -0.16237426
0.4631732 0.5389858 0.51472205 -0.016042843 -0.12469685 0.15459287 0.5480409 0.25357145
-0.56348604 -0.32675633 0.15682977 0.14768314 0.65656877 0.03630384 -0.3057463 -0.02130884
0.08069236 -0.033764284 -0.21004456 0.6870659 0.6829327 -0.65378803 0.6560132 -0.046748687
0.31317598 0.3323931 0.039712433 -0.3836209 0.17857808 0.32494238 0.5149864 0.049344826
0.5792903 -0.4798368 -0.15967919 -0.4666425 -0.3885514 -0.7164082 0.19890624 -0.5805333
-0.5170036 0.5960946 0.39344507 0.5361691 -0.42755494 -0.54791987 0.12476806 0.064735845
-0.12758133 0.17810534 0.35175666 -0.70122564 0.3006199 0.5945286 0.47177693 -0.4677422
-0.19656795 -0.23284397 0.24729908 -0.1592437 -0.28764936 -0.5830898 -0.20418032 -0.56285083
-0.23092219 0.03730076 -0.23810077 -0.19511771 -0.32940277 -0.39663142 -0.5174234 0.42797235
-0.39633778 -0.4379268 -0.31181824 -0.60582924 0.10683392 0.65235054 0.33668655 -0.13372225
-0.30373296 -0.29276612 0.31709126 0.38112375 0.63314086 0.058102395 0.41020185 -0.073801935
0.5598232 -0.685528 -0.16208194 -0.1171975 -0.64343065 0.09625659 -0.5003339 0.6596942
0.49774528 -0.43014967 0.6935579 -0.43520346 -0.39950737 -0.21054688 0.053358138 0.14725178
-0.058579743 0.19380194 0.13586742 0.5200574 -0.39873886 0.035644293 -0.12344677 0.39569154
-0.32471207 -0.59408295 0.0019164064 0.12982462 -0.037155446 -0.47447062 -0.26525584 0.03304252
-0.19724514 0.23329438 -0.017640036 0.0666345 0.6155107 -0.120617785 -0.5334735 0.5804476
-0.15788352 -0.5686077 -0.3622006 0.21757644 0.28271833 0.6372906 0.5141806 0.6563352
0.5448753 0.42205527 -0.5973276 0.16492343 0.11647093 -0.4470292 0.4998582 0.43615884
00000000: c2e2 ae3e 8239 bc3e a02d b8be 3f36 bcbd
00000010: cc9d 0a3e 58e0 0cbf a437 ca3e ce34 8cbe
00000020: 14c8 8bbe 2b11 18bf 5275 3c3f a1ed ffbd
00000030: 282e 8dbd c0c2 3b3d 2940 e5be d368 cbbe
00000040: 4577 20bf a4e7 273e 7fd7 9bbe c6aa f1be
00000050: 2867 98be f122 41bd 28f2 24bf bbb1 8a3e
00000060: a808 04bf c310 f3be 4610 0a3f 081a e8be
00000070: e19c 003f 53c6 033f a5cd 293f e8b8 dcbd
00000080: 806a 353e 525b a43e 7ab6 a0be 769e a13e
00000090: c347 143f 3ea1 26bf ee4b 3d3f e2f6 d8bb
000000a0: 8d9a 1b3e 8915 d2be 7e7c 13bf 9b49 a53e
000000b0: 99ef 2a3f 7874 81be 944d 3dbe c385 29bf
000000c0: a670 26bf cbab f3be 3259 94be 0b60 e13e
000000d0: be12 31bf c0d7 5dbe 5ffe 02bf 849d 0ebf
000000e0: e6b8 ea3d 6d30 2fbf 2bf9 c5be f791 cfbe
000000f0: 3bb4 083f 96a5 bcbc bb01 a2be 2055 503d
00000100: 238e fcbe c61e 023e 3372 eebe 161c 223d
00000110: b4e0 183e fe57 ec3e 7909 de3e 408f 163e
00000120: 2bc8 053f bc76 683e b27f 133f b306 753e
00000130: 1d21 febe 5fb9 11bf a3df 6b3e 1579 9fbe
00000140: 08ff e5be 0901 243f a0c6 673e 7f50 2a3f
00000150: c0d6 3e3c 3bc2 02bf c6a0 22bf 3e44 95be
00000160: 04ea a7bd 27f0 9bbe f49f 793e ca8f ea3e
00000170: f435 19bf 2fee 51be 962b d13e f0e6 fdbd
00000180: 91b8 e2be 898b 6abe c0a9 b6be c6b7 0e3e
00000190: 04f5 65be 3f69 96be 2cbc 5dbe 6665 183f
000001a0: 6c4c 1e3e 1640 33bf 4425 353d a56b 2bbe
000001b0: 4a53 18bf 72b3 87be 08ae a2bd 7045 26be
000001c0: 0a25 ed3e f9fa 093f d3c4 033f 486c 83bc
000001d0: 1061 ffbd 984d 1e3e 694c 0c3f 1ed4 813e
000001e0: 9f40 10bf 9b4c a7be fc97 203e 403a 173e
000001f0: e414 283f 56b3 143d c78a 9cbe e08f aebc
00000200: 0942 a53d 6b4c 0abd ec15 57be 8de3 2f3f
00000210: add4 2e3f a75e 27bf 7bf0 273f 8d7b 3fbd
00000220: 9a58 a03e 6e2f aa3e 81a9 223d f569 c4be
00000230: 2cdd 363e d95e a63e 26d6 033f cd1d 4a3d
00000240: 5e4c 143f 2bad f5be f182 23be c4eb eebe
00000250: 36f0 c6be 8766 37bf 14ae 4b3e d59d 14bf
00000260: 595a 04bf a899 183f a271 c93e 6142 093f
00000270: 7be8 dabe 7a44 0cbf 6686 ff3d 3a94 843d
00000280: aea4 02be 3f61 363e 7319 b43e 8683 33bf
00000290: daea 993e 0733 183f bf8c f13e e87b efbe
000002a0: 1c49 49be a66e 6ebe f83b 7d3e c810 23be
000002b0: c746 93be 6045 15bf a514 51be fe16 10bf
000002c0: de76 6cbe afc8 183d b0d0 73be f0cc 47be
000002d0: 7ba7 a8be 4613 cbbe dc75 04bf 311f db3e
000002e0: c9ec cabe f137 e0be a4a6 9fbe a017 1bbf
000002f0: becb da3d 7200 273f 2e62 ac3e 7cee 08be
00000300: e382 9bbe 71e5 95be c959 a23e a722 c33e
00000310: 8515 223f c7fc 6d3d fa05 d23e 7825 97bd
00000320: 9350 0f3f c37e 2fbf cff8 25be 3e05 f0bd
00000330: dfb7 24bf 2d22 c53d e215 00bf b8e1 283f
00000340: 78d8 fe3e 943c dcbe 038d 313f fdd2 debe
00000350: 3b8c ccbe 9a99 57be 108e 5a3d 2cc9 163e
00000360: 50f1 6fbd 0474 463e d420 0b3e 7b22 053f
00000370: 8027 ccbe c0ff 113d a9d1 fcbd 1598 ca3e
00000380: a940 a6be d215 18bf ee2f fb3a bff0 043e
00000390: 4f30 18bd d0ed f2be 9dcf 87be 9857 073d
000003a0: a1fa 49be b9e4 6e3e d681 90bc ab77 883d
000003b0: 1c92 1d3f 7506 f7bd b891 08bf 3798 143f
000003c0: 38ac 21be 4690 11bf 5b72 b9be 5ccc 5e3e
000003d0: 75c0 903e 7a25 233f 57a1 033f 9505 283f
000003e0: f37c 0b3f a117 d83e 76ea 18bf b0e1 283e
000003f0: 5088 ee3d 03e1 e4be 6aed ff3e 3650 df3e

actor.preprocess.model.model.0.bias f4 [128]
-0.2204833 0.6838537 0.35420594 0.07619616 -0.39717528 0.05287171 -0.52904 -0.70652694
-0.2837192 0.27718994 0.2612002 -0.40363118 -0.3054812 0.31837085 -0.027949927 -0.3112854
-0.490758 -0.6351325 0.2870922 0.034661192 0.29242483 0.64186794 -0.5609178 0.07250738
0.58554024 0.6224961 -0.4518103 0.58825576 0.5248894 -0.06279583 -0.2378814 0.3248996
0.03562895 -0.32206473 -0.64559615 0.12432674 0.59812784 0.46976238 0.62267065 0.6516612
-0.47323167 -0.7016028 -0.5153427 -0.4066618 0.27979097 -0.606817 0.32287645 -0.43767697
0.061134197 -0.43137175 -0.04166095 0.1475955 -0.63909096 -0.017401872 0.056028496 -0.1314978
-0.3398807 0.2781377 -0.39247397 0.43981424 0.22366792 -0.31526524 0.6209349 -0.57103324
0.20445253 -0.32685664 0.16526806 0.3985482 -0.17254883 0.5724621 0.022549154 0.64713305
0.47200736 0.53895026 0.08310735 0.5770952 -0.340437 -0.6615646 0.582696 0.6014731
0.67970747 0.59920484 -0.50135016 0.42370886 -0.29721233 -0.4586119 -0.37043944 -0.13082047
0.5429221 -0.47417217 -0.1810079 -0.12792557 0.62151194 0.06482202 0.12951899 -0.17154914
0.3834635 0.15222004 0.6047987 -0.22496167 -0.51802903 0.2446988 0.61906856 -0.47712106
0.017246846 0.013573485 0.18023084 -0.37169322 -0.17347139 0.12233468 -0.57196045 -0.09578663
-0.10666709 0.4605417 0.6186439 -0.15703653 0.037894186 0.34131464 0.5602059 0.62004197
-0.43290833 0.4659784 0.32558483 -0.59947103 0.56490433 0.1905115 -0.29125595 -0.5393001
00000000: 60c6 61be 0911 2f3f 7b5a b53e bb0c 9c3d
00000010: 8f5a cbbe 0290 583d 2a6f 07bf f3de 34bf
00000020: a543 91be d7eb 8d3e 08bc 853e bfa8 cebe
00000030: 0868 9cbe 8101 a33e 3ff7 e4bc cd60 9fbe
00000040: a244 fbbe 0b98 22bf c0fd 923e e5f8 0d3d
00000050: b5b8 953e 7551 243f 4f98 0fbf c07e 943d
00000060: f7e5 153f e85b 1f3f ae53 e7be ee97 163f
00000070: 275f 063f 1a9b 80bd 2f97 73be 3e59 a63e
00000080: a9ef 113d abe5 a4be ca45 25bf 059f fe3d
00000090: e81e 193f b284 f03e 5867 1f3f 45d3 263f
000000a0: 6c4b f2be 3e9c 33bf 80ed 03bf fa35 d0be
000000b0: c340 8f3e 5c58 1bbf 1050 a53e 3217 e0be
000000c0: da67 7a3d c2dc dcbe aca4 2abd 4623 173e
000000d0: 779b 23bf 5f8e 8ebc 237e 653d 5ca7 06be
000000e0: d804 aebe 1168 8e3e 59f2 c8be 552f e13e
000000f0: 3409 653e 726a a1be 97f5 1e3f 3c2f 12bf
00000100: 015c 513e c159 a7be 083c 293e 820e cc3e
00000110: a4b0 30be e08c 123f 01b9 b83c 83aa 253f
00000120: f3aa f13e a5f8 093f 3034 aa3d 83bc 133f
00000130: c24d aebe 4c5c 29bf 912b 153f 24fa 193f
00000140: 4f01 2e3f 7d65 193f 7c58 00bf 5ef0 d83e
00000150: 372c 98be 2ecf eabe 3daa bdbe cdf5 05be
00000160: f1fc 0a3f b2c6 f2be 235a 39be ecfe 02be
00000170: 681b 1f3f 68c1 843d a0a0 043e 94aa 2fbe
00000180: 5455 c43e 92df 1b3e 16d4 1a3f 5a5c 66be
00000190: 8d9d 04bf 5292 7a3e 477b 1e3f 3649 f4be
000001a0: 4249 8d3c 5363 5e3c 6f8e 383e 934e bebe
000001b0: 7ca2 31be 9b8a fa3d 006c 12bf c82b c4bd
000001c0: 4674 dabd 1fcc eb3e 725f 1e3f 2fce 20be
000001d0: ef36 1b3d cbc0 ae3e a769 0f3f 12bb 1e3f
000001e0: 29a6 ddbe b994 ee3e 0eb3 a63e ef76 19bf
000001f0: 929d 103f 7215 433e 801f 95be 920f 0abf

actor.preprocess.model.model.2.weight f4 [128, 128]
0.06746543 -0.011726364 -0.010935932 -0.040890172 0.002315186 -0.04215404 0.08322399 0.02905853
-0.01788132 -0.07773956 -0.020036755 0.07867979 -0.018728517 0.06062764 0.09740699 -0.033735916
0.0024006441 0.043017887 0.068290405 -0.04148178 0.02887176 0.058530472 -0.043598175 0.029064259
0.049970195 -0.04959973 0.0490037 -4.8592796e-05 -0.08628566 -0.054937255 0.02299403 0.0489811
-0.0572412 0.021490116 0.08296623 -0.018513693 0.040225677 -0.030791545 0.066912636 -0.030862214
0.055509496 -0.03608064 -0.022489265 0.041473392 -0.06256942 0.0066711307 -0.043423567 -0.08120039
-0.070826516 -0.04306491 -0.057367615 0.048638206 0.07971009 0.0045798686 0.0082703205 -0.07703913
0.07105634 0.04818319 0.0015961975 0.05863487 -0.037589446 -0.010805659 -0.08005407 -0.044088922
0.028277166 -0.050012324 0.055302206 0.021419365 -0.04443755 0.020322813 -0.035604008 0.08618279
0.04811151 0.07440278 0.082032286 0.085363016 0.024882866 -0.055779573 -0.08161009 -0.008494212
-0.05657947 -0.030006392 0.070737295 0.023454562 -0.04222017 -0.07655574 0.03805498 -0.08107871
0.026495203 0.07505349 -0.07525686 0.050775748 -0.06734228 0.07135444 0.046666767 0.035119385
-0.073783696 0.07599276 -0.01286483 -0.020762034 -0.017520562 0.019969167 -0.027176589 0.039239366
0.09547867 -0.04367198 -0.047304824 0.025769077 0.08348135 -0.04748719 -0.08767838 0.0023826293
0.0210425 0.08476229 -0.038801555 0.019321628 -0.06717204 0.015604565 0.05560121 0.061244793
-0.024296127 0.0406765 -0.079216644 -0.050977476 -0.033984803 0.028403506 0.044391997 0.030042045
-0.08615874 0.067825735 -0.091416605 0.035324123 -0.04232848 -0.087586984 -0.013885543 -0.08492935
0.07053354 -0.03889057 -0.053571925 -0.058273226 -0.08713641 -0.054986306 0.08398426 -0.024076812
-0.05470668 -0.009089023 -0.036529075 0.072518736 0.072933234 -0.000547229 -0.044790782 -0.08851747
0.01405809 -0.053173315 0.069158375 0.063703924 0.0023531641 -0.02218073 -0.013498667 -0.09852094
0.026984114 0.050574727 0.05441325 0.056267213 0.044135977 0.054323804 -0.07542888 -0.057317156
-0.032370035 0.017825902 -0.08028418 -0.07652159 -0.09208666 -0.04228212 -0.09026003 0.02086687
0.019335056 -0.06740199 -0.049024593 0.010088863 0.009066746 0.027354635 0.07640847 0.011008143
0.015500069 -0.056596424 0.083659075 0.071219236 0.044120274 0.08779039 -0.050310858 0.011496596
-0.061339337 0.059132136 0.06185363 -0.016982941 0.038370125 -0.028427748 0.088874795 0.02124096
0.06766652 0.009449209 -0.01538693 -0.054466292 0.022229481 0.07417294 -0.051323943 0.049770128
0.0045564887 -0.0666085 0.02276095 0.015376745 -0.033371378 0.040385865 -0.012020469 -0.006898346
0.017708046 -0.023820944 -0.050096318 -0.037696254 0.060130082 0.042084344 0.020770604 0.045609094
0.02472131 -0.06702488 -0.065403484 0.057512097 0.066445924 -0.099439204 0.010491118 -0.0028994903
-0.049911182 0.08440606 -0.0077790027 0.027318574 0.08276837 -0.06871937 0.0156594 -0.080913395
0.053334147 -0.060141344 0.002307643 -0.08110948 -0.011243974 0.028900653 0.07789323 -0.09569805
-0.004667945 -0.044180837 0.05759198 0.08211071 0.0005514095 -0.012192037 -0.05973361 -0.082035534
00000000: 512b 8a3d ef1f 40bc a02c 33bc 747c 27bd
00000010: 60ba 173b b7a9 2cbd 5771 aa3d 280c ee3c
00000020: d97b 92bc eb35 9fbd 1f24 a4bc df22 a13d
00000030: 8c6c 99bc b054 783d 517d c73d ac2e 0abd
00000040: 2054 1d3b 8633 303d d7db 8b3d cde8 29bd
00000050: 7884 ec3c a6bd 6f3d 0094 32bd 2b18 ee3c
00000060: 8cad 4c3d 1629 4bbd 1bb8 483d 1ed0 4bb8
00000070: 89b6 b0bd e305 61bd fa5d bc3c 68a0 483d
00000080: c075 6abd 0a0c b03c 33ea a93d 07aa 97bc
00000090: aec3 243d 8d3e fcbc 7e09 893d c1d2 fcbc
000000a0: ed5d 633d 4bc9 13bd 683b b8bc 01e0 293d
000000b0: 6524 80bd 8099 da3b e9dc 31bd 644c a6bd
000000c0: 7e0d 91bd d564 30bd 4efa 6abd db38 473d
000000d0: 0b3f a33d b912 963b 3d80 073c b1c6 9dbd
000000e0: fd85 913d bd5b 453d 8037 d13a 1e2b 703d
000000f0: 64f7 19bd 380a 31bc 63f3 a3bd 9696 34bd
00000100: 84a5 e73c b9d9 4cbd 9184 623d aa77 af3c
00000110: 2604 36bd 077c a63c 82d5 11bd 9a80 b03d
00000120: 9310 453d 7c60 983d 8b00 a83d ced2 ae3d
00000130: 27d7 cb3c 1f79 64bd 3123 a7bd 4f2b 0bbc
00000140: e0bf 67bd f7cf f5bc b7de 903d c823 c03c
00000150: 0fef 2cbd 41c9 9cbd 8adf 1b3d 980c a6bd
00000160: 780c d93c a5b5 993d 4520 9abd 3bfa 4f3d
00000170: c0ea 89bd 4722 923d a725 3f3d 58d9 0f3d
00000180: e81b 97bd 18a2 9b3d 02c7 52bc 2415 aabc
00000190: 4887 8fbc 6196 a33c 70a1 debc 75b9 203d
000001a0: 528a c33d 64e1 32bd b4c2 41bd ac19 d33c
000001b0: 45f8 aa3d ee81 42bd b990 b3bd e325 1c3b
000001c0: 5261 ac3c da97 ad3d 61ee 1ebd 6448 9e3c
000001d0: 7f91 89bd 4aaa 7f3c 18be 633d d2db 7a3d
000001e0: ac08 c7bc 679c 263d 563c a2bd c2cd 50bd
000001f0: a633 0bbd 78ae e83c 62d4 353d bc1a f63c
00000200: fe73 b0bd 38e8 8a3d a138 bbbd 07b0 103d
00000210: a160 2dbd ce60 b3bd 3080 63bc 70ef adbd
00000220: e373 903d b84b 1fbd 3c6e 5bbd e8af 6ebd
00000230: 9374 b2bd 5239 61bd f1ff ab3d bc3c c5bc
00000240: 1d14 60bd 20ea 14bc 839f 15bd b484 943d
00000250: 055e 953d eb73 0fba 8a76 37bd a648 b5bd
00000260: e753 663c 43cc 59bd e8a2 8d3d 3477 823d
00000270: 8b37 1a3b 5db4 b5bc 8329 5dbc 59c5 c9bd
00000280: ca0d dd3c 7227 4f3d 6ee0 5e3d 7378 663d
00000290: edc7 343d a382 5e3d 757a 9abd 65c5 6abd
000002a0: 7196 04bd a007 923c 086c a4bd 5ab7 9cbd
000002b0: ee97 bcbd 0430 2dbd 40da b8bd 00f1 aa3c
000002c0: 8d64 9e3c 0e0a 8abd 03ce 48bd c24b 253c
000002d0: b08c 143c d416 e03c 0b7c 9c3d 805b 343c
000002e0: 00f4 7d3c a7d1 67bd 7355 ab3d 64db 913d
000002f0: 76b7 343d 73cb b33d c212 4ebd 385c 3c3c
00000300: f53e 7bbd 8a34 723d 3b5a 7d3d cf1f 8bbc
00000310: fe29 1d3d 4fe1 e8bc fd03 b63d 8601 ae3c
00000320: bf94 8a3d dbd0 1a3c 7619 7cbc 0c18 5fbd
00000330: 9a1a b63c fbe7 973d 0e39 52bd c3db 4b3d
00000340: 994e 953b 0a6a 88bd 2c75 ba3c beee 7b3c
00000350: 6db0 08bd a66b 253d 80f1 44bc 850b e2bb
00000360: 7710 913c 2424 c3bc cc31 4dbd 6367 1abd
00000370: f64a 763d a260 2c3d 1d27 aa3c 9ad0 3a3d
00000380: 5884 ca3c 5744 89bd 43f2 85bd ce91 6b3d
00000390: cd14 883d c8a6 cbbd f0e2 2b3c 6005 3ebb
000003a0: ab6f 4cbd 16dd ac3d 01e7 febb 34cb df3c
000003b0: 7782 a93d bebc 8cbd 2448 803c ecb5 a5bd
000003c0: e874 5a3d c556 76bd d33b 173b ba1c a6bd
000003d0: a538 38bc 10c1 ec3c 7c86 9f3d 57fd c3bd
000003e0: 90f5 98bb f7f6 34bd 91e5 6b3d a929 a83d
000003f0: 778c 103a 1cc1 47bc 3bab 74bd 3f02 a8bd

actor.preprocess.model.model.2.bias f4 [128]
-0.06489238 0.074521825 0.033470545 -0.016689269 -0.012518438 -0.06535914 -0.07421818 0.056746762
0.0027700588 -0.04046576 0.0043510622 0.043186016 0.04324128 -0.036764476 -0.0757563 -0.065262005
-0.035330385 -0.060237013 -0.05269369 0.058177643 -0.069027424 0.060007352 0.077843726 -0.08523351
0.03244758 0.081011616 -0.0076172547 -0.03557308 0.058197748 0.055702142 -0.03717197 0.042836733
-0.016670398 -0.065986104 0.062001094 0.048792295 -0.019523218 0.08204812 -0.05622167 0.016501565
-0.08792858 0.048581757 -0.050854858 0.056074478 -0.018927328 0.0029434029 -0.08665391 -0.050088406
0.027088528 0.02381736 0.05715153 0.04100288 0.079365134 0.05023358 0.053110126 -0.075440876
-0.011960197 0.06303494 0.051000737 0.06709967 0.027927332 0.02711304 0.0696436 0.083950154
0.036470443 0.041041065 0.038920216 -0.058485195 -0.06656786 0.028145209 -0.06332626 -0.05182411
0.031929538 -0.07564452 0.04595246 0.04929607 0.019442838 0.075888135 -0.07280654 -0.039361995
0.017119879 -0.039790135 0.07221298 -0.032073043 0.002910249 0.02192546 0.0031773034 -0.0022072718
0.06842307 0.014516106 0.036901735 0.08434019 0.021329079 -0.04515576 -0.059670057 -0.03484668
0.015664332 0.046259064 0.053147532 -0.04272683 0.022932144 -0.03687764 0.043498408 0.083481416
0.08870563 -0.07955918 -0.08197816 -0.05280685 -0.08696174 -0.038318545 -0.07883419 0.068917036
0.03000468 -0.0687288 -0.042434916 -0.014965586 -0.07100539 0.05613281 0.07093879 -0.08680592
0.075628005 -0.08388566 -0.05847581 -0.04517476 0.08605423 0.062036116 -0.02840655 -0.07999123
00000000: 4ce6 84bd e69e 983d 6918 093d efb7 88bc
00000010: 221a 4dbc 03db 85bd b3ff 97bd 4b6f 683d
00000020: e089 353b 6dbf 25bd 5b93 8e3b d2e3 303d
00000030: c51d 313d 5996 16bd 1e26 9bbd 16a8 85bd
00000040: 98b6 10bd 16bb 76bd 57d5 57bd ae4b 6e3d
00000050: 405e 8dbd 45ca 753d 886c 9f3d e88e aebd
00000060: c1e7 043d 6be9 a53d 2a9a f9bb 14b5 11bd
00000070: c360 6e3d ee27 643d a341 18bd 9275 2f3d
00000080: 5c90 88bc b923 87bd dcf4 7d3d 6eda 473d
00000090: 28ef 9fbc d808 a83d b248 66bd 4a2e 873c
000000a0: e613 b4bd aafd 463d 2f4d 50bd 5aae 653d
000000b0: 7c0d 9bbc 1be6 403b 9b77 b1bd 8029 4dbd
000000c0: c3e8 dd3c a01c c33c b917 6a3d a3f2 273d
000000d0: 308a a23d bac1 4d3d 018a 593d bf80 9abd
000000e0: b4f4 43bc 7618 813d 26e6 503d 8d6b 893d
000000f0: dcc7 e43c 2b1c de3c 4ea1 8e3d 0fee ab3d
00000100: 0862 153d ad1a 283d ce6a 1f3d 2c8e 6fbd
00000110: bb54 88bd c890 e63c 33b1 81bd 8545 54bd
00000120: 8cc8 023d 84eb 9abd a638 3c3d adea 493d
00000130: 9646 9f3c 3d6b 9b3d 981b 95bd 0b3a 21bd
00000140: fd3e 8c3c fbfa 22bd 66e4 933d 065f 03bd
00000150: e0b9 3e3b 069d b33c 4e3a 503b e0a7 10bb
00000160: 6521 8c3d f6d4 6d3c 4626 173d 8dba ac3d
00000170: 52ba ae3c 3ff5 38bd 9768 74bd 64bb 0ebd
00000180: 7c52 803c 257a 3d3d 3ab1 593d 5402 2fbd
00000190: 31dc bb3c 020d 17bd 632b 323d 4ef8 aa3d
000001a0: 4cab b53d ecef a2bd 2ae4 a7bd ff4b 58bd
000001b0: ff18 b2bd e8f3 1cbd d273 a1bd 6024 8d3d
000001c0: 60cc f53c afc1 8cbd 3cd0 2dbd 3832 75bc
000001d0: 466b 91bd 84eb 653d 5b48 913d 4dc7 b1bd
000001e0: dbe2 9a3d 3fcc abbd 5584 6fbd 2b09 39bd
000001f0: 333d b03d 9519 7e3d dab4 e8bc 71d2 a3bd

actor.mu.model.0.weight f4 [1, 128]
0.022385307 0.0019874459 -0.07174033 -0.0478815 0.033557225 0.0788145 -0.0010871099 0.06822477
0.07301486 0.014664342 0.04307995 -0.050139956 -0.05964642 0.005210916 -0.025301525 0.033723682
0.0015600622 -0.025402287 0.06370267 0.029206209 -0.016619058 0.044577036 0.04500873 0.016938167
-4.7617e-05 0.07067818 -0.068551 0.027454527 0.0045187357 0.0048887953 -0.06020087 -0.031246632
-0.0637626 0.06013479 -0.008777654 0.08743768 -0.07623431 -0.00012185222 0.06258665 -0.039842762
-0.05850681 0.07317983 -0.0062770387 0.01909662 -0.061075114 -0.050916832 0.058354698 0.024966804
-0.07536448 0.07635305 -0.03209555 -0.038121052 -0.06338503 0.06507001 0.06520024 -0.082644135
-0.0015771844 0.005641339 0.08376365 0.052400302 0.030709932 0.00010742688 0.020457478 0.015017999
0.0070659593 -0.021283416 -0.010043338 -0.061617944 0.018830515 -0.025482556 0.06561533 0.00856162
-0.08298649 0.0017033368 0.028993025 0.03386742 0.0031246631 0.05148682 -0.041372485 0.012393743
0.08089112 -0.019167408 0.016399644 -0.024721334 -0.068175584 0.08054968 -0.013179356 -0.05314095
0.06493292 0.082814455 0.017337598 -0.028272724 -0.00664472 -0.08350856 -0.059588164 0.035192892
-0.05268885 0.03533878 0.03607951 -0.027587142 -0.013525241 0.08035711 0.046137024 -0.07271762
0.06424779 -0.030315228 -0.056366563 -0.06313072 0.024552554 -0.0024492894 -0.053897586 0.05976441
0.06889499 -0.018536806 0.043369744 -0.030019082 -0.019574016 -0.032984298 0.032541808 -0.03799282
0.0053498447 -0.06472019 0.016317792 -0.049574234 -0.011242591 0.07178945 0.009754826 0.008557759
00000000: 6461 b73c cf3f 023b 98ec 92bd 641f 44bd
00000010: 4d73 093d 7f69 a13d 5b7d 8eba 6eb9 8b3d
00000020: d188 953d b542 703c 9a74 303d 8e5f 4dbd
00000030: ce4f 74bd 55c0 aa3b 2545 cfbc d821 0a3d
00000040: 007b cc3a 7518 d0bc 8c76 823d dc41 ef3c
00000050: b124 88bc 6996 363d 135b 383d e9c1 8a3c
00000060: 5db8 47b8 b9bf 903d 7764 8cbd 51e8 e03c
00000070: e711 943b 3032 a03b 3095 76bd f0f8 ffbc
00000080: f795 82bd e64f 763d 26d0 0fbc 8712 b33d
00000090: bc20 9cbd ea8a ffb8 6e2d 803d 2a32 23bd
000000a0: d6a4 6fbd 4fdf 953d 9eaf cdbb 8470 9c3c
000000b0: e629 7abd 2b8e 50bd 5605 6f3d 2f87 cc3c
000000c0: b158 9abd fd5e 9c3d a076 03bd d224 1cbd
000000d0: 03d0 81bd 6d43 853d b487 853d 5441 a9bd
000000e0: 87b9 ceba fbda b83b 478c ab3d b3a1 563d
000000f0: 6593 fb3c 5e4a e138 7196 a73c 0e0e 763c
00000100: 9089 e73b 8f5a aebc d08c 24bc 1963 7cbd
00000110: 7442 9a3c cbc0 d0bc 5561 863d 0946 0c3c
00000120: d2f4 a9bd 8042 df3a c882 ed3c 90b8 0a3d
00000130: 26c7 4c3b d8e3 523d 3276 29bd 200f 4b3c
00000140: 3eaa a53d f804 9dbc 8c58 863c 6584 cabc
00000150: a49f 8bbd 3bf7 a43d 3aee 57bc 53aa 59bd
00000160: 8dfb 843d a09a a93d 9407 8e3c 339c e7bc
00000170: f4bb d9bb 8906 abbd b812 74bd 6c26 103d
00000180: 43d0 57bd 66bf 103d 1cc8 133d 6efe e1bc
00000190: f998 5dbc 4592 a43d 2dfa 3c3d faec 94bd
000001a0: 5894 833d a457 f8bc a0e0 66bd ae4a 81bd
000001b0: 7022 c93c 4284 20bb b7c3 5cbd 87cb 743d
000001c0: d118 8d3d 80da 97bc 79a4 313d 94ea f5bc
000001d0: b059 a0bc 8b1a 07bd 8f4a 053d 5c9e 1bbd
000001e0: c04d af3b 058c 84bd e4ac 853c 5a0e 4bbd
000001f0: d832 38bc 5906 933d b5d2 1f3c d835 0c3c

critic1.preprocess.model.model.0.weight f4 [128, 3]
0.11124574 0.057273608 0.5620872 -0.15031987 -0.22509527 0.26985705 0.14835884 0.34558514
0.066416316 0.59570336 0.5961783 -0.05843209 0.49305996 0.45354012 -0.04379411 -0.63212353
-0.84963685 -0.23274648 0.34082532 -0.18815613 -0.43394342 -0.08467059 0.28603175 -0.16523208
0.1900648 -0.015881235 0.2890608 0.16798057 0.013756026 -0.5717852 0.6957071 -0.15476389
0.15439005 0.12378323 -0.061737597 0.066553056 0.42801225 -0.67001855 -0.21539254 -0.2512362
0.07793043 -0.56164944 -0.12206194 -0.7860769 -0.15712845 -0.29891607 -0.7970098 -0.40383443
-0.4049645 -0.36120299 0.1960363 -0.297384 -0.24422316 -0.5756786 0.46314386 0.06909886
0.585182 0.14199731 -0.184504 0.42760354 0.4682368 -0.035152674 0.18126455 -0.4961529
0.19592673 0.4702647 0.80063576 0.23026359 0.15763809 0.3347748 0.19346774 0.51349187
-0.5026947 -0.3987023 0.4204855 0.23093684 0.4950101 0.51258653 0.14907432 0.27605078
0.5110719 -0.047064528 -0.07596996 -0.3426672 -0.4175888 0.013018539 0.067017615 -0.7271344
0.2598116 -0.06024028 -0.49177784 -0.20431933 0.38539472 -0.01719621 -0.26129118 0.40383917
0.26441017 -0.100826375 0.41563433 0.20309304 0.07767445 0.50276154 0.28991893 0.26490328
-0.007204196 -0.48834336 0.35079828 0.37358472 0.059659988 0.39704576 0.32401046 -0.07312778
0.008178111 0.16401155 -0.44110465 0.35827214 -0.5072434 0.19621131 0.39381543 0.212367
-0.43994424 -0.8399028 -0.1640488 -0.5101043 0.2954873 0.5447546 0.4263297 0.20821816
-0.413591 -0.012003913 0.46712106 0.1243165 -0.5631505 -0.26425466 -0.3280914 -0.33825427
0.0962064 0.17224903 -0.5219695 -0.5640985 0.42809075 -0.4390593 0.1766795 -0.064985394
0.08181764 -0.54622227 0.2206581 0.042234253 0.3381815 0.50479627 0.34057578 0.1395538
0.42370752 0.20521286 0.55714285 0.24049717 -0.42576328 -0.5848783 -0.49280444 -0.41621056
0.41280323 -0.30978835 -0.5323891 0.27069283 -0.4153252 0.3550029 0.5331356 0.32791266
0.0016338385 0.6243987 0.3167518 0.0633272 0.23801258 0.20903657 0.2536168 0.18052617
-0.4627257 0.32174456 0.29699922 0.004933119 0.546701 0.6026404 0.2925265 0.6460592
0.69042045 0.067987934 -0.55022264 -0.5217683 -0.34870034 -0.46652636 -0.5278256 -0.2583826
0.27109584 0.34126705 -0.25992024 -0.34867895 0.17299673 0.5227875 -0.24863891 -0.29235312
0.115949124 -0.14467554 0.36558363 0.55030894 -0.33094376 -0.52801037 -0.30518764 0.42727646
-0.0009591018 0.10440706 0.33887985 0.5102309 0.36023596 0.19034792 0.58433604 0.408671
-0.459293 -0.49112737 -0.44660538 -0.5020328 0.55144095 0.44981268 0.28474548 -0.7305851
-0.37987605 -0.5462872 0.24163337 0.22681415 -0.9096979 0.41274732 -0.072033465 0.21491392
0.4908124 0.44627056 -0.7620433 0.71298254 -0.05632553 0.20219405 -0.31870973 -0.49505877
0.5221172 -0.009852363 0.06174717 0.31739396 0.16823138 -0.35879332 -0.65221846 -0.048868757
0.14343163 0.4493826 -0.380762 0.40180445 0.20872724 0.6377893 0.39425132 0.45530578
00000000: ced4 e33d bb97 6a3d f2e4 0f3f 74ed 19be
00000010: 607f 66be b42a 8a3e 61eb 173e 89f0 b03e
00000020: 4705 883d 0480 183f 249f 183f 7d56 6fbd
00000030: 5b72 fc3e 6936 e83e 7461 33bd d9d2 21bf
00000040: cd81 59bf 1855 6ebe a880 ae3e 00ac 40be
00000050: d52d debe c667 adbd c172 923e 9932 29be
00000060: 59a0 423e 5d19 82bc c7ff 933e 1903 2c3e
00000070: f460 613c 8460 12bf dc19 323f 6d7a 1ebe
00000080: 6d18 1e3e 1082 fd3d 90e0 7cbd f84c 883d
00000090: 6c24 db3e 5686 2bbf dd8f 5cbe 08a2 80be
000000a0: fd99 9f3d 42c8 0fbf 9cfb f9bd 563c 49bf
000000b0: 48e6 20be 870b 99be d608 4cbf 63c3 cebe
000000c0: 8257 cfbe 99ef b8be bdbd 483e b742 98be
000000d0: a315 7abe ac5f 13bf 3121 ed3e b483 8d3d
000000e0: 7dce 153f be67 113e 9eee 3cbe daee da3e
000000f0: bcbc ef3e 40fc 0fbd 6a9d 393e c107 febe
00000100: 04a1 483e 89c6 f03e 77f6 4c3f 38ca 6b3e
00000110: e16b 213e 9a67 ab3e 681c 463e 3474 033f
00000120: 9ab0 00bf b522 ccbe e049 d73e b57a 6c3e
00000130: f771 fd3e df38 033f f0a6 183e 8756 8d3e
00000140: 9cd5 023f bcc6 40bd 2396 9bbd 1372 afbe
00000150: 33ce d5be b64b 553c 8840 893d 7b25 3abf
00000160: 0706 853e 83be 76bd 4eca fbbe 1639 51be
00000170: 7552 c53e 11df 8cbc f5c7 85be 02c4 ce3e
00000180: c560 873e 0f7e cebd 06ce d43e 9ff7 4f3e
00000190: c813 9f3d fbb4 003f 4170 943e 67a1 873e
000001a0: 2d11 ecbb 2408 fabe d59b b33e 7f46 bf3e
000001b0: 085e 743d 9549 cb3e b3e4 a53e 04c4 95bd
000001c0: 7cfd 053c a5f2 273e 78d8 e1be 726f b73e
000001d0: b4da 01bf 9eeb 483e 2da2 c93e bc76 593e
000001e0: 5f40 e1be df03 57bf 69fc 27be 3296 02bf
000001f0: 1d4a 973e 0a75 0b3f e347 da3e 2437 553e
00000200: 33c2 d3be 0fac 44bc 7e2a ef3e a699 fe3d
00000210: a22a 10bf 634c 87be 99fb a7be aa2f adbe
00000220: dc07 c53d 0d62 303e cb9f 05bf c268 10bf
00000230: b62e db3e 61cc e0be 79eb 343e 1017 85bd
00000240: 0290 a73d 39d5 0bbf 32f4 613e d3fd 2c3d
00000250: 2026 ad3e 543a 013f f35f ae3e 31e7 0e3e
00000260: 31f0 d83e 5223 523e eaa0 0e3f e444 763e
00000270: a5fd d9be 96ba 15bf dd50 fcbe 8d19 d5be
00000280: f25a d33e 949c 9ebe a74a 08bf 4098 8a3e
00000290: 81a5 d4be f1c2 b53e 937b 083f 2be4 a73e
000002a0: 8626 d63a 98d8 1f3f 4b2d a23e b1b1 813d
000002b0: 92b9 733e af0d 563e 10da 813e dadb 383e
000002c0: 62ea ecbe b4bb a43e 4810 983e 00a6 a13b
000002d0: 99f4 0b3f a446 1a3f 09c6 953e 2364 253f
000002e0: 65bf 303f 423d 8b3d 64db 0cbf 9b92 05bf
000002f0: da88 b2be 8bdc eebe 941f 07bf b94a 84be
00000300: 13cd 8a3e 8eba ae3e 4414 85be 0c86 b2be
00000310: 0e26 313e 67d5 053f 339b 7ebe 4faf 95be
00000320: bc76 ed3d d325 14be c72d bb3e 0ce1 0c3f
00000330: 7671 a9be b02b 07bf 8e41 9cbe fbc3 da3e
00000340: 3b6c 7bba 5ed3 d53d a981 ad3e 7e9e 023f
00000350: d970 b83e 91ea 423e 0c97 153f 533d d13e
00000360: 7428 ebbe 0c75 fbbe 76a9 e4be 3985 00bf
00000370: 3c2b 0d3f d94d e63e 29ca 913e a007 3bbf
00000380: 1d7f c2be 7ad9 0bbf bd6e 773e f841 683e
00000390: f6e1 68bf 9e53 d33e 4886 93bd 6512 5c3e
000003a0: c34b fb3e 937d e43e 4515 43bf 0686 363f
000003b0: 99b5 66bd f50b 4f3e ec2d a3be 5878 fdbe
000003c0: 79a9 053f ce6b 21bc 9aea 7c3d 7681 a23e
000003d0: d944 2c3e c2b3 b7be caf7 26bf 9b2a 48bd
000003e0: bedf 123e 7a15 e63e 3df3 c2be 50b9 cd3e
000003f0: 98bc 553e 2946 233f 4fdb c93e d71d e93e

critic1.preprocess.model.model.0.bias f4 [128]
0.625386 -0.057261914 0.26545203 0.18453597 0.27416912 -0.32463297 -0.5008768 0.3184213
0.21146624 -0.22167267 -0.3762598 -0.38215238 -0.20212573 -0.29976535 -0.3899077 -0.48753035
-0.3876644 -0.47299108 -0.35822496 0.3074085 -0.09182941 -0.4784348 0.013933601 0.19890079
-0.2863027 -0.38147765 0.18453284 -0.553609 -0.55391175 0.17008021 0.15313458 0.6121099
0.49725133 0.33725864 0.051927287 -0.5276041 -0.18633518 0.09783252 -0.0958531 0.058833197
-0.30263245 -0.23891953 0.42494714 0.585541 -0.53977674 0.19617881 -0.09486694 -0.406419
-0.1250755 -0.20296645 -0.0036884535 0.4525641 0.08443599 -0.0036187242 0.037401605 -0.20748296
0.5834784 0.58055943 0.5825808 -0.28842613 0.42567262 0.3352316 -0.49154294 -0.4991713
0.34393772 0.3846094 -0.19633038 0.07930898 -0.26703775 -0.14776583 -0.51499134 0.36489764
-0.46161363 0.10516683 -0.107733786 -0.3674633 0.19508229 0.54739195 0.024233062 0.010453378
0.39289325 0.53550667 0.20700943 -0.4769354 0.26441026 0.5357769 0.36147252 0.5283444
-0.42062688 -0.1839214 0.45028263 -0.24774463 -0.44827804 0.39893803 0.5978793 0.30758485
-0.009413226 0.38360673 0.14168395 0.44639772 -0.48885393 -0.30572063 -0.35765922 0.20480725
-0.4316557 -0.3691515 -0.08276381 0.4534531 0.61652154 -0.427829 -0.08198627 -0.4455267
-0.4229391 -0.42807153 -0.5205354 0.45576435 -0.13890639 -0.14972359 -0.28713676 -0.10623956
0.23751181 0.3590763 0.614188 0.23508124 0.1855567 0.4307235 0.31597665 0.4733548
00000000: 4c19 203f 788b 6abd 54e9 873e fff6 3c3e
00000010: e55f 8c3e 4b36 a6be 7639 00bf 1e08 a33e
00000020: 9b8a 583e 29fe 62be 20a5 c0be 7aa9 c3be
00000030: 0cfa 4ebe d87a 99be fba1 c7be 949d f9be
00000040: f37b c6be e32b f2be 4369 b7be a664 9d3e
00000050: 0f11 bcbd 68f5 f4be c249 643c a6ac 4b3e
00000060: 4496 92be 0a51 c3be 2df6 3c3e 52b9 0dbf
00000070: 29cd 0dbf 8229 2e3e 50cf 1c3e 3cb3 1c3f
00000080: ba97 fe3e 2aad ac3e b5b1 543d 1011 07bf
00000090: a6ce 3ebe 6b5c c83d a14e c4bd 14fb 703d
000000a0: a4f2 9abe 52a7 74be ac92 d93e 04e6 153f
000000b0: cf2e 0abf 19e3 483e 9949 c2bd 2716 d0be
000000c0: cb13 00be 70d6 4fbe fbb9 71bb 7bb6 e73e
000000d0: c7ec ac3d 1e28 6dbb 6d32 193d 6a76 54be
000000e0: d75e 153f 8b9f 143f 0424 153f 97ac 93be
000000f0: c3f1 d93e 7aa3 ab3e 84ab fbbe 6193 ffbe
00000100: 9b18 b03e 86eb c43e d50a 49be bf6c a23d
00000110: 2cb9 88be ed4f 17be 79d6 03bf ddd3 ba3e
00000120: 9f58 ecbe b561 d73d 88a3 dcbd 2624 bcbe
00000130: a7c3 473e e121 0c3f 6a84 c63c a544 2b3c
00000140: 4e29 c93e f716 093f 48fa 533e e030 f4be
00000150: c860 873e ad28 093f ed12 b93e 9441 073f
00000160: 685c d7be e455 3cbe 728b e63e c5b0 7dbe
00000170: b384 e5be 9b41 cc3e 9e0e 193f c37b 9d3e
00000180: ee39 1abc 1a68 c43e 9915 113e 3e8e e43e
00000190: 104b fabe 6a87 9cbe 1c1f b7be feb8 513e
000001a0: fa01 ddbe 6d01 bdbe 1380 a9bd 012b e83e
000001b0: 5bd4 1d3f 670c dbbe 6be8 a7bd 131c e4be
000001c0: 798b d8be 312c dbbe cf41 05bf f259 e93e
000001d0: 7a3d 0ebe 2451 19be 9703 93be 2094 d9bd
000001e0: 4c36 733e d9d8 b73e 6d3b 1d3f 23b9 703e
000001f0: 9302 3e3e ca87 dc3e b1c7 a13e 8f5b f23e

critic1.preprocess.model.model.2.weight f4 [128, 128]
-0.023674548 0.053041868 -0.016031474 0.053268425 -0.078101516 0.005050607 0.03386125 0.025122754
-0.04785943 -0.058005854 0.074896045 -0.012143478 0.088155754 0.020714574 0.037163384 0.051065378
-0.041873198 -0.08520085 -0.009581253 0.08261032 0.055028357 0.06903195 -0.0030427724 0.021313436
-0.02510766 0.049134992 -0.07496537 0.011253275 -0.0034971535 -0.0053223222 -0.02350729 -0.07233232
0.08266916 -0.08772905 0.0056363493 0.056671835 -0.005814433 -0.0579456 -0.060145322 -0.025524803
-0.046109833 -0.05165014 0.06422391 -0.047953863 0.00950364 -0.052012317 0.0009789243 -0.06069539
-0.015241794 -0.012467511 -0.023897797 -0.03918913 0.033352718 0.038302727 -0.03900926 -0.07760337
-0.06708068 -0.022779137 -0.037073757 -0.018960938 0.0032912344 -0.06719112 -0.020949513 -0.06516279
-0.0008985996 -0.057804327 -0.08147018 -0.061556272 -0.060570594 -0.033928096 0.06415153 -0.07039674
0.08481433 -0.017071158 0.049022056 -0.054926362 -0.0039488003 -0.026421942 0.07391841 -0.06556941
0.042930342 0.08021965 0.071671166 -0.029502403 -0.013116449 -0.070089325 0.06361809 0.018937148
0.06868174 -0.07947181 -0.006083742 0.03129925 -0.037259616 0.014055945 -0.06570255 -0.034145754
-0.004827246 -0.028242465 0.08271722 -0.08076551 0.055354096 0.0005100891 -0.053211566 0.007159412
0.071158625 0.016254276 0.06816023 -0.07695916 -0.033059135 0.00902319 0.04280583 0.031767406
-0.02938765 0.041315757 -0.00017187744 -0.030027691 0.027383998 0.030308314 -0.070486695 0.033175737
0.052590735 0.084563546 -0.025085099 0.053243525 -0.07983791 -0.023666404 0.04842914 0.062401734
0.04758942 -0.06723679 0.028764421 0.09596793 0.11910182 0.07031676 0.03731079 0.037911322
0.028769167 -0.02727163 0.04355859 -0.014612235 -0.059695285 0.030271916 0.016745862 -0.10368869
-0.3010765 0.022158751 0.001595631 0.10550982 0.12022473 -0.018141989 0.13782907 0.024569206
-0.06091195 -0.021301495 -0.033278223 0.006526598 0.01935403 0.13006668 -0.044725273 0.089001015
0.13152178 0.048642963 0.13116759 -0.06317355 -0.063662976 -0.047416925 0.055787504 0.09176224
0.038742416 0.0018500317 0.0786095 0.008616565 0.0007044341 0.027120823 0.025417117 -0.10555484
0.03880817 0.033555288 -0.017870931 0.11334789 0.050196696 0.05194518 0.08197807 -0.05119256
0.09253331 0.0016189325 0.120915174 0.0052599907 0.09859902 0.06672911 0.020419803 -0.025837932
0.018057875 -0.02238755 -0.27166232 -0.052781254 -0.06789251 -0.044809163 -0.04702857 0.009137495
0.02748719 -0.023737498 -0.058598034 -0.2563441 0.014874274 -0.008933046 0.034126412 0.06541771
0.17474322 0.030137982 -0.13005668 0.049159948 0.028993325 0.042848013 0.17634493 -0.00016005666
0.11072791 -0.040718157 0.057552647 0.012362673 -0.06977482 -0.019714694 -0.010374575 0.086910576
0.14497037 0.16358407 -0.035604335 0.08648785 -0.25648504 -0.07813361 -0.05822826 0.076396644
-0.17902598 -0.027799029 0.103523605 0.14783832 0.023952497 -0.26613107 -0.013996903 0.108752005
0.034994744 -0.11883372 -0.07064761 0.09997512 -0.09254872 -0.08119666 -0.009562478 0.0366682
-0.009488537 0.016175648 0.07217198 -0.005817279 0.02788517 0.09612346 0.1828848 -0.0059721363
00000000: 20f1 c1bc 6e42 593d 7054 83bc fe2f 5a3d
00000010: b0f3 9fbd 907f a53b 18b2 0a3d 3cce cd3c
00000020: 4008 44bd 8c97 6dbd 1963 993d 70f5 46bc
00000030: 018b b43d 9cb1 a93c a238 183d ee29 513d
00000040: 3b83 2bbd c97d aebd b0fa 1cbc 992f a93d
00000050: 6a65 613d 9f60 8d3d 4069 47bb 8499 ae3c
00000060: 94ae cdbc c641 493d 7287 99bd a85f 383c
00000070: 8030 65bb e066 aebb 5c92 c0bc f822 94bd
00000080: 734e a93d 4aab b3bd 20b1 b83b ba20 683d
00000090: 0087 bebb 5e58 6dbd f15a 76bd 6419 d1bc
000000a0: aadd 3cbd 198f 53bd d387 833d 456b 44bd
000000b0: 28b5 1b3c de0a 55bd 404f 803a bb9b 78bd
000000c0: b8b8 79bc 8844 4cbc 50c5 c3bc c884 20bd
000000d0: dc9c 083d 52e3 1c3d 2cc8 1fbd 84ee 9ebd
000000e0: 9861 89bd 509b babc a7da 17bd f853 9bbc
000000f0: c0b1 573b 7f9b 89bd 509e abbc 1274 85bd
00000100: 0090 6bba 3bc4 6cbd d6d9 a6bd 6e22 7cbd
00000110: df18 78bd 30f8 0abd e161 833d 2b2c 90bd
00000120: 23b3 ad3d d0d8 8bbc 5acb 483d 77fa 60bd
00000130: f064 81bb d472 d8bc 8962 973d 4149 86bd
00000140: bad7 2f3d 334a a43d 55c8 923d 06af f1bc
00000150: 60e6 56bc fe8a 8fbd 334a 823d 1422 9b3c
00000160: 03a9 8c3d 1ec2 a2bd 205a c7bb a433 003d
00000170: 8a9d 18bd e84a 663c 0f8f 86bd 6bdc 0bbd
00000180: e02d 9ebb be5c e7bc a567 a93d 6368 a5bd
00000190: faba 623d 80b7 053a 5ff4 59bd 8099 ea3b
000001a0: 9dbb 913d b027 853c 9797 8b3d c49c 9dbd
000001b0: 0469 07bd 00d6 133c 2a55 2f3d 8a1e 023d
000001c0: 5ebe f0bc b63a 293d 003a 34b9 a2fc f5bc
000001d0: 6854 e03c 2449 f83c 545b 90bd 48e3 073d
000001e0: 6269 573d a72f ad3d 447f cdbc e215 5a3d
000001f0: 0f82 a3bd 0ce0 c1bc a25d 463d f698 7f3d
00000200: 20ed 423d 71b3 89bd 5da3 eb3c d68a c43d
00000210: a8eb f33d 3c02 903d 33d3 183d e748 1b3d
00000220: 51ad eb3c c168 dfbc 7e6a 323d 2868 6fbc
00000230: 0b83 74bd cffc f73c 9e2e 893c bc5a d4bd
00000240: b326 9abe 4586 b53c 7e24 d13a 8815 d83d
00000250: 6238 f63d 829e 94bc 1023 0d3e 5c45 c93c
00000260: cf7e 79bd 7980 aebc bf4e 08bd 12dd d53b
00000270: 588c 9e3c 3330 053e d931 37bd 2a46 b63d
00000280: a5ad 063e d83d 473d cc50 063e 2261 81bd
00000290: bc61 82bd 4038 42bd 7081 643d d7ed bb3d
000002a0: 5eb0 1e3d c37c f23a 04fe a03d 7e2c 0d3c
000002b0: c6a9 383a 7d2c de3c 8f37 d03c 232d d8bd
000002c0: 51f5 1e3d 4571 093d 0f66 92bc f022 e83d
000002d0: 0d9b 4d3d 78c4 543d 1ee4 a73d 4aaf 51bd
000002e0: 1b82 bd3d 5c32 d43a 60a2 f73d 005c ac3b
000002f0: 48ee c93d 46a9 883d 6e47 a73c 12aa d3bc
00000300: 1cee 933c 1866 b7bc 5317 8bbe 2831 58bd
00000310: 3a0b 8bbd d089 37bd 08a1 40bd 6fb5 153c
00000320: d12c e13c 2475 c2bc 7e04 70bd 893f 83be
00000330: 3ab3 733c e95b 12bc 23c8 0b3d b8f9 853d
00000340: e3ef 323e eee3 f63c 942d 05be f15b 493d
00000350: 6983 ed3c 6681 2f3d c493 343e e2d4 27b9
00000360: 51c5 e23d 15c8 26bd 53bc 6b3d cf8c 4a3c
00000370: 1ae6 8ebd b680 a1bc 1ffa 29bc 2cfe b13d
00000380: 1d73 143e 9582 273e dad5 11bd 8b20 b13d
00000390: 0252 83be 8404 a0bd c280 6ebd d875 9c3d
000003a0: 9652 37be caba e3bc 2f04 d43d ee62 173e
000003b0: 0738 c43c 5542 88be 4453 65bc 5fb9 de3d
000003c0: a656 0f3d 185f f3bd b2af 90bd c1bf cc3d
000003d0: 2f8a bdbd 6f4a a6bd f1ab 1cbc 6531 163d
000003e0: cf75 1bbc cb82 843c e7ce 933d e09e bebb
000003f0: 716f e43c 60dc c43d 2746 3b3e e9b1 c3bb

critic1.preprocess.model.model.2.bias f4 [128]
0.04573094 0.12358947 0.05430338 0.13827373 0.04640475 0.12139298 0.016505238 0.05612322
0.040837012 0.10152933 -0.08053941 0.02462655 -0.0421629 0.01096782 -0.023104569 0.14427362
0.015846323 -0.07659466 0.05131595 0.09033112 0.017385975 0.019829595 0.08203882 0.04097068
0.0063082436 -0.0784253 -0.013174848 0.1317453 0.07714456 0.029814892 0.03770454 0.09999532
-0.015365273 -0.03192364 -0.0225085 -0.043015726 -0.060174245 -0.07890708 -0.03706947 0.034572814
0.06689874 0.05368512 0.059850756 -0.010927849 -0.0059178453 -0.023958247 -0.07854584 -0.07402725
0.113030985 0.1318389 0.09695398 0.016105661 -0.010620047 0.0057669133 -0.064543486 -0.047169764
0.100411244 0.049848665 0.04064644 0.002397447 -0.09453038 0.033463575 -0.098477334 0.002920601
-0.061623875 0.014275732 0.07026895 0.14285834 0.009686824 0.13327508 0.07149551 -0.042352546
0.029655848 0.02850055 0.08086508 -0.0026326145 -0.04476738 0.05778593 -0.08437677 -0.022282995
-0.06628409 -0.042319354 0.006433612 0.06037412 0.03777189 0.024229454 -0.061863936 0.026563907
-0.0010224606 0.059604317 -0.039315138 -0.003719361 0.108700626 0.12661807 -0.074704416 -0.006106249
0.056265805 0.03301116 -0.020824129 -0.0034233646 -0.038230944 0.025080925 0.04317866 0.12400417
0.08222682 -0.057083603 0.12794055 0.11197864 0.062249266 -0.008625104 -0.022745825 -0.0053869244
-0.07535721 0.10515328 0.04019962 -0.07501964 0.008252598 -0.012829911 -0.06315415 -0.100128554
0.11945951 0.15908054 0.006326001 0.028503135 -0.008641326 -0.014960168 -0.079202145 0.029171139
00000000: 5e50 3b3d 7a1c fd3d 396d 5e3d a197 0d3e
00000010: e812 3e3d e29c f83d fe35 873c 76e1 653d
00000020: b644 273d 9cee cf3d d9f1 a4bd 9ebd c93c
00000030: 01b3 2cbd 5fb2 333c cb45 bdbc 77bc 133e
00000040: 26d0 813c a9dd 9cbd ac30 523d 86ff b83d
00000050: 086d 8e3c ad71 a23c f803 a83d dfd0 273d
00000060: 62b5 ce3b 729d a0bd 51db 57bc 3de8 063e
00000070: f8fd 9d3d 5c3e f43c 1370 1a3d 59ca cc3d
00000080: a0be 7bbc 5dc2 02bd bf63 b8bc 4231 30bd
00000090: 4579 76bd 099a a1bd 28d6 17bd 399c 0d3d
000000a0: 3502 893d eee4 5b3d 1126 753d b90a 33bc
000000b0: 7cea c1bb 1644 c4bc a4dc a0bd 999b 97bd
000000c0: ca7c e73d c700 073e cf8f c63d 05f0 833c
000000d0: b5ff 2dbc 60f8 bc3b 602f 84bd 1535 41bd
000000e0: 69a4 cd3d 1d2e 4c3d e27c 263d 7c1e 1d3b
000000f0: 2599 c1bd 1a11 093d 7cae c9bd 8e67 3f3b
00000100: 5169 7cbd c3e4 693c 2be9 8f3d 7549 123e
00000110: 7cb5 1e3c 4379 083e 3d6c 923d dd79 2dbd
00000120: d2f0 f23c fc79 e93c 979c a53d f187 2cbb
00000130: 005e 37bd f0b0 6c3d bacd acbd d48a b6bc
00000140: f4bf 87bd 0f57 2dbd 0dd1 d23b da4a 773d
00000150: b3b6 1a3d d97c c63c 0a65 7dbd 8d9c d93c
00000160: 1604 86ba a823 743d e908 21bd 86c0 73bb
00000170: 6f9e de3d 2ba8 013e a1fe 98bd ee16 c8bb
00000180: f976 663d b636 073d 5d97 aabc 875a 60bb
00000190: 0d98 1cbd 8376 cd3c 1bdc 303d e6f5 fd3d
000001a0: 8966 a83d 7fd0 69bd d902 033e 0f55 e53d
000001b0: 16f9 7e3d 4f50 0dbc 7455 babc cc84 b0bb
000001c0: e254 9abd 9a5a d73d 5ba8 243d e6a3 99bd
000001d0: e835 073c 8c34 52bc f756 81bd 3310 cdbd
000001e0: 30a7 f43d 02e6 223e 584a cf3b 687f e93c
000001f0: 5994 0dbc 7e1b 75bc bc34 a2bd 50f8 ee3c

critic1.last.model.0.weight f4 [1, 128]
0.053980745 0.15033376 0.0068509737 0.1203142 -0.1186075 0.07587162 0.069262244 -0.070949376
-0.06925954 0.08009561 -0.001180552 -0.06762972 0.06533963 -0.042534083 0.10335788 0.19672431
-0.04124281 -0.020206787 0.09619067 0.05793201 -0.021060422 -0.02686811 -0.106982246 0.020897942
0.15561502 0.0464055 -0.006653981 0.11515882 0.10555648 -0.005817339 0.07483447 0.070721425
0.06416225 -0.04388544 -0.043114286 0.0035882313 -0.05852449 -0.024751259 -0.04983913 -0.036212806
-0.13202581 0.14032504 -0.041997407 -0.09295538 0.08749237 0.0547474 -0.09083687 0.02569063
0.14403608 0.08628008 0.20096752 -0.04597376 0.09300728 -0.060577717 -0.027006757 -0.08044764
0.08612125 -0.05894178 -0.038216956 0.07447465 0.069082156 0.13716678 0.00067234 0.087871395
0.05950692 0.15305056 0.11934985 0.14641875 0.004797536 0.13396645 0.082946025 -0.040412966
-0.030626912 -0.07877842 0.022225522 0.0838926 0.05254591 -0.07313804 0.08024485 -0.061572768
0.04769086 -0.060396016 -0.10835906 -0.025997555 0.013596803 -0.04334017 -0.06886962 -0.034935635
-0.017386543 -0.054190468 0.07527395 0.11235499 0.078987524 0.14188068 0.059134644 -0.04212076
-0.025792386 0.042233042 0.0550914 -0.031551447 -0.00052720116 -0.028785773 0.10158712 0.14644903
0.1378541 0.03105308 0.12208556 0.1297397 0.008863948 0.049583588 0.07104155 0.14627336
-0.015190856 0.13522926 -0.050820306 0.08232505 0.06173993 -0.027843338 -0.0066439062 -0.047651786
0.10756461 0.14315118 0.11218713 0.12875259 -0.13153327 -0.047548156 -0.044034403 0.07154495
00000000: ea1a 5d3d 18f1 193e 227e e03b 4b67 f63d
00000010: 7de8 f2bd 9462 9b3d 5dd9 8d3d e84d 91bd
00000020: f2d7 8dbd 2b09 a43d c0bc 9aba 7381 8abd
00000030: c9d0 853d 3838 2ebd 4cad d33d 1972 493e
00000040: 39ee 28bd b488 a5bc 9dff c43d 1e4a 6d3d
00000050: e886 acbc 831a dcbc 8219 dbbd 2932 ab3c
00000060: 8b59 1f3e b213 3e3d a309 dabb 63d8 eb3d
00000070: ff2d d83d 609f bebb d142 993d 65d6 903d
00000080: 7f67 833d 38c1 33bd 9b98 30bd 8828 6b3b
00000090: 60b7 6fbd 27c3 cabc 1e24 4cbd e153 14bd
000000a0: c631 07be 5eb1 0f3e 7905 2cbd 645f bebd
000000b0: 332f b33d cf3e 603d ae08 babd 2875 d23c
000000c0: 327e 133e 9cb3 b03d 6eca 4d3e fb4e 3cbd
000000d0: 9a7a be3d 5720 78bd 463d ddbc bbc1 a4bd
000000e0: 5760 b03d f06c 71bd 6289 1cbd 2a86 983d
000000f0: f27a 8d3d 7375 0c3e f93f 303a ebf5 b33d
00000100: 87bd 733d 49b9 1c3e b26d f43d ccee 153e
00000110: a634 9d3b 802e 093e 9bdf a93d 1188 25bd
00000120: 4ae5 fabc 9556 a1bd 4c12 b63c e2cf ab3d
00000130: 613a 573d 66c9 95bd 6957 a43d ba33 7cbd
00000140: 7e57 433d d061 77bd 5beb ddbd d3f8 d4bc
00000150: 20c5 5e3c 7685 31bd 840b 8dbd ab18 0fbd
00000160: 396e 8ebc d3f6 5dbd 3b29 9a3d 5f1a e63d
00000170: 36c4 a13d 2b49 113e 2b37 723d d186 2cbd
00000180: 8e4a d3bc 8efc 2c3d 85a7 613d 173c 01bd
00000190: df33 0aba 24d0 ebbc e80c d03d bcf6 153e
000001a0: a029 0d3e 0763 fe3c fe07 fa3d 7cda 043e
000001b0: 183a 113c 2918 4b3d 3b7e 913d afc8 153e
000001c0: 11e3 78bc 8a79 0a3e f428 50bd 099a a83d
000001d0: 02e3 7c3d b617 e4bc 20b5 d9bb 852e 43bd
000001e0: d64a dc3d 3996 123e 5ec2 e53d b8d7 033e
000001f0: a8b0 06be dbc1 42bd 6b5d 34bd 2986 923d

critic1_old.preprocess.model.model.0.weight f4 [128, 3]
0.10716692 0.047066677 0.562386 -0.14939675 -0.21622379 0.27103597 0.14360744 0.33412853
0.06664385 0.58627224 0.5861764 -0.06207133 0.48555872 0.442484 -0.04182105 -0.63015026
-0.78707206 -0.23333879 0.33765626 -0.16036953 -0.43488762 -0.08919974 0.27626637 -0.16658229
0.18580925 -0.02540779 0.28935087 0.17356001 0.055105537 -0.571808 0.69000095 -0.16056716
0.15599312 0.12378332 -0.061737597 0.066553056 0.42506748 -0.64790624 -0.21545708 -0.24744235
0.12672953 -0.5618718 -0.12083963 -0.7580355 -0.1576531 -0.29023722 -0.75287586 -0.40329728
-0.40746275 -0.35708 0.19333193 -0.29160196 -0.198501 -0.57567865 0.46257514 0.0750562
0.5857544 0.13752641 -0.19418493 0.42789403 0.462993 -0.044726137 0.1814312 -0.49407852
0.20188077 0.47078547 0.794735 0.22131532 0.15821937 0.33002156 0.18424512 0.5137487
-0.50084007 -0.38960525 0.42010292 0.21894385 0.50111645 0.5125633 0.1430888 0.26562712
0.5117046 -0.048486512 -0.043817904 -0.34382367 -0.41920912 0.014627353 0.067457795 -0.71270204
0.18984953 -0.06508292 -0.48498568 -0.19024196 0.3864606 -0.022349918 -0.27136377 0.40396103
0.26029158 -0.11149416 0.41600448 0.19892173 0.06789797 0.5030976 0.28248838 0.2568067
-0.0059828996 -0.4850427 0.35719508 0.37354863 0.05861158 0.4039906 0.3236325 -0.077646695
-0.0009413654 0.16421083 -0.43868345 0.351135 -0.5085771 0.19073476 0.38433036 0.21276933
-0.4367402 -0.7829279 -0.16444081 -0.50961524 0.30678928 0.5442134 0.4196817 0.19922927
-0.41614398 -0.016852044 0.45589098 0.124714814 -0.55671537 -0.21492396 -0.32797858 -0.33553058
0.10312897 0.17249228 -0.5183929 -0.55040914 0.42835814 -0.4291519 0.2194319 -0.06648955
0.083492495 -0.5281986 0.22105822 0.043712918 0.34694666 0.5054153 0.3343722 0.13030525
0.4242465 0.20090923 0.54656476 0.24073766 -0.4244717 -0.5693582 -0.49387348 -0.41125038
0.39165395 -0.3136133 -0.5311284 0.22650848 -0.41624686 0.34950686 0.5271327 0.3285092
-0.0033195934 0.6140237 0.31688812 0.05830864 0.22680815 0.2092156 0.24754351 0.17161135
-0.46336097 0.32174456 0.29699922 0.004933119 0.5417473 0.5921038 0.2928367 0.6401188
0.6803715 0.06833538 -0.545517 -0.47150543 -0.34878653 -0.45890668 -0.48153764 -0.25830355
0.26434088 0.332201 -0.26043174 -0.35455978 0.16420563 0.5223799 -0.24755748 -0.2848097
0.11487283 -0.1505499 0.3569591 0.5509632 -0.32778877 -0.47662446 -0.3054501 0.4199197
-0.009626193 0.10610862 0.3324909 0.50579363 0.3606269 0.18607937 0.5738657 0.4089434
-0.4542573 -0.44016147 -0.44674873 -0.49728465 0.5628769 0.45061123 0.28417563 -0.6905336
-0.38105488 -0.54441285 0.25015238 0.22554158 -0.8947795 0.34272072 -0.07987336 0.21059003
0.48029524 0.44657093 -0.7441688 0.63484883 -0.09056934 0.20642605 -0.27867314 -0.4959026
0.51735395 -0.020480594 0.06191908 0.31081736 0.15874161 -0.35778502 -0.64866793 -0.03558798
0.14251176 0.44249153 -0.38493145 0.40219367 0.2025237 0.6264193 0.39468285 0.4483135
00000000: 557a db3d fdc8 403d 87f8 0f3f 76fb 18be
00000010: c569 5dbe 3ac5 8a3e d40d 133e e512 ab3e
00000020: 927c 883d f015 163f a80f 163f 823e 7ebd
00000030: 279b f83e 438d e23e 8d4c 2bbd 8751 21bf
00000040: 8e7d 49bf 5df0 6ebe 48e1 ac3e e937 24be
00000050: 97a9 debe 5aae b6bd c972 8d3e 8c94 2abe
00000060: c844 3e3e ff23 d0bc cc25 943e b7b9 313e
00000070: 58b6 613d 0262 12bf e7a3 303f b86b 24be
00000080: a9bc 1f3e 1c82 fd3d 90e0 7cbd f84c 883d
00000090: 72a2 d93e 2fdd 25bf c8a0 5cbe 8761 7dbe
000000a0: 63c5 013e d5d6 0fbf c57a f7bd 9d0e 42bf
000000b0: d06f 21be f999 94be 79bc 40bf fb7c cebe
000000c0: f59e d0be 31d3 b6be cef8 453e da4c 95be
000000d0: d943 4bbe ad5f 13bf a6d6 ec3e 11b7 993d
000000e0: 00f4 153f b9d3 0c3e 6ad8 46be ed14 db3e
000000f0: 6b0d ed3e c132 37bd 1ac9 393e dcf7 fcbe
00000100: d5b9 4e3e cb0a f13e c173 4b3f 7ca0 623e
00000110: 4204 223e 96f8 a83e c1aa 3c3e 0985 033f
00000120: 0e37 00bf 577a c7be bb17 d73e d132 603e
00000130: 2b49 003f 5937 033f df85 123e 4700 883e
00000140: 13ff 023f cb99 46bd 677a 33bd a809 b0be
00000150: 94a2 d6be 91a7 6f3c 5027 8a3d a473 36bf
00000160: ea67 423e 324a 85bd 0b50 f8be cace 42be
00000170: 2ade c53e 2d17 b7bc 31f0 8abe fbd3 ce3e
00000180: f044 853e 0d57 e4bd 8afe d43e 23b2 4b3e
00000190: 170e 8b3d 01cb 003f 51a2 903e 2b7c 833e
000001a0: 330c c4bb 8457 f8be 46e2 b63e c441 bf3e
000001b0: b212 703d dbd7 ce3e 29b3 a53e 3b05 9fbd
000001c0: f6c5 76ba e226 283e 1e9b e0be f7c7 b33e
000001d0: 1c32 02bf f94f 433e f3c6 c43e 34e0 593e
000001e0: 699c dfbe f66d 48bf 2c63 28be 2576 02bf
000001f0: 7c13 9d3e 9251 0b3f 85e0 d63e c202 4c3e
00000200: d310 d5be 4c0d 8abc 8b6a e93e 7b6a ff3d
00000210: e684 0ebf 0715 5cbe cfec a7be aaca abbe
00000220: 4835 d33d d1a1 303e 66b5 04bf 9de7 0cbf
00000230: c251 db3e ccb9 dbbe c2b2 603e ac2b 88bd
00000240: 1dfe aa3d 0638 07bf 165d 623e 510c 333d
00000250: fea2 b13e e662 013f d532 ab3e bd6e 053e
00000260: d636 d93e 26bb 4d3e abeb 0b3f ef83 763e
00000270: 5b54 d9be 76c1 11bf fcdc fcbe 698f d2be
00000280: de86 c83e ec91 a0be 08f8 07bf d7f1 673e
00000290: 4f1e d5be 90f2 b23e 2bf2 063f 5c32 a83e
000002a0: 898d 59bb a830 1d3f 293f a23e 0ad5 6e3d
000002b0: 6540 683e 9d3c 563e 0c7c 7d3e e3ba 2f3e
000002c0: a63d edbe b4bb a43e 4810 983e 00a6 a13b
000002d0: f3af 0a3f 1d94 173f b1ee 953e d3de 233f
000002e0: d42c 2e3f 6bf3 8b3d 01a7 0bbf 2969 f1be
000002f0: 2694 b2be d1f5 eabe 1a8c f6be 5d40 84be
00000300: b057 873e 4016 aa3e 4f57 85be dc88 b5be
00000310: 8525 283e b0ba 053f b57f 7dbe 94d2 91be
00000320: 7242 eb3d c129 1abe 58c3 b63e ed0b 0d3f
00000330: eed3 a7be 1f08 f4be f563 9cbe b7ff d63e
00000340: 2eb7 1dbc 7a4f d93d 3f3c aa3e b17b 013f
00000350: 17a4 b83e 978b 3e3e dde8 123f 0861 d13e
00000360: 6a94 e8be d85c e1be 40bc e4be 189c febe
00000370: b318 103f 84b6 e63e 787f 913e cfc6 30bf
00000380: a019 c3be a45e 0bbf f913 803e 5ff4 663e
00000390: 4510 65bf 1779 af3e a594 a3bd eaa4 573e
000003a0: 42e9 f53e f2a4 e43e d981 3ebf 7485 223f
000003b0: 6b7c b9bd 5a61 533e 3fae 8ebe f2e6 fdbe
000003c0: 4f71 043f ebc6 a7bc dc9e 7d3d 7423 9f3e
000003d0: 298d 223e 992f b7be 1a0f 26bf b4c4 11bd
000003e0: 9aee 113e 408e e23e bc15 c5be 54ec cd3e
000003f0: 5f62 4f3e 045d 203f df13 ca3e 5989 e53e
